vae/relu-bce.pth (torch_old, 519379 bytes, 70 tensors)

exp_avg f4 [6, 3, 3, 3]
00000000: 0400 0000 0400 0000 0400 0000 0400 0000
00000010: 0400 0000 0400 0000 0400 0000 0400 0000
00000020: 0400 0000 0400 0000 0400 0080 0400 0000
00000030: 0400 0000 0400 0000 0400 0000 0400 0000
00000040: 0400 0000 0400 0000 0400 0000 0400 0000
00000050: 0400 0000 0400 0000 0400 0000 0400 0000
00000060: 0400 0000 0400 0000 0400 0000 f5f8 5aba
00000070: 235d 57ba 4328 45ba 42d7 58ba abe6 54ba
00000080: 0259 46ba 45c0 4aba 1446 44ba d15d 38ba
00000090: fa62 f739 c544 df39 4b06 f939 9388 ef39
000000a0: 73c0 d139 5f3f e639 f1c6 fc39 b7db e939
000000b0: df7d f839 b924 193a 8152 083a e879 123a
000000c0: cc5a 143a 0314 003a 20cf 063a 247b 1a3a
000000d0: efa8 0c3a 6b65 0e3a f973 9133 84a6 7933
000000e0: 8977 8333 02c0 9533 9990 7b33 2853 8c33
000000f0: 746a 6733 45b4 3a33 97d0 6533 ae2c 8233
00000100: c982 7b33 c1dd 6c33 6ef7 8433 778e 7f33
00000110: 35fd 7c33 4c4b 4133 febd 5833 08a4 5633
00000120: 85a7 8233 c982 7b33 3de6 7533 ca57 8633
00000130: a804 7f33 bece 8333 d557 5b33 43b3 5a33
00000140: 97d0 6533 2b83 2236 2d1a fc35 8ea9 0a36
00000150: 40e7 5636 fefb 2436 db5b 2c36 455c 5336
00000160: d1a2 4836 79cd 7236 5ad3 8c33 0e64 4f32
00000170: eb0e 9b34 a02c 4b35 a86e 3335 c3ac ae34
00000180: cbea 4835 5f01 9835 db3b 2036 dd4f 8433
00000190: bd24 8234 b64c f834 63d7 5735 f489 7535
000001a0: 393c f934 682b 6735 1f7d b035 f8a4 2f36
000001b0: c7c6 d7ba 51b0 e2ba 360a eaba e0fe d7ba
000001c0: ffa1 e1ba 8d8f e8ba ae60 d6ba a2bc dfba
000001d0: 3b14 e8ba 3aa2 8eba 1ff2 8bba 01c4 8fba
000001e0: ad56 90ba c804 8fba fc67 93ba e594 92ba
000001f0: fc42 90ba 729c 95ba c7c3 8dba 96ad 88ba
00000200: 4a4e 8bba 8a3f 8fba 5487 8bba 53af 8fba
00000210: 0aec 91ba e90b 8dba 5527 92ba 5901 2135
00000220: 4e75 2535 8817 2735 50c7 2a35 0687 2435
00000230: 0bbf 2935 8e75 2a35 0614 1f35 1c14 1d35
00000240: 4e60 1435 d689 0e35 8f80 0f35 94d4 1c35
00000250: 9311 1235 1a43 1b35 e663 1535 e422 0235
00000260: 231a 1035 6d16 2835 6b7c 1735 ac50 2335
00000270: 50dc 2a35 0f91 1e35 6269 2135 95a3 2635
00000280: 4fa9 1635 285f 2135
6e-45 6e-45 6e-45 6e-45 6e-45 6e-45 6e-45 6e-45
6e-45 6e-45 -6e-45 6e-45 6e-45 6e-45 6e-45 6e-45
6e-45 6e-45 6e-45 6e-45 6e-45 6e-45 6e-45 6e-45
6e-45 6e-45 6e-45 -0.00083531375 -0.00082154776 -0.0007520953 -0.0008271822 -0.00081215304
-0.0007566364 -0.0007734339 -0.0007487249 -0.00070330227 0.00047185255 0.00042585112 0.0004749767 0.00045687388
0.00040006972 0.00043916234 0.00048213408 0.00044604923 0.00047396027 0.0005841959 0.00052002823 0.00055876235
0.0005659282 0.00048857945 0.00051425584 0.0005892983 0.0005365749 0.00054319826 6.773184e-08 5.8126275e-08
6.121906e-08 6.973279e-08 5.8572002e-08 6.534384e-08 5.3880697e-08 4.3470454e-08 5.350793e-08 6.061724e-08
5.855944e-08 5.5149716e-08 6.191736e-08 5.9501385e-08 5.8903613e-08 4.5004796e-08 5.0464216e-08 4.9974943e-08
6.0840684e-08 5.855944e-08 5.7252908e-08 6.25583e-08 5.937605e-08 6.137769e-08 5.1069794e-08 5.0920118e-08
5.350793e-08 2.421623e-06 1.8783081e-06 2.0662296e-06 3.202309e-06 2.4584583e-06 2.5683464e-06 3.1495158e-06
2.9897094e-06 3.618041e-06 6.557703e-08 1.2071736e-08 2.8881854e-07 7.568833e-07 6.684372e-07 3.2535726e-07
7.4847475e-07 1.1325282e-06 2.3876698e-06 6.161256e-08 2.4241118e-07 4.6249414e-07 8.040717e-07 9.147036e-07
4.6423682e-07 8.611737e-07 1.3149437e-06 2.6173057e-06 -0.0016462439 -0.0017294978 -0.0017855826 -0.0016479157
-0.0017214416 -0.0017742977 -0.0016355717 -0.0017069767 -0.0017706224 -0.0010882088 -0.0010677016 -0.0010968448
-0.001101216 -0.0010911459 -0.00112462 -0.001118329 -0.0011006291 -0.0011414422 -0.0010815792 -0.0010427709
-0.001062819 -0.001092897 -0.0010645189 -0.0010962285 -0.0011132967 -0.0010760996 -0.0011150638 5.9979135e-07
6.163799e-07 6.224659e-07 6.3619973e-07 6.1291246e-07 6.323541e-07 6.3501e-07 5.9261254e-07 5.851632e-07
5.527444e-07 5.30997e-07 5.345873e-07 5.842387e-07 5.441481e-07 5.7839645e-07 5.5652197e-07 4.8479546e-07
5.3682214e-07 6.261751e-07 5.6432935e-07 6.0839625e-07 6.365053e-07 5.9070675e-07 6.0130526e-07 6.207786e-07
5.612573e-07 6.0115644e-07

exp_avg_sq f4 [6, 3, 3, 3]
00000000: cfe7 0b31 10e0 0431 8a2a 0431 e1d4 0f31
00000010: 681b 0931 3113 0a31 9e55 0f31 d580 0531
00000020: 172e 0731 16aa 1531 fc89 0e31 ad2e 1d31
00000030: 209f 1831 8371 1031 e3ee 2131 51ae 1531
00000040: 1b30 0931 43cb 1a31 a643 2231 ee91 1931
00000050: 4512 2c31 cb71 2731 305e 1b31 9b19 3131
00000060: 0766 2231 154c 1231 cc88 2731 371f 063a
00000070: e22c 063a a51d 063a cd0e 063a 3a17 063a
00000080: 4d0f 063a 6ef1 053a 04f3 053a e0ee 053a
00000090: d27f b639 bbe6 b639 9ee8 b639 ad94 b639
000000a0: 2cea b639 8aeb b639 cd68 b639 b3af b639
000000b0: 40b7 b639 9419 c139 8887 c139 3487 c139
000000c0: 1546 c139 5ba0 c139 2fa1 c139 101c c139
000000d0: 435f c139 aa71 c139 ce7a 9135 83a1 9035
000000e0: e4a4 9035 b024 9135 0164 9035 0262 9035
000000f0: 4f18 9135 c87b 9035 7766 9035 1259 2633
00000100: 3ab0 2233 45e7 2433 6b2b 1f33 7aa2 1d33
00000110: 52e4 1f33 d6a1 1c33 7e2e 1b33 73a0 1e33
00000120: bdf3 1233 033b 0e33 5c54 1333 c6db 0833
00000130: 1715 0733 5c66 0d33 853f 0533 2f19 0433
00000140: 970a 0c33 c842 b535 dbbd b435 dbb1 b435
00000150: 281a b535 8fa2 b435 38b1 b435 c7f6 b435
00000160: df9d b435 6ab9 b435 7404 a035 4b70 9f35
00000170: 3598 9f35 a6fd 9f35 1d89 9f35 bae2 9f35
00000180: 79ee 9f35 41ba 9f35 e829 a035 0cff a135
00000190: 4a75 a135 0bb0 a135 dd0d a235 c5a7 a135
000001a0: 7f02 a235 8011 a235 cbd7 a135 9351 a235
000001b0: a7e1 4d39 6dbf 4d39 556e 4d39 39a1 4d39
000001c0: c186 4d39 ce21 4d39 2e62 4d39 a348 4d39
000001d0: c9d4 4c39 6ea1 8c38 5745 8d38 c076 8e38
000001e0: 409a 8c38 8a4b 8d38 d350 8e38 feb2 8c38
000001f0: 0847 8d38 7040 8e38 89b3 8f38 4a8f 9038
00000200: 9923 9238 aab8 8f38 a4a8 9038 810f 9238
00000210: e3db 8f38 13a6 9038 db01 9238 7e32 c333
00000220: 7610 be33 951a c333 e4bb cb33 3a00 c333
00000230: 5090 c933 c0e7 e233 05e7 c733 2c13 ce33
00000240: 5874 ac33 d645 ab33 3610 b333 4aaa ad33
00000250: 9f8a ac33 7c3a b433 15db bb33 bbb8 b233
00000260: 6c9e bc33 bd26 1934 487b 1734 0b09 2234
00000270: a8cc 1a34 8329 1834 91df 2434 445a 2734
00000280: 3ee6 1f34 0d64 2d34
2.035893e-09 1.9335893e-09 1.9232709e-09 2.0930246e-09 1.9951703e-09 2.0092552e-09 2.0857907e-09 1.942728e-09
1.9671285e-09 2.1779036e-09 2.0742155e-09 2.287304e-09 2.2209363e-09 2.1019282e-09 2.3564375e-09 2.178144e-09
1.9963469e-09 2.252549e-09 2.3612556e-09 2.2347382e-09 2.503968e-09 2.4366382e-09 2.2609008e-09 2.5771445e-09
2.3632099e-09 2.1289044e-09 2.4379458e-09 0.0005116346 0.00051183824 0.0005116112 0.00051139 0.00051151554
0.00051139743 0.0005109523 0.00051097595 0.00051091425 0.0003480898 0.00034885653 0.00034887058 0.00034824517
0.00034888217 0.00034889235 0.00034791828 0.0003484465 0.00034850277 0.00036830886 0.00036912807 0.00036912563
0.00036864044 0.00036931303 0.0003693192 0.00036832737 0.00036882804 0.00036896515 1.0839083e-06 1.0775842e-06
1.0776826e-06 1.0814019e-06 1.0757941e-06 1.075736e-06 1.0810417e-06 1.0764861e-06 1.0758657e-06 3.8730896e-08
3.787884e-08 3.8394564e-08 3.705956e-08 3.6702183e-08 3.722773e-08 3.646877e-08 3.6131034e-08 3.693317e-08
3.4214953e-08 3.3115622e-08 3.430283e-08 3.186485e-08 3.1451318e-08 3.2922216e-08 3.1024246e-08 3.075655e-08
3.260592e-08 1.3504987e-06 1.34663e-06 1.3462808e-06 1.3493163e-06 1.3458356e-06 1.3462623e-06 1.3482867e-06
1.3456992e-06 1.3465008e-06 1.1922225e-06 1.1879105e-06 1.1890721e-06 1.1920245e-06 1.1886328e-06 1.1912409e-06
1.1915828e-06 1.190063e-06 1.1933125e-06 1.2069663e-06 1.202957e-06 1.204667e-06 1.2073975e-06 1.2044262e-06
1.2070667e-06 1.2075034e-06 1.2058239e-06 1.2093682e-06 0.00019634386 0.00019621635 0.00019591425 0.00019610384
0.00019600523 0.00019562917 0.00019586898 0.00019577383 0.00019534225 6.705789e-05 6.7363195e-05 6.7932066e-05
6.7044515e-05 6.737474e-05 6.786142e-05 6.70906e-05 6.7366345e-05 6.78309e-05 6.8522124e-05 6.893145e-05
6.968453e-05 6.853168e-05 6.897867e-05 6.96471e-05 6.8597285e-05 6.897389e-05 6.962168e-05 9.0895796e-08
8.850559e-08 9.08523e-08 9.487101e-08 9.080436e-08 9.386042e-08 1.05661e-07 9.308682e-08 9.59611e-08
8.030537e-08 7.975511e-08 8.338286e-08 8.086916e-08 8.034589e-08 8.3925414e-08 8.747717e-08 8.322373e-08
8.783249e-08 1.4263328e-07 1.410782e-07 1.5090716e-07 1.4416821e-07 1.4171205e-07 1.5355023e-07 1.5585925e-07
1.489179e-07 1.6148279e-07

exp_avg f4 [6]
00000000: 0400 0000 5e4b 2aba 3d9c 1837 6a87 5b36
00000010: 156c 00bb 5cd0 ac38
6e-45 -0.0006496216 9.096283e-06 3.2712364e-06 -0.0019595672 8.240409e-05

exp_avg_sq f4 [6]
00000000: f07a 4531 20f0 413a e8f5 9138 7d6f b535
00000010: 6e3e 7639 3ab5 fa39
2.8737155e-09 0.0007398147 6.9599424e-05 1.3517998e-06 0.00023483645 0.0004781874

exp_avg f4 [12, 6, 3, 3]
00000000: 0400 0080 0000 0000 0000 0000 0400 0000
00000010: 0000 0000 0000 0000 0400 0000 0400 0000
00000020: 0400 0080 0400 0000 0400 0000 0400 0000
00000030: 0400 0000 0400 0000 0400 0000 0400 0000
00000040: 0400 0000 0400 0000 0400 0000 0400 0080
00000050: 0400 0000 0400 0080 0400 0080 0400 0080
00000060: 0400 0080 0400 0000 0400 0000 0400 0080
00000070: 0400 0000 0400 0000 0400 0080 0400 0000
00000080: 0400 0000 0400 0000 0400 0080 0400 0080
00000090: 0400 0000 0400 0000 0400 0000 0400 0000
000000a0: 0400 0000 0400 0000 0400 0000 0400 0000
000000b0: 0400 0000 0400 0080 0400 0080 0400 0080
000000c0: 0400 0080 0400 0080 0400 0080 0400 0080
000000d0: 0400 0000 0400 0080 0400 0000 0400 0000
000000e0: 0400 0080 0400 0080 0400 0080 0400 0080
000000f0: 0400 0080 0400 0080 0400 0000 0bda 36ba
00000100: 7a12 3bba 1ffa 2dba d8ea 34ba a9ed 31ba
00000110: cb78 28ba b6ca 2bba 48b9 26ba 4c9d 1dba
00000120: 2724 46b2 b92d f0b1 50e2 6bb1 3638 c7b2
00000130: aaba 9cb2 a78d e5b1 f604 a8b2 eab0 49b2
00000140: b9c5 9bb1 b307 2c34 b88c a335 5dc1 f1b4
00000150: e17b 4734 20ae e533 591f 74b5 5650 82b3
00000160: 6f77 32b4 d0bf 34b5 b446 30ba 445e 3bba
00000170: b68d 46ba c5b7 2bba 5283 3dba 11d3 4aba
00000180: afc8 29ba f190 3cba efc8 49ba bb05 09b5
00000190: 2ca3 f3b3 c1e6 8cb2 a432 27b5 8bd6 b8b4
000001a0: 07f7 acb3 4efe 3fb5 3851 adb4 0ff6 77b4
000001b0: 0400 0080 0400 0000 0400 0080 0400 0080
000001c0: 0400 0000 0400 0080 0400 0000 0400 0000
000001d0: 0400 0000 3b21 0cba 3e1e 08ba b953 f4b9
000001e0: 37ad 08ba df53 0bba b720 07ba 11de 0dba
000001f0: 3330 09ba a8ab 03ba b74e 6f30 f49e fb31
00000200: 5ea4 8431 cb81 6e32 6047 ca32 5bac 6732
00000210: 613b 5d32 0207 9f32 09d8 2332 2bcd d034
00000220: cdc3 d733 77ec d5b5 fc5f b6b3 1054 7635
00000230: 968f 2634 9a5c 7cb5 76b3 8bb2 89b0 d031
00000240: 53b9 bfba 8098 c9ba fe72 d3ba 008a c2ba
00000250: 3b55 cbba 6d2b d3ba 51cb c4ba 17ed cbba
00000260: d3a0 d5ba 26c4 0833 29d2 9433 4c10 8533
00000270: d812 2f34 c54e 5434 21ae 3434 7464 5f34
00000280: 5299 8634 c1bc 5c34 0000 0000 0000 0000
00000290: 0400 0000 0400 0000 0000 0000 0400 0000
000002a0: 0400 0000 0400 0000 0400 0000 0400 0000
000002b0: 0400 0000 0400 0000 0400 0000 0400 0000
000002c0: 0400 0000 0400 0000 0400 0000 0400 0000
000002d0: 0400 0000 0400 0000 0400 0000 0400 0000
000002e0: 0400 0000 0400 0000 0000 0000 0000 0000
000002f0: 0400 0000 0400 0000 0400 0000 0400 0000
00000300: 0400 0000 0400 0000 0400 0000 0400 0000
00000310: 0400 0000 0400 0000 0400 0000 0400 0000
00000320: 0400 0000 0400 0000 0400 0000 0400 0000
00000330: 0400 0000 0400 0000 0400 0000 0400 0000
00000340: 0400 0000 0400 0000 0400 0000 0400 0000
00000350: 0400 0000 0400 0000 0400 0000 0400 0000
00000360: 0000 0000 0000 0000 0000 0000 0000 0000
00000370: 0000 0000 0000 0000 0000 0000 0000 0000
00000380: 0000 0000 0000 0000 0000 0000 0000 0000
00000390: 0000 0000 0000 0000 0000 0000 0000 0000
000003a0: 0000 0000 0000 0000 0000 0000 0000 0000
000003b0: 0000 0000 0000 0000 0000 0000 0000 0000
000003c0: 0000 0000 0000 0000 0000 0000 0000 0000
000003d0: 0000 0000 0000 0000 0000 0000 0000 0000
000003e0: 0000 0000 0000 0000 0000 0000 0000 0000
000003f0: 0000 0000 0000 0000 0000 0000 0000 0000
-6e-45 0.0 0.0 6e-45 0.0 0.0 6e-45 6e-45
-6e-45 6e-45 6e-45 6e-45 6e-45 6e-45 6e-45 6e-45
6e-45 6e-45 6e-45 -6e-45 6e-45 -6e-45 -6e-45 -6e-45
-6e-45 6e-45 6e-45 -6e-45 6e-45 6e-45 -6e-45 6e-45
6e-45 6e-45 -6e-45 -6e-45 6e-45 6e-45 6e-45 6e-45
6e-45 6e-45 6e-45 6e-45 6e-45 -6e-45 -6e-45 -6e-45
-6e-45 -6e-45 -6e-45 -6e-45 6e-45 -6e-45 6e-45 6e-45
-6e-45 -6e-45 -6e-45 -6e-45 -6e-45 -6e-45 6e-45 -0.000697524
-0.0007136237 -0.0006636697 -0.00069014495 -0.0006787428 -0.0006426691 -0.00065533386 -0.00063600065 -0.0006012514
-1.1533337e-08 -6.9901174e-09 -3.4325645e-09 -2.319221e-08 -1.8245675e-08 -6.680881e-09 -1.956003e-08 -1.17399654e-08
-4.533572e-09 1.6021549e-07 1.2185401e-06 -4.5030438e-07 1.8578386e-07 1.06953166e-07 -9.09427e-07 -6.06821e-08
-1.6620992e-07 -6.733435e-07 -0.0006724403 -0.00071475306 -0.0007574217 -0.0006550516 -0.0007229346 -0.000773714
-0.00064767426 -0.0007193229 -0.0007697483 -5.1044816e-07 -1.134525e-07 -1.640308e-08 -6.228604e-07 -3.442877e-07
-8.054308e-08 -7.1523107e-07 -3.2282855e-07 -2.3093183e-07 -6e-45 6e-45 -6e-45 -6e-45
6e-45 -6e-45 6e-45 6e-45 6e-45 -0.0005345528 -0.0005192495 -0.00046601685
-0.00052137993 -0.0005314927 -0.0005154716 -0.00054118136 -0.00052333175 -0.0005022832 8.7059554e-10 7.3231323e-09
3.860392e-09 1.3882935e-08 2.3548353e-08 1.3485159e-08 1.2877394e-08 1.8513223e-08 9.536969e-09 3.8892298e-07
1.00473336e-07 -1.5938557e-06 -8.492495e-08 9.176447e-07 1.5512191e-07 -9.401207e-07 -1.626334e-08 6.0736665e-09
-0.0014627374 -0.0015380532 -0.0016132293 -0.0014842153 -0.0015513072 -0.0016110964 -0.0015014206 -0.0015558329
-0.001629854 3.1843364e-08 6.930015e-08 6.1962595e-08 1.6305e-07 1.9772695e-07 1.6827154e-07 2.0805038e-07
2.5071e-07 2.0557765e-07 0.0 0.0 6e-45 6e-45 0.0 6e-45
6e-45 6e-45 6e-45 6e-45 6e-45 6e-45 6e-45 6e-45
6e-45 6e-45 6e-45 6e-45 6e-45 6e-45 6e-45 6e-45
6e-45 6e-45 0.0 0.0 6e-45 6e-45 6e-45 6e-45
6e-45 6e-45 6e-45 6e-45 6e-45 6e-45 6e-45 6e-45
6e-45 6e-45 6e-45 6e-45 6e-45 6e-45 6e-45 6e-45
6e-45 6e-45 6e-45 6e-45 6e-45 6e-45 6e-45 6e-45
0.0 0.0 0.0 0.0 0.0 0.0 0.0 0.0
0.0 0.0 0.0 0.0 0.0 0.0 0.0 0.0
0.0 0.0 0.0 0.0 0.0 0.0 0.0 0.0
0.0 0.0 0.0 0.0 0.0 0.0 0.0 0.0
0.0 0.0 0.0 0.0 0.0 0.0 0.0 0.0

exp_avg_sq f4 [12, 6, 3, 3]
00000000: 3c1b 281b 0000 0000 0000 0000 c914 9e1a
00000010: 0000 0000 0000 0000 7ac9 871a 32c0 1f1a
00000020: a95d 001d ccd3 6727 9b76 6027 587e 5327
00000030: 0942 4227 1d15 3a27 7a84 4a27 aae3 6227
00000040: 4ac0 2e27 f4f9 3727 51ac 4621 38d1 c522
00000050: 6d80 d21f dba1 6d22 a34c 2724 a0c1 3b23
00000060: bbe3 6024 3b6a c224 fdb0 2c24 80b1 1523
00000070: eac0 8c23 3fe2 7121 10a2 0022 847b 4421
00000080: a543 d522 96e2 3b22 cf15 c120 e224 b121
00000090: 418b 042a 63fa 032a 12e6 062a 47ee 062a
000000a0: 2d26 052a f03f 052a 182b 042a 2ff8 042a
000000b0: b1be f929 8a52 4f25 3c73 4d25 008d 6825
000000c0: af5e 5d25 17f3 9e25 eb7f 9225 f762 9d25
000000d0: 58a7 b525 5689 c525 82f2 f82c 1b03 7c2b
000000e0: 4084 1d2b b503 ea2c 1e63 d52b 1fbe 062b
000000f0: b780 e92c c862 cd2b 7ae4 912a 6385 ac37
00000100: accf ab37 fc17 b037 f282 ab37 e3fd aa37
00000110: 7dbc ae37 a9bf aa37 a4c4 a937 cf9a ad37
00000120: aada 1230 48ba 1530 faab 1330 b6a2 1d30
00000130: 8004 1f30 f9fc 1b30 b8f5 1130 2ab6 1630
00000140: 1804 1a30 cd46 b030 5bf1 ac30 9643 b030
00000150: b222 ac30 9f3a af30 863a b130 cfc7 ab30
00000160: 2f67 aa30 150a ae30 952d db37 e198 dd37
00000170: e36e db37 9537 db37 5891 dd37 ba78 db37
00000180: a21d db37 b764 dd37 4c30 db37 95c8 112d
00000190: 9c46 4d2d 6c42 ad2d e975 092d e68c 502d
000001a0: 58de ae2d c08f 1c2d c3b3 532d 5fe0 9a2d
000001b0: 3115 422d 4966 3b2d b152 da2c d7a0 802d
000001c0: dfed 3d2d 16d6 042d 9925 6a2d 81c2 492d
000001d0: d983 f22c e040 d239 5eb1 d139 fe1e d139
000001e0: 7b58 d239 27de d139 d36e d139 3f48 d239
000001f0: 9afc d139 d69e d139 a2cc d831 3198 dd31
00000200: 0fbd d131 0aa9 dd31 0f8e e231 1d5a d931
00000210: 0b55 d931 173d df31 ebc2 d331 85e8 5f2f
00000220: 04e4 5a2f 4b5f 762f 559d 6f2f e5a0 b52f
00000230: 435f 6b2f 209a 792f 4a9f 802f 3b92 5f2f
00000240: a0a5 8039 38e7 8039 39f9 8039 f8e2 8039
00000250: a2f1 8039 fcf7 8039 1dce 8039 e1ea 8039
00000260: 19be 8039 014b 0132 4693 0332 84d7 f131
00000270: 5ee9 0832 4ab7 0b32 7f77 fd31 bcc9 0132
00000280: e71b 0732 2e87 f731 0000 0000 0000 0000
00000290: 2193 a519 14e9 8a1d 0000 0000 c793 f019
000002a0: 6271 281e c8a0 1320 5124 691e a0bb 3e1e
000002b0: 725a d71d 22ec 131d 914f 951f 534b 921d
000002c0: 2d50 901d ec91 9423 523a 2923 f331 0521
000002d0: 996a df20 42fe db20 05af e320 7a1d 7220
000002e0: b997 ed20 bde8 e620 0000 0000 0000 0000
000002f0: 4efb f21f 74e6 291b 3a5a 1d1b 1f89 8518
00000300: 8176 3d1b dfb3 561b d5f1 b21a 98a4 6420
00000310: 4bed e31a bc03 7a1a 2a24 4b21 d676 5721
00000320: cabd 5821 e2a1 1821 58e1 5021 3170 5f21
00000330: bba9 a322 4111 3021 99f5 e220 b6a5 2021
00000340: f396 2421 30ce 3221 8e7d 8e21 b868 2b21
00000350: 1a7c 3121 a803 9120 b8ae 2722 5597 e121
00000360: 0000 0000 0000 0000 0000 0000 0000 0000
00000370: 0000 0000 0000 0000 0000 0000 0000 0000
00000380: 0000 0000 0000 0000 0000 0000 0000 0000
00000390: 0000 0000 0000 0000 0000 0000 0000 0000
000003a0: 0000 0000 0000 0000 0000 0000 0000 0000
000003b0: 0000 0000 0000 0000 0000 0000 0000 0000
000003c0: 0000 0000 0000 0000 0000 0000 0000 0000
000003d0: 0000 0000 0000 0000 0000 0000 0000 0000
000003e0: 0000 0000 0000 0000 0000 0000 0000 0000
000003f0: 0000 0000 0000 0000 0000 0000 0000 0000
1.3905434e-22 0.0 0.0 6.538085e-23 0.0 0.0 5.6160194e-23 3.3035683e-23
1.698908e-21 3.2172505e-15 3.115054e-15 2.9350623e-15 2.6958706e-15 2.582413e-15 2.8104947e-15 3.1487217e-15
2.425159e-15 2.5531852e-15 6.731307e-19 5.3618476e-18 8.915092e-20 3.2205175e-18 3.6277266e-17 1.0178292e-17
4.8765153e-17 8.431405e-17 3.744647e-17 8.114893e-18 1.5260533e-17 8.195341e-19 1.743303e-18 6.6570855e-19
5.7805387e-18 2.546318e-18 3.2709903e-19 1.2003749e-18 1.1772269e-13 1.1722008e-13 1.1981412e-13 1.198426e-13
1.1826018e-13 1.1834956e-13 1.1738906e-13 1.1810061e-13 1.1090901e-13 1.7982353e-16 1.7819959e-16 2.0170565e-16
1.9200774e-16 2.7573355e-16 2.5413643e-16 2.730222e-16 3.1511891e-16 3.4267115e-16 7.0755077e-12 8.9532694e-13
5.596114e-13 6.6510916e-12 1.5162071e-12 4.787021e-13 6.6365485e-12 1.4593543e-12 2.5915712e-13 2.056611e-05
2.0481493e-05 2.0992004e-05 2.0445765e-05 2.0383804e-05 2.0830188e-05 2.0354828e-05 2.0237938e-05 2.0695295e-05
5.342523e-10 5.4470606e-10 5.372268e-10 5.7347493e-10 5.785026e-10 5.674817e-10 5.309988e-10 5.4828553e-10
5.603069e-10 1.2825808e-09 1.2583244e-09 1.2824894e-09 1.2524508e-09 1.2749587e-09 1.2895078e-09 1.2498677e-09
1.2398454e-09 1.2663032e-09 2.612806e-05 2.6416443e-05 2.615847e-05 2.6132717e-05 2.6412934e-05 2.6163052e-05
2.6120633e-05 2.6392152e-05 2.6129324e-05 8.286834e-12 1.1668579e-11 1.969732e-11 7.81373e-12 1.1854717e-11
1.988025e-11 8.899492e-12 1.20338765e-11 1.7607414e-11 1.1032329e-11 1.0652431e-11 6.2051132e-12 1.4623342e-11
1.0796224e-11 7.550868e-12 1.3309708e-11 1.1468716e-11 6.8926917e-12 0.00040102657 0.00039995735 0.00039886677
0.00040120244 0.00040029103 0.00039946157 0.0004010815 0.0004005179 0.00039981928 6.3096914e-09 6.4492487e-09
6.104194e-09 6.451164e-09 6.593616e-09 6.325776e-09 6.3251995e-09 6.4970993e-09 6.163068e-09 2.036434e-10
1.9907992e-10 2.2407425e-10 2.1792819e-10 3.303803e-10 2.1406969e-10 2.2701174e-10 2.3396246e-10 2.0333683e-10
0.00024537463 0.00024586334 0.00024599748 0.00024583167 0.00024594093 0.00024598825 0.0002456763 0.0002458906
0.00024555696 7.525842e-09 7.65869e-09 7.0385244e-09 7.969303e-09 8.13254e-09 7.3768542e-09 7.554657e-09
7.8643785e-09 7.2040143e-09 0.0 0.0 1.7120025e-23 3.6769293e-21 0.0 2.4875105e-23
8.917293e-21 1.2504582e-19 1.2342427e-20 1.0097316e-20 5.7003544e-21 1.9577366e-21 6.3235586e-20 3.872376e-21
3.8199382e-21 1.6107992e-17 9.173858e-18 4.512826e-19 3.784821e-19 3.7268297e-19 3.8571114e-19 2.050795e-19
4.0249763e-19 3.911753e-19 0.0 0.0 1.02906735e-19 1.4053816e-22 1.301589e-22 3.451815e-24
1.5672004e-22 1.7759785e-22 7.4009775e-23 1.9366811e-19 9.426837e-23 5.1701805e-23 6.882694e-19 7.300211e-19
7.343483e-19 5.1713853e-19 7.077138e-19 7.5703823e-19 4.4360948e-18 5.9653955e-19 3.8448412e-19 5.4429425e-19
5.576514e-19 6.0581633e-19 9.655528e-19 5.807565e-19 6.013418e-19 2.4566375e-19 2.2725216e-18 1.528665e-18
0.0 0.0 0.0 0.0 0.0 0.0 0.0 0.0
0.0 0.0 0.0 0.0 0.0 0.0 0.0 0.0
0.0 0.0 0.0 0.0 0.0 0.0 0.0 0.0
0.0 0.0 0.0 0.0 0.0 0.0 0.0 0.0
0.0 0.0 0.0 0.0 0.0 0.0 0.0 0.0

exp_avg f4 [12]
00000000: 0400 0000 b03a 24bb 4c41 3fbb 0400 0000
00000010: 0000 0000 485d 74ba 0400 0080 21bf d5ba
00000020: 0400 0000 0400 0000 4371 ed39 39b7 c2b6
6e-45 -0.0025059395 -0.0029183207 6e-45 0.0 -0.00093217613 -6e-45 -0.0016307571
6e-45 6e-45 0.0004528855 -5.8029805e-06

exp_avg_sq f4 [12]
00000000: 8dd5 cf2c d83e 8339 33d0 0e3b 5cdd 3324
00000010: 0000 0000 c134 1838 638c 2237 243d 7e3a
00000020: 7036 cf1f 7d77 b126 80c5 0539 2ae1 b73a
5.9070028e-12 0.0002503309 0.0021791577 3.9001936e-17 0.0 3.6288755e-05 9.688639e-06 0.0009698442
8.775797e-20 1.231423e-15 0.00012757443 0.0014028896

exp_avg f4 [24, 12, 4, 4]
00000000: 0400 0000 0400 0000 0400 0000 0400 0000
00000010: 0400 0000 0400 0000 0400 0000 0400 0000
00000020: 0000 0000 0000 0000 0000 0000 0400 0000
00000030: 0000 0000 0000 0000 0000 0000 0000 0000
00000040: 0400 0000 0400 0000 0400 0000 0400 0000
00000050: 0400 0000 0400 0000 0400 0000 0400 0000
00000060: 0400 0000 0400 0000 0400 0080 0400 0080
00000070: 0400 0000 0400 0000 0400 0000 0400 0080
00000080: 0400 0000 0400 0000 0400 0000 0400 0000
00000090: 0400 0000 0400 0000 0400 0000 0400 0000
000000a0: 0400 0000 0400 0080 0400 0080 0400 0000
000000b0: 0400 0000 0400 0000 0400 0080 0400 0080
000000c0: 0000 0000 0000 0000 0000 0000 0000 0000
000000d0: 0000 0000 0000 0000 0000 0000 0000 0000
000000e0: 0000 0000 0000 0000 0000 0000 0000 0000
000000f0: 0000 0000 0000 0000 0000 0000 0000 0000
00000100: 0000 0000 0000 0000 0000 0000 0000 0000
00000110: 0000 0000 0000 0000 0000 0000 0000 0000
00000120: 0000 0000 0000 0000 0000 0000 0000 0000
00000130: 0000 0000 0000 0000 0000 0000 0000 0000
00000140: 0400 0000 0400 0000 0400 0000 0400 0000
00000150: 0400 0000 0400 0000 0400 0000 0400 0000
00000160: 0400 0000 0400 0080 0400 0080 0400 0000
00000170: 0400 0000 0400 0080 0400 0000 0400 0000
00000180: 0400 0000 0400 0000 0400 0000 0400 0000
00000190: 0400 0000 0400 0000 0400 0000 0400 0000
000001a0: 0400 0080 0400 0000 0400 0080 0400 0080
000001b0: 0400 0000 0400 0000 0400 0000 0400 0000
000001c0: 0400 0000 0400 0000 0400 0000 0400 0000
000001d0: 0400 0000 0400 0000 0400 0000 0400 0000
000001e0: 0400 0000 0400 0000 0400 0000 0400 0000
000001f0: 0400 0000 0400 0000 0400 0000 0400 0000
00000200: 0000 0000 0000 0000 0000 0000 0000 0000
00000210: 0000 0000 0000 0000 0000 0000 0000 0000
00000220: 0000 0000 0000 0000 0000 0000 0000 0000
00000230: 0000 0000 0000 0000 0000 0000 0000 0000
00000240: 0000 0000 0000 0000 0000 0000 0000 0000
00000250: 0000 0000 0000 0000 0000 0000 0000 0000
00000260: 0000 0000 0000 0000 0000 0000 0000 0000
00000270: 0000 0000 0000 0000 0000 0000 0000 0000
00000280: 0400 0000 0400 0000 0400 0000 0400 0000
00000290: 0400 0000 0400 0000 0400 0000 0400 0000
000002a0: 0400 0000 0400 0000 0400 0000 0400 0000
000002b0: 0400 0000 0400 0000 0400 0000 0400 0000
000002c0: 0400 0000 0400 0000 0400 0000 0400 0000
000002d0: 0400 0000 0400 0000 0400 0000 0400 0000
000002e0: 0400 0000 0400 0000 0400 0080 0400 0080
000002f0: 0400 0000 0400 0000 0400 0080 0400 0080
00000300: 0400 0080 0400 0080 0400 0000 0400 0080
00000310: 0400 0000 0400 0000 0400 0080 0400 0080
00000320: 0400 0000 0400 0000 0400 0080 0400 0080
00000330: 0400 0000 0400 0000 0400 0000 0400 0080
00000340: dca0 27b7 45b9 2bb7 9b01 fcb6 c335 40b7
00000350: ccc8 8434 5fa1 cfb6 f99c e6b5 6a58 36b7
00000360: 782e 0d35 8034 d5b6 2212 1735 0462 44b7
00000370: ae70 95b5 3bca 02b7 72af efb2 9e8e 88b7
00000380: 6c41 8037 1011 6037 bb05 6a37 0889 7d37
00000390: 8352 7137 84c7 2837 5212 4937 6179 5637
000003a0: d608 5937 7097 0137 4c06 4c37 5544 4c37
000003b0: 291e 5637 6363 1937 4c0a 4337 be43 3237
000003c0: 0400 0000 0400 0080 0400 0000 0400 0080
000003d0: 0400 0000 0400 0000 0400 0080 0400 0000
000003e0: 0400 0080 0400 0080 0400 0080 0400 0080
000003f0: 0400 0080 0400 0000 0400 0080 0400 0000
6e-45 6e-45 6e-45 6e-45 6e-45 6e-45 6e-45 6e-45
0.0 0.0 0.0 6e-45 0.0 0.0 0.0 0.0
6e-45 6e-45 6e-45 6e-45 6e-45 6e-45 6e-45 6e-45
6e-45 6e-45 -6e-45 -6e-45 6e-45 6e-45 6e-45 -6e-45
6e-45 6e-45 6e-45 6e-45 6e-45 6e-45 6e-45 6e-45
6e-45 -6e-45 -6e-45 6e-45 6e-45 6e-45 -6e-45 -6e-45
0.0 0.0 0.0 0.0 0.0 0.0 0.0 0.0
0.0 0.0 0.0 0.0 0.0 0.0 0.0 0.0
0.0 0.0 0.0 0.0 0.0 0.0 0.0 0.0
0.0 0.0 0.0 0.0 0.0 0.0 0.0 0.0
6e-45 6e-45 6e-45 6e-45 6e-45 6e-45 6e-45 6e-45
6e-45 -6e-45 -6e-45 6e-45 6e-45 -6e-45 6e-45 6e-45
6e-45 6e-45 6e-45 6e-45 6e-45 6e-45 6e-45 6e-45
-6e-45 6e-45 -6e-45 -6e-45 6e-45 6e-45 6e-45 6e-45
6e-45 6e-45 6e-45 6e-45 6e-45 6e-45 6e-45 6e-45
6e-45 6e-45 6e-45 6e-45 6e-45 6e-45 6e-45 6e-45
0.0 0.0 0.0 0.0 0.0 0.0 0.0 0.0
0.0 0.0 0.0 0.0 0.0 0.0 0.0 0.0
0.0 0.0 0.0 0.0 0.0 0.0 0.0 0.0
0.0 0.0 0.0 0.0 0.0 0.0 0.0 0.0
6e-45 6e-45 6e-45 6e-45 6e-45 6e-45 6e-45 6e-45
6e-45 6e-45 6e-45 6e-45 6e-45 6e-45 6e-45 6e-45
6e-45 6e-45 6e-45 6e-45 6e-45 6e-45 6e-45 6e-45
6e-45 6e-45 -6e-45 -6e-45 6e-45 6e-45 -6e-45 -6e-45
-6e-45 -6e-45 6e-45 -6e-45 6e-45 6e-45 -6e-45 -6e-45
6e-45 6e-45 -6e-45 -6e-45 6e-45 6e-45 6e-45 -6e-45
-9.991429e-06 -1.0235531e-05 -7.510372e-06 -1.1456609e-05 2.4733015e-07 -6.187867e-06 -1.718202e-06 -1.0868631e-05
5.2594214e-07 -6.3540065e-06 5.627827e-07 -1.1705331e-05 -1.1134159e-06 -7.795689e-06 -2.7903045e-08 -1.6278875e-05
1.5289253e-05 1.3355413e-05 1.3948821e-05 1.511188e-05 1.4383931e-05 1.0060034e-05 1.1984799e-05 1.2783655e-05
1.2936265e-05 7.7242585e-06 1.2160814e-05 1.2175257e-05 1.2762416e-05 9.142651e-06 1.1625303e-05 1.0625399e-05
6e-45 -6e-45 6e-45 -6e-45 6e-45 6e-45 -6e-45 6e-45
-6e-45 -6e-45 -6e-45 -6e-45 -6e-45 6e-45 -6e-45 6e-45

exp_avg_sq f4 [24, 12, 4, 4]
00000000: dbd6 fa18 131a 2319 3096 0719 4826 0019
00000010: 001a 3416 7be4 fb16 9c42 fb17 560d 0b18
00000020: 0000 0000 0000 0000 0000 0000 e4f1 3314
00000030: 0000 0000 0000 0000 0000 0000 0000 0000
00000040: f7af 3420 6ef2 3320 96c9 3520 0508 3620
00000050: e3f7 0520 59c4 cb1f e09a ef1f 0945 1320
00000060: f760 401d d3a7 121d 7576 4a1e 2a5b 491f
00000070: cdc7 c61c 0fc9 141c 9bbc e21a d78a bb1d
00000080: b10c 311f dd99 351f e664 361f b7e5 391f
00000090: 5eac 441f 1868 2a1f 4799 141f 9442 041f
000000a0: e0ff 651c a068 041b b856 d41d c0fa b11d
000000b0: 9ecd bd1a 1b35 2219 4bb8 1a1b ea98 a51c
000000c0: 0000 0000 0000 0000 0000 0000 0000 0000
000000d0: 0000 0000 0000 0000 0000 0000 0000 0000
000000e0: 0000 0000 0000 0000 0000 0000 0000 0000
000000f0: 0000 0000 0000 0000 0000 0000 0000 0000
00000100: 0000 0000 0000 0000 0000 0000 0000 0000
00000110: 0000 0000 0000 0000 0000 0000 0000 0000
00000120: 0000 0000 0000 0000 0000 0000 0000 0000
00000130: 0000 0000 0000 0000 0000 0000 0000 0000
00000140: b200 7d1d 08cb 751d d94e 6d1d efd7 601d
00000150: 12c1 e81d 583c ec1d 636e a51d 5d53 891d
00000160: 738c 1b1e 81b7 191e eba1 e81d 802b 9b1e
00000170: 2a81 8e1b 6fc6 3c1c 9ea0 7c1c b8dc 8a1d
00000180: 41b8 b31e f5bd b81e 78a2 be1e 8d10 be1e
00000190: f5b6 ce1e 4476 c51e a3a8 911e 3886 851e
000001a0: 30ef 661c e7be 911b 4fd2 061d 7886 911d
000001b0: 94b1 ae1c 9118 191d f071 141d 620b 871d
000001c0: 303f 4a1f 9f73 4c1f 8526 461f 4995 411f
000001d0: 5918 831f a0ff a71f 845e ae1f eb48 9d1f
000001e0: b9ae d81f 4d02 ae1f 8ace e21f 6318 1320
000001f0: 4993 1920 2d2a 2d20 536a 2f20 3902 4f20
00000200: 0000 0000 0000 0000 0000 0000 0000 0000
00000210: 0000 0000 0000 0000 0000 0000 0000 0000
00000220: 0000 0000 0000 0000 0000 0000 0000 0000
00000230: 0000 0000 0000 0000 0000 0000 0000 0000
00000240: 0000 0000 0000 0000 0000 0000 0000 0000
00000250: 0000 0000 0000 0000 0000 0000 0000 0000
00000260: 0000 0000 0000 0000 0000 0000 0000 0000
00000270: 0000 0000 0000 0000 0000 0000 0000 0000
00000280: a2d8 861a 9a9f 831a 8fb6 891a fc73 321a
00000290: bbe6 1e1b 50e8 cd1a e18c b21a 7f4d df19
000002a0: 9899 2a1e 2535 381e f6c8 551e 09ef 711d
000002b0: fc09 621f 00ce 691f 318a 751f 4c22 7c1f
000002c0: f8ee ec1f ec1c ef1f 3ae1 f51f 96ce f71f
000002d0: a869 d61f 6b66 971f 060f 931f 721b a21f
000002e0: 708b a01b 0d38 a21a 285f 681d 8ccb dc1e
000002f0: 5294 4a1c 6536 4c1a 59bb bd1b c054 cb1c
00000300: 4225 bc1f 8e27 a91f 354c ae1f 5c3e e71f
00000310: 635a fb1f b427 821f e6eb 8d1f 6333 a61f
00000320: 2808 d51f abbd 831f 43ff 861f 6ba9 6020
00000330: e3ee 8121 e933 a51f a480 5520 3776 1c21
00000340: 91e1 9c32 63ce ad31 af69 ba30 452c 5c31
00000350: 45f9 9132 cc6d 9231 690f 2630 4734 2131
00000360: 334e 8232 379e 5e31 ca51 7f2e ef7f ce30
00000370: 3138 7d32 a6d4 5831 3eac 292f d202 e330
00000380: a57d ca32 78f9 cc32 a9a8 cf32 83d5 cb32
00000390: c7ae c932 13a0 d132 1caf d132 6376 cd32
000003a0: 2fb6 cb32 bd2f d032 faab d032 81f8 cb32
000003b0: 2fdd c632 ad04 ce32 c941 cd32 b809 cd32
000003c0: f890 d314 baad 2a18 20f3 881b 8f94 a818
000003d0: 5a1c 7517 790a 4119 9eee e816 72a8 af17
000003e0: 1cec 6a15 e0c6 8018 b520 cd16 0877 1719
000003f0: 228a c216 886d 3c18 c736 e217 5e13 df17
6.4840434e-24 8.432168e-24 7.0096665e-24 6.625176e-24 1.4548488e-25 4.0695429e-25 1.6237309e-24 1.7972062e-24
0.0 0.0 0.0 9.084895e-27 0.0 0.0 0.0 0.0
1.5304815e-19 1.5242103e-19 1.5397996e-19 1.5418653e-19 1.1347557e-19 8.6298674e-20 1.01476656e-19 1.2474226e-19
2.5461118e-21 1.9409702e-21 1.0718287e-20 4.2638815e-20 1.3154188e-21 4.9228954e-22 9.377612e-23 4.9642045e-21
3.7491706e-20 3.8455514e-20 3.862346e-20 3.936529e-20 4.1647193e-20 3.6085005e-20 3.1467007e-20 2.800716e-20
7.6100455e-22 1.095259e-22 5.6205598e-21 4.711078e-21 7.850076e-23 8.385928e-24 1.279813e-22 1.0958311e-21
0.0 0.0 0.0 0.0 0.0 0.0 0.0 0.0
0.0 0.0 0.0 0.0 0.0 0.0 0.0 0.0
0.0 0.0 0.0 0.0 0.0 0.0 0.0 0.0
0.0 0.0 0.0 0.0 0.0 0.0 0.0 0.0
3.348463e-21 3.2530445e-21 3.1407452e-21 2.9757788e-21 6.160952e-21 6.2531074e-21 4.3789274e-21 3.6349794e-21
8.234676e-21 8.1377e-21 6.1577308e-21 1.6429255e-20 2.35754e-22 6.246045e-22 8.35874e-22 3.6756514e-21
1.9028568e-20 1.9560322e-20 2.0184228e-20 2.0123878e-20 2.1886768e-20 2.09071e-20 1.5422219e-20 1.4137434e-20
7.640976e-22 2.4111606e-22 1.784348e-21 3.8520218e-21 1.1560257e-21 2.0262082e-21 1.9646541e-21 3.574597e-21
4.282743e-20 4.329432e-20 4.1959993e-20 4.0992825e-20 5.552094e-20 7.115015e-20 7.384823e-20 6.661272e-20
9.176861e-20 7.369567e-20 9.6056413e-20 1.2459453e-19 1.3008337e-19 1.4667625e-19 1.4858256e-19 1.7534317e-19
0.0 0.0 0.0 0.0 0.0 0.0 0.0 0.0
0.0 0.0 0.0 0.0 0.0 0.0 0.0 0.0
0.0 0.0 0.0 0.0 0.0 0.0 0.0 0.0
0.0 0.0 0.0 0.0 0.0 0.0 0.0 0.0
5.577109e-23 5.443818e-23 5.695681e-23 3.690323e-23 1.3144007e-22 8.5161334e-23 7.3846677e-23 2.308896e-23
9.0314875e-21 9.751869e-21 1.1317684e-20 3.2019663e-21 4.786562e-20 4.9510068e-20 5.1995077e-20 5.3391445e-20
1.0034523e-19 1.01268284e-19 1.0413414e-19 1.04950337e-19 9.080732e-20 6.4120424e-20 6.2281776e-20 6.865507e-20
2.655989e-22 6.7092185e-23 3.0754139e-21 2.3377591e-20 6.7027893e-22 4.223015e-23 3.1388498e-22 1.3455321e-21
7.9682735e-20 7.163972e-20 7.381794e-20 9.793547e-20 1.0645217e-19 5.5122825e-20 6.0106084e-20 7.038875e-20
9.02225e-20 5.579444e-20 5.71735e-20 1.9029594e-19 8.804613e-19 6.9966096e-20 1.8084365e-19 5.301131e-19
1.8263366e-08 5.058426e-09 1.3563318e-09 3.2039378e-09 1.6993576e-08 4.2616417e-09 6.041235e-10 2.34583e-09
1.5169553e-08 3.2395187e-09 5.805293e-11 1.5024834e-09 1.4739315e-08 3.1553014e-09 1.5431653e-10 1.6517225e-09
2.3573032e-08 2.3862171e-08 2.417467e-08 2.3729404e-08 2.347896e-08 2.4403596e-08 2.4410433e-08 2.3918977e-08
2.3715158e-08 2.4236096e-08 2.4292593e-08 2.3745317e-08 2.3150816e-08 2.3983683e-08 2.3895057e-08 2.386956e-08
2.1362735e-26 2.2059695e-24 2.2656429e-22 4.3576988e-24 7.9199554e-25 9.979981e-24 3.763221e-25 1.1351632e-24
4.744218e-26 3.3288037e-24 3.3140177e-25 7.830555e-24 3.1429564e-25 2.435373e-24 1.4618735e-24 1.4415926e-24

exp_avg f4 [24]
00000000: 0400 0000 2bff 603a 9b92 16bb b409 5b17
00000010: 0400 0000 1174 d9b0 0400 0000 0400 0000
00000020: f96b 9430 0000 0000 6f8d 5831 0400 0000
00000030: 69a2 4b30 0400 0000 0400 0000 8853 5f37
00000040: 0400 0000 0e49 7b30 2140 2bb0 2f88 713a
00000050: c0f7 5338 0400 0000 2234 e130 0400 0000
6e-45 0.0008582945 -0.0022975567 7.0774964e-25 6e-45 -1.5821816e-09 6e-45 6e-45
1.0799105e-09 0.0 3.1512533e-09 6e-45 7.408177e-10 6e-45 6e-45 1.3311284e-05
6e-45 9.1417085e-10 -6.230057e-10 0.00092137133 5.0537055e-05 6e-45 1.6385722e-09 6e-45

exp_avg_sq f4 [24]
00000000: a022 c522 64c3 a039 6f9b a439 04e2 c733
00000010: f775 9629 b237 5c2e 2755 d71f f2a2 7d22
00000020: b504 122c 0000 0000 c0ee 0a2e 5c81 5625
00000030: 498b 2233 17bc d934 0df6 6932 55b3 b432
00000040: 80a7 0725 576c a631 58c3 0832 f59e cc39
00000050: 4f0c a336 57fd e827 7715 9931 ea30 bb32
5.3433618e-18 0.00030663155 0.00031396325 9.3077716e-08 6.681802e-14 5.0071676e-11 9.1196915e-20 3.4374156e-18
2.075046e-12 0.0 3.158962e-11 1.860537e-16 3.7845243e-08 4.0556253e-07 1.36183305e-08 2.1036309e-08
1.1766135e-16 4.8435527e-09 7.960658e-09 0.00039028344 4.8592115e-06 6.4667607e-15 4.4553263e-09 2.1791909e-08

exp_avg f4 [48, 24, 3, 3]
00000000: 0400 0000 0400 0080 0400 0000 0400 0080
00000010: 0400 0000 0400 0000 0400 0000 0400 0080
00000020: 0400 0000 d049 ba35 eec0 0336 7da4 8b35
00000030: 2ed2 5d36 c46c fa35 662f da36 edfd f436
00000040: 65e8 c536 e95a e736 8938 3037 b070 40b6
00000050: cc62 99b6 f0d4 5637 41fc 85b2 53ec ea33
00000060: 41e6 8d37 896e 9736 dd4f 6b37 0d55 220f
00000070: e5f7 b20f ca83 3112 1f7e 280f f0a1 8b8f
00000080: 159f 2c12 4efb 030f 10fc c18f 8827 2c12
00000090: 0400 0080 0400 0080 0400 0080 0400 0080
000000a0: 0400 0080 0400 0080 0400 0080 0400 0080
000000b0: 0400 0080 9b46 cfb5 e525 b0b5 0afb 0535
000000c0: 87ad 10b5 9650 14b6 a99e 2bb6 6aae ce35
000000d0: 5f87 3b36 3381 3936 0400 0080 0400 0000
000000e0: 0400 0080 0400 0080 0400 0000 0400 0080
000000f0: 0400 0080 0400 0000 0400 0080 0400 0000
00000100: 0400 0000 0400 0080 0400 0000 0400 0080
00000110: 0400 0080 0400 0080 0400 0000 0400 0000
00000120: 509e ab36 e750 4f36 8e2e b936 928b 67b6
00000130: b939 8db5 47dd 89b6 664d 74b6 07cc 60b4
00000140: 0f7d 9ab6 0000 0000 0000 0000 0000 0000
00000150: 0000 0000 0000 0000 0000 0000 0000 0000
00000160: 0000 0000 0000 0000 8384 99b5 8bf8 15b5
00000170: fa9c 1fb6 1c6b a4b6 21df 94b6 2415 fab6
00000180: 8f49 06b6 816b 5cb6 b7b0 06b7 0400 0080
00000190: 0400 0080 0400 0080 0400 0080 0400 0080
000001a0: 0400 0080 0400 0000 0400 0080 0400 0000
000001b0: e676 27b6 a69a 05b6 fe6f ea35 5320 81b6
000001c0: 75d3 aab4 38e9 8e35 6561 07b7 3b04 b1b6
000001d0: 484a afb6 0400 0080 0400 0000 0400 0080
000001e0: 0400 0080 0400 0080 0400 0000 0400 0080
000001f0: 0400 0080 0400 0000 0400 0000 0400 0000
00000200: 0400 0000 0400 0000 0400 0000 0400 0000
00000210: 0400 0000 0400 0000 0400 0000 896e 7932
00000220: 20cf aaae e989 73b0 543f d42e 53b3 4430
00000230: c6fc 5531 4242 0033 ba01 45b1 bc07 51b1
00000240: 0400 0000 0400 0000 0400 0000 0400 0000
00000250: 0400 0000 0400 0080 0400 0080 0400 0000
00000260: 0400 0000 919c 1a36 738d bcb6 04bf 0db7
00000270: 68f5 87b6 4767 9db6 ecd1 17b7 9e45 a3b6
00000280: cd99 c6b6 f84e 6fb7 51d9 32b4 2572 cb35
00000290: e470 1b37 e622 52b5 1464 8c35 49e7 dd36
000002a0: ee38 6cb6 935d 59b5 b66c 0b37 432b ae36
000002b0: 51ce 7437 29f5 7237 bbbf 1836 2442 7237
000002c0: 5ddf 0737 0daa e235 a52b 2d37 3bfd da36
000002d0: b9d4 8e36 944b e736 b95e 2cb7 df28 de35
000002e0: c903 ad33 3cf0 87b7 217d aeb4 3fc9 83b6
000002f0: 2154 76b7 0000 0000 0000 0000 0000 0000
00000300: 0400 0000 0000 0000 0400 0080 0000 0000
00000310: 0000 0000 0000 0000 77cb a2b2 6df5 69b5
00000320: 4ab9 7f37 a629 43b6 4d00 1b36 370b 6237
00000330: 9842 2eb6 77ec 0c37 7d26 8b37 0400 0080
00000340: 0400 0080 0400 0080 0400 0080 0400 0080
00000350: 0400 0080 0400 0080 0400 0080 0400 0080
00000360: 0400 0000 0400 0000 0400 0000 0400 0080
00000370: 0400 0080 0400 0080 0400 0080 0400 0000
00000380: 0400 0080 fe34 37b5 8ec6 1437 6aa0 fd36
00000390: c6d8 06b6 3aad c636 20cc a436 0072 e935
000003a0: 5e35 ae36 7cce 0d37 e93c 83b7 be76 71b6
000003b0: 79e5 8137 6c4b 64b7 28d9 32b6 a052 8d37
000003c0: 8f27 84b6 aff5 7436 6213 7037 bb3b a110
000003d0: 6208 3790 2809 4990 2578 6f10 8d1d 4090
000003e0: 071f 9690 5abd b58f 8ce4 3990 479a d090
000003f0: 0400 0080 0400 0080 0400 0080 0400 0080
6e-45 -6e-45 6e-45 -6e-45 6e-45 6e-45 6e-45 -6e-45
6e-45 1.3879562e-06 1.963282e-06 1.0404179e-06 3.3053907e-06 1.8658106e-06 6.502424e-06 7.3013275e-06
5.898112e-06 6.89492e-06 1.0503581e-05 -2.8675822e-06 -4.571257e-06 1.2804972e-05 -1.559795e-08 1.0939461e-07
1.691573e-05 4.5130187e-06 1.4025686e-05 8.003597e-30 1.764764e-29 5.6013795e-28 8.3073295e-30 -1.3768834e-29
5.4469714e-28 6.507198e-30 -1.912836e-29 5.4322356e-28 -6e-45 -6e-45 -6e-45 -6e-45
-6e-45 -6e-45 -6e-45 -6e-45 -6e-45 -1.5443251e-06 -1.3124051e-06 4.991167e-07
-5.3896696e-07 -2.2100626e-06 -2.5573338e-06 1.5398957e-06 2.7943968e-06 2.7642352e-06 -6e-45 6e-45
-6e-45 -6e-45 6e-45 -6e-45 -6e-45 6e-45 -6e-45 6e-45
6e-45 -6e-45 6e-45 -6e-45 -6e-45 -6e-45 6e-45 6e-45
5.114627e-06 3.0892495e-06 5.5188493e-06 -3.4502923e-06 -1.0522118e-06 -4.1086782e-06 -3.6403885e-06 -2.093585e-07
-4.6041164e-06 0.0 0.0 0.0 0.0 0.0 0.0 0.0
0.0 0.0 -1.1437954e-06 -5.5868503e-07 -2.3784219e-06 -4.90005e-06 -4.4367193e-06 -7.4530417e-06
-2.0010373e-06 -3.284513e-06 -8.028167e-06 -6e-45 -6e-45 -6e-45 -6e-45 -6e-45
-6e-45 6e-45 -6e-45 6e-45 -2.4954147e-06 -1.9908562e-06 1.7466953e-06 -3.8482626e-06
-3.1818823e-07 1.06477e-06 -8.0693035e-06 -5.2755036e-06 -5.224054e-06 -6e-45 6e-45 -6e-45
-6e-45 -6e-45 6e-45 -6e-45 -6e-45 6e-45 6e-45 6e-45
6e-45 6e-45 6e-45 6e-45 6e-45 6e-45 6e-45 1.451884e-08
-7.767498e-11 -8.8598867e-10 9.651893e-11 7.155922e-10 3.1139265e-09 2.9862584e-08 -2.8668254e-09 -3.04179e-09
6e-45 6e-45 6e-45 6e-45 6e-45 -6e-45 -6e-45 6e-45
6e-45 2.3038922e-06 -5.6193035e-06 -8.448729e-06 -4.0518826e-06 -4.6909877e-06 -9.049178e-06 -4.865883e-06
-5.9187646e-06 -1.4263896e-05 -1.6656601e-07 1.5157899e-06 9.265004e-06 -7.828188e-07 1.0459939e-06 6.6132384e-06
-3.5199878e-06 -8.097497e-07 8.310357e-06 5.1906404e-06 1.459157e-05 1.4481405e-05 2.2761367e-06 1.4439724e-05
8.098633e-06 1.6887803e-06 1.0321765e-05 6.526386e-06 4.256694e-06 6.893135e-06 -1.0274053e-05 1.6552184e-06
8.056629e-08 -1.6205122e-05 -3.250107e-07 -3.9275324e-06 -1.468233e-05 0.0 0.0 0.0
6e-45 0.0 -6e-45 0.0 0.0 0.0 -1.8951807e-08 -8.7156405e-07
1.5242325e-05 -2.9081507e-06 2.3096975e-06 1.3473261e-05 -2.5966783e-06 8.3997065e-06 1.6588014e-05 -6e-45
-6e-45 -6e-45 -6e-45 -6e-45 -6e-45 -6e-45 -6e-45 -6e-45
6e-45 6e-45 6e-45 -6e-45 -6e-45 -6e-45 -6e-45 6e-45
-6e-45 -6.8249926e-07 8.867717e-06 7.558662e-06 -2.0093735e-06 5.921026e-06 4.911344e-06 1.7393031e-06
5.191817e-06 8.452331e-06 -1.564478e-05 -3.5980916e-06 1.5484855e-05 -1.36074195e-05 -2.6650468e-06 1.6846985e-05
-3.938512e-06 3.650184e-06 1.4309628e-05 6.359533e-29 -3.6096844e-29 -3.9647314e-29 4.7226995e-29 -3.788809e-29
-5.9212373e-29 -1.7920914e-29 -3.6660883e-29 -8.2279236e-29 -6e-45 -6e-45 -6e-45 -6e-45

exp_avg_sq f4 [48, 24, 3, 3]
00000000: 3c2a cf1d fcf9 951b e84c a01d c1eb a513
00000010: 5b0b 631c 4ab5 8f14 98ea ba14 ad7c 2a1c
00000020: b1f2 5514 2f34 8330 a095 c330 c141 9c30
00000030: 40fa 7130 df54 b430 5c3a b630 2a9d 9630
00000040: 7951 d830 4ca8 b430 55d4 c631 631e eb31
00000050: d933 c931 ced0 b031 364b e331 d35e d431
00000060: 9162 c231 0afb dd31 57e5 dc31 b487 542b
00000070: 59db f12a 8a87 3a2b 08f2 1e2b ca94 ec2a
00000080: c4cd e32a 9642 0d2b a78f cd2a 0f87 e72a
00000090: 86bd 2c24 24a0 e822 0cad 0a22 f134 1524
000000a0: b8eb 9d23 1ef4 c922 a871 e423 a40e b922
000000b0: 2d86 8d23 24c7 f730 712c ef30 6e14 0831
000000c0: 8c85 1831 8101 fc30 e00b 0031 b43c 0b31
000000d0: 4d31 e930 6010 ec30 ce62 2a18 90cf 5618
000000e0: 2a09 9617 7a36 8318 8665 4017 b9b0 7717
000000f0: 9e8a 2118 efc5 1119 9538 4d17 4317 df18
00000100: dfe9 4419 67da d518 1cd9 291a 96ca b21a
00000110: 0d34 561a 4278 3019 457e 7019 e7a3 5018
00000120: 95c1 5831 db29 9731 6701 8431 340c 4e31
00000130: 3d82 9331 6b39 8d31 95a8 7231 01ab 9631
00000140: 43d2 8f31 0000 0000 0000 0000 0000 0000
00000150: 0000 0000 0000 0000 0000 0000 0000 0000
00000160: 0000 0000 0000 0000 dd80 b230 fdfc e430
00000170: 25fa db30 9aac ca30 9085 fb30 0a86 bf30
00000180: b2c2 c630 5025 f130 cd4c ba30 2cfa 411b
00000190: 9441 1a16 ebeb f41b 7a0e 7316 2d20 a216
000001a0: 589a a116 d269 651c 7046 0217 4d72 dc1b
000001b0: 8048 9131 6873 9c31 b543 a731 217e 9531
000001c0: 99f7 9e31 21cc a931 6554 9331 0c16 9731
000001d0: 334c a831 42c2 0c30 d3f3 5a30 bf0a ed30
000001e0: 6021 0230 66c8 2c30 a004 6730 184d fa2f
000001f0: 042c 2830 77c9 4330 734a 3f2a 5bb4 472a
00000200: 561c 6a2a 1fb9 532a c283 272a c1ce 362a
00000210: 9731 3e2a 97c4 1a2a bfa6 412a 1ef3 742b
00000220: 64aa 6d2b 3d7b 6e2b d860 4a2b 57bb 112b
00000230: 5a83 252b 8415 232b a23f ef2a 1a5b 0b2b
00000240: 52cf 951b d723 dd1f 19e9 581d 6e4d 131e
00000250: 5714 cf20 0b74 9918 4e30 8a1f 75bd 5520
00000260: 44cd c41c 3a3b 2931 ef4e 0f31 fd94 1d31
00000270: c0ff 2b31 c21b 0c31 8ca9 1031 b9f0 2f31
00000280: bdf0 1331 0b65 0e31 116f 6430 f1ff 7930
00000290: 95ff 9a30 948e 7a30 0f4d 4e30 d29a 9330
000002a0: 90b4 8430 f2db 6030 d9a8 8c30 54d1 f531
000002b0: 45c7 0b32 8100 1532 a2db 0132 7e0d 1432
000002c0: efd3 1d32 5f2b 0a32 9827 1832 7035 2132
000002d0: 4b0a 7e31 db90 7d31 8288 6531 c2b7 7a31
000002e0: b4f7 7631 d52d 7b31 fa1b 8c31 d377 8131
000002f0: 4010 8131 0000 0000 0000 0000 0000 0000
00000300: c2c9 ad21 0000 0000 c783 3f1f 0000 0000
00000310: 0000 0000 0000 0000 9715 bd31 909e 9731
00000320: 2120 7631 0f84 d131 e34d a131 2a29 7831
00000330: 5901 c831 791b a031 44e0 6f31 c52f c32c
00000340: 993a df2c 0ba8 cc2c d0e8 a42c 5775 a92c
00000350: 6095 b42c 2881 a32c 25e9 962c 0dcb c22c
00000360: b44f c61b 002b 531b ed5a 031c 571b 2313
00000370: 18f8 5f17 d3ac 3a13 b085 0812 e361 4118
00000380: 5147 5a12 e388 8030 7fc5 8a30 4b14 7130
00000390: 7c3a 7730 af2b 7530 91f4 6930 8075 7a30
000003a0: 3f07 8130 6b38 8130 7768 4532 5376 7a32
000003b0: fc40 6e32 1b6b 3332 dcb8 6932 b5f9 5b32
000003c0: 0965 3b32 e16f 6c32 6301 6032 8030 712c
000003d0: f456 542c 8a9f 732c 4396 5e2c 303f 4c2c
000003e0: c761 632c 48ed 572c 6934 4a2c 0495 6a2c
000003f0: 744e 0723 2bda 9f23 243d 9d23 af27 ef23
5.4836113e-21 2.481153e-22 4.2431167e-21 4.1884327e-27 7.5122676e-22 1.4510816e-26 1.8873731e-26 5.640942e-22
1.0801614e-26 9.546336e-10 1.4230643e-09 1.1369182e-09 8.8030916e-10 1.3120846e-09 1.325883e-09 1.0958605e-09
1.5739224e-09 1.3144557e-09 5.786698e-09 6.8428547e-09 5.8557643e-09 5.1460125e-09 6.61512e-09 6.1807923e-09
5.657349e-09 6.4604864e-09 6.4289156e-09 7.5505856e-13 4.2962403e-13 6.626857e-13 5.646876e-13 4.2025265e-13
4.046608e-13 5.018567e-13 3.6514994e-13 4.112756e-13 3.7457087e-17 6.305328e-18 1.8794098e-18 3.2354068e-17
1.7121805e-17 5.473963e-18 2.4767945e-17 5.015985e-18 1.5344076e-17 1.8028214e-09 1.740217e-09 1.9802218e-09
2.2194824e-09 1.8335841e-09 1.8633202e-09 2.0261668e-09 1.6966993e-09 1.7175914e-09 2.2021869e-24 2.7763644e-24
9.695836e-25 3.3917714e-24 6.2166687e-25 8.003306e-25 2.0878746e-24 7.536297e-24 6.631049e-25 5.7667637e-24
1.01801924e-23 5.527974e-24 3.512376e-23 7.394637e-23 4.429621e-23 9.123273e-24 1.2433209e-23 2.696612e-24
3.1542176e-09 4.399437e-09 3.841865e-09 2.9983882e-09 4.2930695e-09 4.1101678e-09 3.5311463e-09 4.3850155e-09
4.1857517e-09 0.0 0.0 0.0 0.0 0.0 0.0 0.0
0.0 0.0 1.298783e-09 1.6661087e-09 1.6005443e-09 1.4746491e-09 1.8300614e-09 1.3935175e-09
1.4461732e-09 1.7545663e-09 1.3555109e-09 1.6045421e-22 1.2460714e-25 4.0518872e-22 1.9633952e-25 2.6192817e-25
2.6108357e-25 7.5906514e-22 4.209417e-25 3.6469812e-22 4.2282977e-09 4.5533177e-09 4.868037e-09 4.35081e-09
4.626554e-09 4.941754e-09 4.2878576e-09 4.397185e-09 4.8981064e-09 5.120776e-10 7.9654433e-10 1.7247074e-09
4.7341153e-10 6.285802e-10 8.4043883e-10 4.5529513e-10 6.1180594e-10 7.1226886e-10 1.6990038e-13 1.7737324e-13
2.0793206e-13 1.8804791e-13 1.4878292e-13 1.623658e-13 1.6892595e-13 1.3746153e-13 1.7199695e-13 8.7023607e-13
8.443578e-13 8.4725613e-13 7.1899214e-13 5.1774335e-13 5.880206e-13 5.793909e-13 4.2499083e-13 4.950915e-13
2.478396e-22 9.365643e-20 2.870787e-21 7.798127e-21 3.5080624e-19 3.9666746e-24 5.8525187e-20 1.8104488e-19
1.3023252e-21 2.4626403e-09 2.0854107e-09 2.2931197e-09 2.5029152e-09 2.038846e-09 2.1051134e-09 2.5602687e-09
2.152816e-09 2.0721156e-09 8.310375e-10 9.0949387e-10 1.1277616e-09 9.1152086e-10 7.505187e-10 1.073966e-09
9.655583e-10 8.1803286e-10 1.023433e-09 7.1542363e-09 8.1361735e-09 8.673056e-09 7.558727e-09 8.617802e-09
9.186791e-09 8.042519e-09 8.856567e-09 9.383584e-09 3.6967716e-09 3.6898686e-09 3.3401482e-09 3.6484242e-09
3.5938514e-09 3.655136e-09 4.077717e-09 3.7680166e-09 3.7562415e-09 0.0 0.0 0.0
1.1776341e-18 0.0 4.0554827e-20 0.0 0.0 0.0 5.5030784e-09 4.412705e-09
3.5815975e-09 6.097714e-09 4.6945714e-09 3.6112149e-09 5.8209193e-09 4.659736e-09 3.4906558e-09 5.547537e-12
6.344547e-12 5.8166852e-12 4.6870077e-12 4.8162962e-12 5.1324917e-12 4.647078e-12 4.2891407e-12 5.536355e-12
3.280786e-22 1.7467405e-22 4.3461783e-22 2.0586972e-27 7.2368325e-25 2.356171e-27 4.3078816e-28 2.4994086e-24
6.8876575e-28 9.352131e-10 1.0096953e-09 8.770413e-10 8.994119e-10 8.919256e-10 8.5112456e-10 9.111645e-10
9.388045e-10 9.40202e-10 1.1490662e-08 1.4578819e-08 1.3868199e-08 1.0443524e-08 1.3604417e-08 1.28042545e-08
1.0907805e-08 1.3762446e-08 1.3038831e-08 3.4275083e-12 3.017528e-12 3.462094e-12 3.163151e-12 2.902522e-12
3.2312918e-12 3.0685055e-12 2.873502e-12 3.333612e-12 7.334978e-18 1.7331212e-17 1.7047868e-17 2.5929239e-17

exp_avg f4 [48]
00000000: ed7a 1c2f 4b51 a1af 7923 8d2f 8c68 332f
00000010: 8bea 25ae 4298 e22e b2d6 762c a8cc b7ae
00000020: d423 612e ef80 94af a9f8 922f bc32 5a2e
00000030: eab0 f5ae 989c 9a2f 2bb2 072f f8ad 19b0
00000040: 2f5d b32f 90d1 2fae 58b0 232f ca70 a2af
00000050: 9c02 e72e 28eb b62f 82ee 91af 3725 6aae
00000060: 2086 1230 ed69 74af 2d41 262f 02cc 602d
00000070: 324e c7ae ae92 c92c fad9 9a2e ea81 392f
00000080: 8ad8 a52e 31f6 46af c036 73ae 0c53 daae
00000090: c313 8caf b58e c7af 14db 95ae 65b0 202f
000000a0: 48e5 522f c147 b22f 9678 8aaf 9dbb d02f
000000b0: 5559 b4af 8ac9 5030 f52b 8baf f0df 4aaf
1.423179e-10 -2.9343492e-10 2.5672955e-10 1.6317098e-10 -3.7724972e-11 1.03043366e-10 3.5077882e-12 -8.358231e-11
5.11909e-11 -2.7012656e-10 2.673393e-10 4.9612522e-11 -1.11727363e-10 2.8123703e-10 1.2341476e-10 -5.59083e-10
3.262612e-10 -3.9976522e-11 1.4887414e-10 -2.954777e-10 1.0505127e-10 3.3272696e-10 -2.6544816e-10 -5.3238493e-11
5.3305094e-10 -2.2229303e-10 1.5120767e-10 1.2778225e-11 -9.0633626e-11 5.7290483e-12 7.0418296e-11 1.6871807e-10
7.5417964e-11 -1.809546e-10 -5.530043e-11 -9.928244e-11 -2.5479893e-10 -3.6299289e-10 -6.8146516e-11 1.4614583e-10
1.9180846e-10 3.2428996e-10 -2.5187735e-10 3.7968287e-10 -3.2805283e-10 7.5956363e-10 -2.5315186e-10 -1.8451352e-10

exp_avg_sq f4 [48]
00000000: 1eeb d821 80cf b421 a91f 3222 333c b221
00000010: 77e0 bd22 346a 8222 eda0 3722 5741 7922
00000020: 5a10 4222 b2ff 0c22 fde7 3322 509e c421
00000030: 45ff 3322 c5bb b322 2d05 1122 a81f 4c22
00000040: 5e92 f321 8253 8b22 3903 ad21 abe7 3822
00000050: 9c53 9421 0df7 ff21 6598 9821 a913 b822
00000060: 4b07 0522 d605 7822 6b42 4f22 5aac d222
00000070: 9441 2822 b61b 9f22 de2a 9522 7d35 1222
00000080: 5361 1822 4772 5622 8e21 a622 922f 6322
00000090: 554c ac22 e286 1f22 dca5 a322 6579 d221
000000a0: 7b80 b822 2d4d 8322 5f87 0322 2902 2a22
000000b0: cc7f 2122 4c1e 7422 b7cf 0222 049d e521
1.4698964e-18 1.2252199e-18 2.414026e-18 1.2077684e-18 5.1466214e-18 3.5349018e-18 2.4886318e-18 3.3780383e-18
2.630056e-18 1.9108902e-18 2.4381837e-18 1.3323382e-18 2.4394162e-18 4.8716856e-18 1.9653904e-18 2.7663914e-18
1.6505064e-18 3.7764443e-18 1.1723789e-18 2.5059294e-18 1.0051001e-18 1.7344866e-18 1.0340259e-18 4.9894116e-18
1.8028722e-18 3.3613357e-18 2.8088893e-18 5.71031e-18 2.2802962e-18 4.3126376e-18 4.043192e-18 1.9815006e-18
2.0651364e-18 2.9062906e-18 4.5029918e-18 3.078942e-18 4.6701513e-18 2.1619925e-18 4.435685e-18 1.4262286e-18
5.0009334e-18 3.5589334e-18 1.7825475e-18 2.304044e-18 2.1887224e-18 3.3084205e-18 1.7728249e-18 1.5559205e-18

exp_avg f4 [48]
00000000: 2336 72b6 31cc a8b6 d0d8 a1b6 3ce6 29b6
00000010: 439f e7b6 164d 85b6 b2dd e0b6 51d8 f1b6
00000020: 04d6 abb6 aa2d 92b6 9c05 cbb6 8e59 9ab6
00000030: da10 dbb6 5d5f 87b6 c1d2 2bb6 182c 98b6
00000040: 7c3b 69b6 2968 91b6 5008 6ab6 88a0 90b6
00000050: 13ec 24b6 af26 80b6 e5ef 8eb6 9d0e a3b6
00000060: 9bc2 9cb6 3cbc c3b6 2aa4 c0b6 e89f 00b7
00000070: eef8 78b6 62ae 8eb6 ef86 9fb6 a787 21b6
00000080: f95b 97b6 dc84 69b6 413c ddb6 d089 bab6
00000090: 4f49 c6b6 ef9b 93b6 13aa b7b6 df42 85b6
000000a0: a5e6 82b6 4b9b a1b6 73f3 a9b6 0d39 c9b6
000000b0: e3fd 88b6 408d 7db6 1440 81b6 f4ce 08b7
-3.6092322e-06 -5.030561e-06 -4.823414e-06 -2.5316976e-06 -6.902877e-06 -3.972683e-06 -6.701529e-06 -7.2075422e-06
-5.121112e-06 -4.356455e-06 -6.0505245e-06 -4.599983e-06 -6.5286704e-06 -4.0344153e-06 -2.560366e-06 -4.535086e-06
-3.475433e-06 -4.3334626e-06 -3.4873556e-06 -4.3102227e-06 -2.4575318e-06 -3.8192006e-06 -4.259857e-06 -4.8594798e-06
-4.6718174e-06 -5.8333662e-06 -5.741157e-06 -7.666626e-06 -3.7099776e-06 -4.2522306e-06 -4.7542776e-06 -2.406983e-06
-4.5108577e-06 -3.479704e-06 -6.5933277e-06 -5.5592755e-06 -5.909394e-06 -4.3990945e-06 -5.4736242e-06 -3.9714937e-06
-3.9011525e-06 -4.8162524e-06 -5.0649337e-06 -5.9969084e-06 -4.082672e-06 -3.7782156e-06 -3.8519593e-06 -8.154417e-06
