vae/relu-bce-aug.pth (torch_old, 519417 bytes, 70 tensors)

exp_avg f4 [6, 3, 3, 3]
000000 dd 26 82 39 0a 2b 85 39 f8 69 8a 39 67 b2 7e 39
       0.00024824488 0.00025399803 0.00026400364 0.00024289788
000010 fa 48 80 39 64 52 85 39 ff 5c 7d 39 27 26 7e 39
       0.00024468434 0.00025429123 0.00024162604 0.0002423754
000020 c9 5a 7f 39 3c 3c 2b 3a 4d 19 2c 3a 1a 39 2d 3a
       0.00024352515 0.0006532108 0.00065650494 0.0006607935
000030 b8 8c 29 3a 0f 42 2a 3a 96 7f 2a 3a 52 4e 28 3a
       0.0006467807 0.0006494829 0.0006503997 0.0006420362
000040 f4 3c 29 3a 42 ea 28 3a 93 76 0b 39 cd 98 db 38
       0.0006455921 0.00064435985 0.00013300245 0.00010471195
000050 c9 7d cd 38 b7 46 04 39 61 1b ce 38 3e 58 b5 38
       9.798591e-05 0.00012614844 9.827945e-05 8.647189e-05
000060 eb ec 00 39 cc 37 ca 38 5d 37 ab 38 c6 0d 2c 3b
       0.0001229529 9.6425036e-05 8.1642276e-05 0.0026253327
000070 b3 09 2b 3b d4 55 2a 3b a2 f2 2b 3b 86 6a 2b 3b
       0.002609831 0.00259911 0.002623715 0.0026156022
000080 ba 1e 2a 3b 88 3c 2c 3b c3 6a 2b 3b 5f 55 2a 3b
       0.0025958256 0.0026281197 0.0026156164 0.0025990827
000090 40 a9 51 3b 88 f8 53 3b d4 f0 54 3b 29 c0 51 3b
       0.003199175 0.003234418 0.0032492178 0.0032005406
0000a0 7a 5c 54 3b db 16 55 3b b2 ae 52 3b 1a 53 55 3b
       0.0032403753 0.0032514844 0.0032147584 0.0032550753
0000b0 4e 40 56 3b b1 80 11 3b 30 0b 13 3b 0f cf 13 3b
       0.0032692137 0.002220195 0.0022437088 0.0022553836
0000c0 fa 67 12 3b 22 73 14 3b 87 c6 14 3b bc bd 13 3b
       0.0022339807 0.0022651632 0.002270134 0.002254351
0000d0 96 cb 15 3b 6f 35 16 3b 04 00 00 00 04 00 00 00
       0.0022856942 0.0022920032 6e-45 6e-45
0000e0 04 00 00 00 04 00 00 80 04 00 00 00 04 00 00 00
       6e-45 -6e-45 6e-45 6e-45
0000f0 04 00 00 00 04 00 00 00 04 00 00 00 04 00 00 80
       6e-45 6e-45 6e-45 -6e-45
000100 04 00 00 80 04 00 00 80 04 00 00 80 04 00 00 00
       -6e-45 -6e-45 -6e-45 6e-45
000110 04 00 00 00 04 00 00 00 04 00 00 00 04 00 00 00
       6e-45 6e-45 6e-45 6e-45
000120 04 00 00 80 04 00 00 80 04 00 00 80 04 00 00 80
       -6e-45 -6e-45 -6e-45 -6e-45
000130 04 00 00 00 04 00 00 00 04 00 00 80 04 00 00 80
       6e-45 6e-45 -6e-45 -6e-45
000140 04 00 00 00 0c c7 f3 38 04 e7 eb 38 2e 5f e5 38
       6e-45 0.00011624218 0.00011248703 0.000109372995
000150 42 5a ef 38 50 d5 e6 38 95 da e2 38 93 ec ed 38
       0.0001141322 0.00011006987 0.00010817234 0.00011345106
000160 08 f5 e2 38 6f fd dc 38 a6 28 c9 b9 19 6c cb b9
       0.000108221604 0.00010537623 -0.00038367993 -0.00038799716
000170 ec 1f ca b9 98 f4 ca b9 43 e4 cd b9 73 b9 ca b9
       -0.00038552226 -0.0003871068 -0.00039270715 -0.00038666613
000180 79 06 ce b9 e5 07 cf b9 72 32 cf b9 49 f2 e5 38
       -0.00039296204 -0.00039488 -0.000395197 0.000109647
000190 b7 f4 d1 38 3b 67 c6 38 b6 d4 d5 38 3d 0a c2 38
       0.00010011478 9.460604e-05 0.00010196252 9.252548e-05
0001a0 11 0e c0 38 47 68 c7 38 f3 5e b9 38 75 05 b2 38
       9.1578935e-05 9.5084826e-05 8.839173e-05 8.488718e-05
0001b0 6d e4 87 ba 29 fd 85 ba 10 c4 82 ba cc 4d 88 ba
       -0.0010367759 -0.0010222542 -0.0009976644 -0.0010399162
0001c0 da 3a 86 ba 66 a6 82 ba 46 56 88 ba 25 d3 85 ba
       -0.0010240928 -0.0009967803 -0.0010401688 -0.0010210021
0001d0 8c a1 82 ba bf 4c 86 ba 05 12 84 ba 10 ac 83 ba
       -0.0009966358 -0.0010246261 -0.0010076171 -0.0010045785
0001e0 64 1e 85 ba 89 6f 82 ba 42 eb 81 ba 09 13 84 ba
       -0.0010156152 -0.0009951453 -0.0009912031 -0.0010076474
0001f0 85 db 80 ba 16 cb 7f ba 9d a1 3b 3a 95 d1 43 3a
       -0.0009831047 -0.000975774 0.0007157566 0.000746989
000200 99 a6 44 3a f4 20 3f 3a ef a9 47 3a 86 d0 47 3a
       0.00075016316 0.0007290982 0.00076165696 0.000762232
000210 89 20 42 3a 96 95 4b 3a cb 53 4b 3a 18 ca cc b8
       0.0007405361 0.00077661255 0.00077563216 -9.765121e-05
000220 be 1c c4 b8 94 91 c2 b8 03 9b c8 b8 5e 9c c2 b8
       -9.351362e-05 -9.277757e-05 -9.565616e-05 -9.2797665e-05
000230 2b c9 bf b8 52 f0 c7 b8 f7 75 c1 b8 70 f1 bf b8
       -9.14506e-05 -9.5338226e-05 -9.22493e-05 -9.152561e-05
000240 0c 4e 7c b8 8f ef 82 b8 58 b2 8f b8 58 b7 83 b8
       -6.015417e-05 -6.243504e-05 -6.8519905e-05 -6.280717e-05
000250 6d 12 83 b8 b8 5f 8a b8 82 f3 80 b8 27 e9 7b b8
       -6.249999e-05 -6.598182e-05 -6.1488725e-05 -6.0060203e-05
000260 95 65 86 b8 a6 11 91 b8 93 cd 84 b8 ad 25 88 b8
       -6.408539e-05 -6.917426e-05 -6.332542e-05 -6.492003e-05
000270 53 8f 92 b8 8d 62 89 b8 52 3c 8a b8 13 21 95 b8
       -6.988519e-05 -6.5510256e-05 -6.591588e-05 -7.111034e-05
000280 00 a0 8a b8 82 bd 8f b8
       -6.610155e-05 -6.85407e-05

exp_avg_sq f4 [6, 3, 3, 3]
000000 73 61 28 38 07 6f 28 38 50 46 28 38 de a5 28 38
       4.0145078e-05 4.0157724e-05 4.0119805e-05 4.0208797e-05
000010 39 b2 28 38 d6 7d 28 38 a0 ad 28 38 ec b9 28 38
       4.0220304e-05 4.0171515e-05 4.0216022e-05 4.0227475e-05
000020 50 73 28 38 b9 89 d9 37 71 38 d9 37 95 f6 d8 37
       4.0161714e-05 2.5932548e-05 2.5894698e-05 2.586403e-05
000030 e7 f3 d9 37 c2 8e d9 37 79 37 d9 37 2f 10 da 37
       2.5981992e-05 2.5934893e-05 2.5894247e-05 2.5995161e-05
000040 ac ac d9 37 c1 35 d9 37 0e fe 6c 37 82 0a 6c 37
       2.5948822e-05 2.5893447e-05 1.4125848e-05 1.4069143e-05
000050 02 85 6b 37 b6 9c 6d 37 f7 98 6c 37 68 f0 6b 37
       1.403806e-05 1.4162788e-05 1.4102311e-05 1.40630655e-05
000060 22 d1 6d 37 36 ea 6c 37 77 2e 6c 37 8b 99 b9 39
       1.4174993e-05 1.4121228e-05 1.4077515e-05 0.00035400348
000070 45 b0 b9 39 a4 a2 b9 39 be 86 b9 39 62 9f b9 39
       0.0003541728 0.00035407126 0.0003538634 0.000354047
000080 bf 8f b9 39 81 71 b9 39 4d 8b b9 39 de 73 b9 39
       0.0003539305 0.00035370517 0.00035389737 0.00035372277
000090 fd 34 8d 39 47 47 8d 39 e2 1a 8d 39 52 2c 8d 39
       0.00026933095 0.00026946721 0.00026913645 0.00026926637
0000a0 9a 40 8d 39 0f 0d 8d 39 02 1d 8d 39 c4 31 8d 39
       0.00026941748 0.00026903345 0.00026915228 0.00026930694
0000b0 74 f7 8c 39 28 a0 9c 39 54 b8 9c 39 fe 8c 9c 39
       0.00026887248 0.00029873964 0.00029891974 0.00029859686
0000c0 0a 9a 9c 39 ad b0 9c 39 7e 82 9c 39 dc 8c 9c 39
       0.00029869407 0.00029886272 0.00029851863 0.00029859587
0000d0 a2 a1 9c 39 36 6b 9c 39 f4 01 00 00 f4 01 00 00
       0.00029875065 0.00029834517 7e-43 7e-43
0000e0 f4 01 00 00 f4 01 00 00 f4 01 00 00 f4 01 00 00
       7e-43 7e-43 7e-43 7e-43
0000f0 f4 01 00 00 f4 01 00 00 f4 01 00 00 f4 01 00 00
       7e-43 7e-43 7e-43 7e-43
000100 f4 01 00 00 f4 01 00 00 f4 01 00 00 f4 01 00 00
       7e-43 7e-43 7e-43 7e-43
000110 f4 01 00 00 f4 01 00 00 f4 01 00 00 f4 01 00 00
       7e-43 7e-43 7e-43 7e-43
000120 f4 01 00 00 f4 01 00 00 f4 01 00 00 f4 01 00 00
       7e-43 7e-43 7e-43 7e-43
000130 f4 01 00 00 f4 01 00 00 f4 01 00 00 f4 01 00 00
       7e-43 7e-43 7e-43 7e-43
000140 f4 01 00 00 46 9f 8b 36 af 7f 8b 36 39 90 8b 36
       7e-43 4.1610647e-06 4.157387e-06 4.1593125e-06
000150 5c 98 8b 36 0d 8a 8b 36 46 a6 8b 36 5f 8b 8b 36
       4.16026e-06 4.158594e-06 4.1618796e-06 4.1587477e-06
000160 27 96 8b 36 eb be 8b 36 eb df 37 36 a0 e0 37 36
       4.160003e-06 4.1647486e-06 2.7399462e-06 2.7399874e-06
000170 5b ba 37 36 2d d1 38 36 9f dd 38 36 ab c3 38 36
       2.7377598e-06 2.7539893e-06 2.7547137e-06 2.753203e-06
000180 50 8a 39 36 da da 39 36 f2 da 39 36 0f 1d b3 36
       2.7647657e-06 2.7694537e-06 2.7694591e-06 5.3379986e-06
000190 93 f5 b2 36 3c d0 b2 36 d6 33 b3 36 94 20 b3 36
       5.333402e-06 5.329055e-06 5.34065e-06 5.3384083e-06
0001a0 8c ff b2 36 78 2b b3 36 16 3a b3 36 50 31 b3 36
       5.334563e-06 5.339676e-06 5.341378e-06 5.3403564e-06
0001b0 44 40 aa 38 a6 7a aa 38 bc aa aa 38 35 33 aa 38
       8.118202e-05 8.129077e-05 8.1380334e-05 8.11577e-05
0001c0 7e 62 aa 38 3f 9d aa 38 b7 1c aa 38 f4 56 aa 38
       8.124577e-05 8.135521e-05 8.11158e-05 8.122428e-05
0001d0 95 87 aa 38 1c 30 4e 38 57 11 4e 38 ce 73 4e 38
       8.131486e-05 4.9159033e-05 4.9130376e-05 4.922208e-05
0001e0 7f 3b 4e 38 60 10 4e 38 28 81 4e 38 80 4c 4e 38
       4.9169637e-05 4.9129478e-05 4.9234513e-05 4.9185473e-05
0001f0 d6 36 4e 38 bb a0 4e 38 8f 81 53 38 27 78 53 38
       4.9165297e-05 4.926392e-05 5.042698e-05 5.041822e-05
000200 71 7a 53 38 ef a9 53 38 46 a4 53 38 ec a3 53 38
       5.0420353e-05 5.0464583e-05 5.045931e-05 5.0458984e-05
000210 90 b6 53 38 d6 c0 53 38 06 bd 53 38 e9 cb c7 32
       5.0476345e-05 5.0485913e-05 5.0482362e-05 2.3259377e-08
000220 79 d4 be 32 a3 2e c2 32 f3 a0 c0 32 b8 f5 b7 32
       2.2215533e-08 2.260578e-08 2.2424933e-08 2.1415744e-08
000230 ef c2 bc 32 b7 fc c4 32 94 23 ba 32 46 f7 be 32
       2.1974726e-08 2.2932324e-08 2.1669429e-08 2.2231358e-08
000240 b3 ae a5 35 fd 22 a5 35 1c 5b a5 35 a2 c5 a4 35
       1.2344302e-06 1.2303641e-06 1.2319974e-06 1.2276471e-06
000250 5c 69 a4 35 62 c2 a4 35 e5 b4 a4 35 53 45 a4 35
       1.2249616e-06 1.2275525e-06 1.2271599e-06 1.2239128e-06
000260 45 77 a4 35 7f 88 34 33 fe d8 26 33 d6 d9 2b 33
       1.2253664e-06 4.203366e-08 3.884724e-08 4.001216e-08
000270 dd 2b 2a 33 05 72 1a 33 7a f9 22 33 82 60 33 33
       3.9621103e-08 3.595962e-08 3.7945462e-08 4.176446e-08
000280 d1 75 21 33 08 9b 27 33
       3.7592887e-08 3.9023718e-08

exp_avg f4 [6]
000000 5a 8b e5 38 a0 50 8c 3b 04 00 00 00 5b 2a c6 39
       0.00010945527 0.004282072 6e-45 0.0003779706
000010 ef c3 85 3a 64 48 8a 38
       0.0010205487 6.5938366e-05

exp_avg_sq f4 [6]
000000 7b ef 75 38 64 d4 09 3a 6a 19 00 00 c2 ef 0e 37
       5.8635585e-05 0.0005257784 9.117e-42 8.5196825e-06
000010 8c 58 20 39 a9 95 31 37
       0.00015291775 1.0584868e-05

exp_avg f4 [12, 6, 3, 3]
000000 90 80 31 b9 cb 78 32 b9 52 5c 30 b9 8d c8 2d b9
       -0.00016927929 -0.00017020402 -0.0001681906 -0.00016573277
000010 ee 8a 31 b9 84 3b 31 b9 6f c0 2d b9 e6 81 2f b9
       -0.00016931791 -0.00016902207 -0.00016570253 -0.00016737691
000020 09 27 30 b9 ea e1 d3 b8 f4 d0 ca b8 45 1a ce b8
       -0.0001679921 -0.00010103344 -9.671031e-05 -9.8277385e-05
000030 90 2c d3 b8 ec 58 ca b8 76 60 d0 b8 fc 8c d8 b8
       -0.000100695645 -9.6486736e-05 -9.93618e-05 -0.00010325943
000040 84 8a ce b8 43 9c cf b8 04 00 00 00 04 00 00 80
       -9.848646e-05 -9.899635e-05 6e-45 -6e-45
000050 04 00 00 00 04 00 00 00 04 00 00 80 04 00 00 80
       6e-45 6e-45 -6e-45 -6e-45
000060 04 00 00 00 04 00 00 00 04 00 00 00 01 46 97 b8
       6e-45 6e-45 6e-45 -7.21328e-05
000070 cd 46 95 b8 3e 81 9d b8 3a 1a 9f b8 51 cb 9c b8
       -7.118061e-05 -7.5104166e-05 -7.586596e-05 -7.47653e-05
000080 e3 59 9c b8 87 98 9d b8 55 b2 9d b8 e7 d7 9a b8
       -7.4554024e-05 -7.514754e-05 -7.51956e-05 -7.383507e-05
000090 c3 2e fc b8 04 98 e8 b8 22 1a e3 b8 01 7d fb b8
       -0.000120250064 -0.00011090937 -0.00010829071 -0.000119918965
0000a0 ec 61 e8 b8 11 72 e4 b8 c5 ac fd b8 a9 91 eb b8
       -0.000110808614 -0.00010893134 -0.00012096161 -0.000112328045
0000b0 c6 40 e6 b8 46 67 3d b7 a4 66 4d b7 0b ed 58 b7
       -0.000109793196 -1.1289323e-05 -1.224285e-05 -1.2929794e-05
0000c0 4b bf 36 b7 a0 29 40 b7 fb 84 4e b7 9d 86 39 b7
       -1.0892584e-05 -1.1453783e-05 -1.2309519e-05 -1.1058201e-05
0000d0 f0 1b 32 b7 53 e8 49 b7 9b a0 2f 39 55 a6 4c 39
       -1.06161315e-05 -1.2034626e-05 0.00016749131 0.0001951692
0000e0 7a 9f 71 39 da 88 2e 39 fe fd 50 39 f1 8c 74 39
       0.0002304296 0.00016644914 0.00019931045 0.00023322158
0000f0 10 22 2b 39 a6 ce 52 39 42 33 75 39 b0 00 aa 39
       0.0001632052 0.00020104143 0.00023384116 0.0003242544
000100 4f 8b a7 39 a6 a5 a2 39 bd 4f a5 39 64 9c a0 39
       0.00031956515 0.00031022466 0.00031530662 0.00030634098
000110 59 35 9b 39 66 78 a0 39 a9 87 99 39 03 ec 92 39
       0.0002960365 0.00030607282 0.0002928351 0.00028023132
000120 04 00 00 00 04 00 00 80 04 00 00 00 04 00 00 80
       6e-45 -6e-45 6e-45 -6e-45
000130 04 00 00 80 04 00 00 00 04 00 00 80 04 00 00 80
       -6e-45 6e-45 -6e-45 -6e-45
000140 04 00 00 00 10 02 99 b8 87 d9 9f b8 26 12 a5 b8
       6e-45 -7.295993e-05 -7.6222284e-05 -7.8711935e-05
000150 d5 e2 99 b8 ed da a2 b8 f2 25 aa b8 41 57 98 b8
       -7.337859e-05 -7.76554e-05 -8.1132996e-05 -7.264177e-05
000160 a4 0a a3 b8 dc 1f b2 b8 23 44 aa 39 a2 06 b4 39
       -7.774428e-05 -8.493636e-05 0.00032475693 0.00034337217
000170 51 82 b3 39 d7 17 a5 39 80 4a ad 39 96 5a ac 39
       0.00034238634 0.00031489015 0.00033052638 0.00032873888
000180 23 58 a0 39 b6 5e a7 39 a7 f2 a6 39 8c 6c c1 b7
       0.00030583245 0.00031923287 0.00031842777 -2.3057939e-05
000190 79 a0 da b7 e9 82 e8 b7 4e a1 a9 b7 2c 24 cc b7
       -2.6062351e-05 -2.7717515e-05 -2.0221483e-05 -2.4335539e-05
0001a0 b9 10 e4 b7 5d 1e ab b7 cb f7 bb b7 ff d5 cb b7
       -2.7187505e-05 -2.0398928e-05 -2.2407525e-05 -2.4299135e-05
0001b0 9b e6 a6 ba dc 10 a6 ba 25 b6 a6 ba 30 bb a6 ba
       -0.0012733521 -0.0012669819 -0.0012719078 -0.0012720581
0001c0 8d 1b a6 ba 4a 0d a7 ba 29 ec a5 ba e4 43 a6 ba
       -0.0012673006 -0.0012745049 -0.0012658882 -0.0012685028
0001d0 e2 a7 a6 ba 18 fe 73 ba e6 18 66 ba 57 bb 5c ba
       -0.0012714828 -0.0009307577 -0.0008777514 -0.000842025
0001e0 ee 54 77 ba 50 5a 6a ba 8f c1 5f ba a6 b5 75 ba
       -0.0009434958 -0.0008939849 -0.00085356174 -0.0009373076
0001f0 71 29 69 ba c4 53 5e ba 04 00 00 00 04 00 00 00
       -0.000889442 -0.000848111 6e-45 6e-45
000200 04 00 00 00 04 00 00 80 04 00 00 80 04 00 00 80
       6e-45 -6e-45 -6e-45 -6e-45
000210 04 00 00 80 04 00 00 00 04 00 00 80 02 2c 38 b9
       -6e-45 6e-45 -6e-45 -0.00017564002
000220 9b 8f 46 b9 dc 75 47 b9 86 89 39 b9 0c 61 46 b9
       -0.00018936249 -0.00019022025 -0.00017694206 -0.00018918904
000230 5a ff 46 b9 6a e9 2b b9 4b 58 3a b9 21 ad 3a b9
       -0.00018977877 -0.00016394784 -0.00017771234 -0.00017802838
000240 96 d2 72 ba 0e 46 72 ba 1b ce 6f ba 31 97 70 ba
       -0.0009262947 -0.00092420063 -0.00091478386 -0.0009177803
000250 82 c8 71 ba ab ad 6d ba f5 96 6e ba fd ad 70 ba
       -0.00092232984 -0.0009066711 -0.0009101474 -0.00091812
000260 34 7c 6b ba b2 f2 ce 38 62 02 ca 38 f0 10 cb 38
       -0.0008983046 9.868051e-05 9.6325544e-05 9.682949e-05
000270 bb 7b c4 38 5a b5 c1 38 66 39 c7 38 84 75 c3 38
       9.369055e-05 9.2367365e-05 9.499751e-05 9.3202136e-05
000280 35 76 bf 38 41 54 c0 38 00 00 00 00 00 00 00 00
       9.1296075e-05 9.170967e-05 0.0 0.0
000290 04 00 00 80 04 00 00 00 00 00 00 00 04 00 00 80
       -6e-45 6e-45 0.0 -6e-45
0002a0 04 00 00 80 04 00 00 00 04 00 00 80 04 00 00 00
       -6e-45 6e-45 -6e-45 6e-45
0002b0 04 00 00 00 04 00 00 00 04 00 00 00 04 00 00 00
       6e-45 6e-45 6e-45 6e-45
0002c0 04 00 00 00 04 00 00 00 04 00 00 00 04 00 00 00
       6e-45 6e-45 6e-45 6e-45
0002d0 04 00 00 00 04 00 00 00 04 00 00 00 04 00 00 00
       6e-45 6e-45 6e-45 6e-45
0002e0 04 00 00 00 04 00 00 00 00 00 00 00 00 00 00 00
       6e-45 6e-45 0.0 0.0
0002f0 04 00 00 00 04 00 00 00 04 00 00 00 04 00 00 00
       6e-45 6e-45 6e-45 6e-45
000300 04 00 00 00 04 00 00 00 04 00 00 00 04 00 00 00
       6e-45 6e-45 6e-45 6e-45
000310 04 00 00 00 04 00 00 00 04 00 00 00 04 00 00 00
       6e-45 6e-45 6e-45 6e-45
000320 04 00 00 00 04 00 00 00 04 00 00 00 04 00 00 00
       6e-45 6e-45 6e-45 6e-45
000330 04 00 00 00 04 00 00 00 04 00 00 00 04 00 00 00
       6e-45 6e-45 6e-45 6e-45
000340 04 00 00 00 04 00 00 00 04 00 00 00 04 00 00 00
       6e-45 6e-45 6e-45 6e-45
000350 04 00 00 00 04 00 00 00 04 00 00 00 04 00 00 00
       6e-45 6e-45 6e-45 6e-45
000360 04 00 00 00 04 00 00 00 04 00 00 00 04 00 00 00
       6e-45 6e-45 6e-45 6e-45
000370 04 00 00 00 04 00 00 00 00 00 00 00 04 00 00 00
       6e-45 6e-45 0.0 6e-45
000380 04 00 00 00 04 00 00 00 04 00 00 00 04 00 00 00
       6e-45 6e-45 6e-45 6e-45
000390 04 00 00 00 04 00 00 00 04 00 00 00 04 00 00 00
       6e-45 6e-45 6e-45 6e-45
0003a0 04 00 00 00 04 00 00 00 00 00 00 00 00 00 00 00
       6e-45 6e-45 0.0 0.0
0003b0 00 00 00 00 00 00 00 00 00 00 00 00 00 00 00 00
       0.0 0.0 0.0 0.0
0003c0 00 00 00 00 00 00 00 00 00 00 00 00 04 00 00 00
       0.0 0.0 0.0 6e-45
0003d0 04 00 00 00 04 00 00 00 04 00 00 00 04 00 00 00
       6e-45 6e-45 6e-45 6e-45
0003e0 04 00 00 00 04 00 00 00 04 00 00 00 04 00 00 00
       6e-45 6e-45 6e-45 6e-45
0003f0 04 00 00 00 04 00 00 00 04 00 00 00 04 00 00 00
       6e-45 6e-45 6e-45 6e-45

exp_avg_sq f4 [12, 6, 3, 3]
000000 60 48 0e 35 8f 7c 0f 35 86 3f 0f 35 c4 45 0e 35
       5.300444e-07 5.345291e-07 5.336409e-07 5.3000645e-07
000010 12 69 0f 35 34 13 0f 35 dd 76 0e 35 8f 6f 0f 35
       5.342455e-07 5.3299595e-07 5.307209e-07 5.343399e-07
000020 e3 0c 0f 35 28 78 5f 34 e7 c3 5c 34 e0 3a 5e 34
       5.3290404e-07 2.0812206e-07 2.0560365e-07 2.069678e-07
000030 1e 70 5e 34 6a 2f 5c 34 89 d5 5d 34 19 0c 5e 34
       2.0716149e-07 2.0506346e-07 2.0659913e-07 2.0679762e-07
000040 6e 1a 5c 34 3b bf 5d 34 f4 01 00 00 f4 01 00 00
       2.0498712e-07 2.0651798e-07 7e-43 7e-43
000050 f4 01 00 00 f4 01 00 00 f4 01 00 00 f4 01 00 00
       7e-43 7e-43 7e-43 7e-43
000060 f4 01 00 00 f4 01 00 00 f4 01 00 00 dd b2 96 32
       7e-43 7e-43 7e-43 1.7543636e-08
000070 e3 e0 97 32 37 4b 9a 32 d8 1e 9c 32 e5 97 a0 32
       1.768098e-08 1.7962163e-08 1.8174816e-08 1.8695525e-08
000080 9d 77 9e 32 92 a8 a0 32 8c 9b a2 32 de e7 a2 32
       1.8448015e-08 1.8703108e-08 1.8930017e-08 1.8964723e-08
000090 f3 22 29 35 ab 45 29 35 13 b6 28 35 18 df 28 35
       6.3008264e-07 6.3058786e-07 6.284983e-07 6.290952e-07
0000a0 d2 fe 28 35 23 85 28 35 28 d6 28 35 d2 e4 28 35
       6.295569e-07 6.2778616e-07 6.2896515e-07 6.2917854e-07
0000b0 a2 74 28 35 86 8b 77 31 6b 7a 6b 31 04 e9 5b 31
       6.27546e-07 3.602254e-09 3.4266587e-09 3.2001148e-09
0000c0 10 07 6e 31 9f e7 60 31 65 3b 52 31 70 f7 5a 31
       3.4637573e-09 3.2727951e-09 3.0592784e-09 3.1863827e-09
0000d0 c8 86 4e 31 84 8f 44 31 de 79 07 36 d6 e5 07 36
       3.005356e-09 2.8603333e-09 2.0187504e-06 2.025035e-06
0000e0 13 d4 06 36 2e 60 07 36 81 ef 07 36 0d cd 06 36
       2.0091e-06 2.0172552e-06 2.0255977e-06 2.0086911e-06
0000f0 59 04 07 36 a1 9c 07 36 6c 78 06 36 0b 6a ed 36
       2.0119098e-06 2.0207738e-06 2.003765e-06 7.0754954e-06
000100 9a 93 ed 36 3a 0c ee 36 43 2f ed 36 a9 40 ed 36
       7.0803335e-06 7.094376e-06 7.0686524e-06 7.070678e-06
000110 c9 a0 ed 36 03 0d ed 36 d8 1d ed 36 6b 6b ed 36
       7.0818683e-06 7.064665e-06 7.0666247e-06 7.0756555e-06
000120 f4 01 00 00 f4 01 00 00 f4 01 00 00 f4 01 00 00
       7e-43 7e-43 7e-43 7e-43
000130 f4 01 00 00 f4 01 00 00 f4 01 00 00 f4 01 00 00
       7e-43 7e-43 7e-43 7e-43
000140 f4 01 00 00 f3 ca 3f 33 aa 8e 39 33 99 f8 3f 33
       7e-43 4.4655234e-08 4.320342e-08 4.469675e-08
000150 77 b0 40 33 d8 55 3e 33 65 d2 44 33 49 97 41 33
       4.4863977e-08 4.4315897e-08 4.582616e-08 4.5073907e-08
000160 62 de 3f 33 d1 05 44 33 6c 23 9e 36 de 49 9e 36
       4.467291e-08 4.5640096e-08 4.7128906e-06 4.717366e-06
000170 7a 10 9e 36 91 f0 9d 36 43 11 9e 36 dc c4 9d 36
       4.710685e-06 4.7069702e-06 4.7107765e-06 4.701882e-06
000180 2c d2 9d 36 07 dd 9d 36 c9 86 9d 36 01 5f e3 31
       4.703432e-06 4.7046956e-06 4.6946557e-06 6.61737e-09
000190 b7 e6 df 31 f5 0b e4 31 82 1e e2 31 57 4f e0 31
       6.5163834e-09 6.6370327e-09 6.580934e-09 6.528278e-09
0001a0 d0 92 e2 31 9d 36 e4 31 d4 a6 e1 31 dd 5c e8 31
       6.5941563e-09 6.641882e-09 6.567328e-09 6.762646e-09
0001b0 ee a7 3b 37 db 26 3d 37 6b 32 3e 37 40 22 3b 37
       1.1185168e-05 1.1274325e-05 1.1336621e-05 1.1154043e-05
0001c0 24 c2 3c 37 79 98 3d 37 c9 db 3a 37 ea 59 3c 37
       1.1250875e-05 1.1300778e-05 1.1137637e-05 1.1226608e-05
0001d0 8a 38 3d 37 ba 5b 59 39 6c 12 5b 39 ce f2 5b 39
       1.1278442e-05 0.00020728903 0.0002089233 0.0002097592
0001e0 32 aa 59 39 87 5d 5b 39 4e 39 5c 39 60 91 59 39
       0.00020758135 0.00020920309 0.00021002183 0.00020748889
0001f0 95 39 5b 39 78 00 5c 39 f4 01 00 00 f4 01 00 00
       0.00020906919 0.0002098101 7e-43 7e-43
000200 f4 01 00 00 f4 01 00 00 f4 01 00 00 f4 01 00 00
       7e-43 7e-43 7e-43 7e-43
000210 f4 01 00 00 f4 01 00 00 f4 01 00 00 7a e3 01 35
       7e-43 7e-43 7e-43 4.8387267e-07
000220 1f 27 ff 34 fa 35 f4 34 03 2a 01 35 7c 0e fc 34
       4.7525916e-07 4.5487815e-07 4.811738e-07 4.6949197e-07
000230 37 89 f3 34 2e f7 00 35 d3 71 fd 34 58 40 f4 34
       4.5362114e-07 4.804341e-07 4.720774e-07 4.5495358e-07
000240 4a 32 15 39 cd 2b 16 39 5f d9 16 39 71 6a 15 39
       0.00014228481 0.00014321432 0.00014386092 0.000142494
000250 ee 66 16 39 cc 17 17 39 2a 60 15 39 68 55 16 39
       0.00014343459 0.00014409347 0.00014245571 0.00014336931
000260 7c fa 16 39 60 f2 97 33 d5 7d 99 33 2f 73 97 33
       0.00014398427 7.075573e-08 7.1475064e-08 7.052437e-08
000270 37 e9 9a 33 ec ae 9c 33 67 93 99 33 d2 a9 98 33
       7.2136054e-08 7.296134e-08 7.15143e-08 7.108942e-08
000280 3e 1a 9b 33 ec a7 96 33 00 00 00 00 00 00 00 00
       7.2225234e-08 7.015464e-08 0.0 0.0
000290 f4 01 00 00 f4 01 00 00 00 00 00 00 f4 01 00 00
       7e-43 7e-43 0.0 7e-43
0002a0 f4 01 00 00 f4 01 00 00 f4 01 00 00 f4 01 00 00
       7e-43 7e-43 7e-43 7e-43
0002b0 34 9d 65 10 e8 cc 3f 10 f4 01 00 00 f4 01 00 00
       4.5283392e-29 3.7825962e-29 7e-43 7e-43
0002c0 f4 01 00 00 f4 01 00 00 f4 01 00 00 f4 01 00 00
       7e-43 7e-43 7e-43 7e-43
0002d0 f4 01 00 00 f4 01 00 00 f4 01 00 00 f4 01 00 00
       7e-43 7e-43 7e-43 7e-43
0002e0 f4 01 00 00 f4 01 00 00 00 00 00 00 00 00 00 00
       7e-43 7e-43 0.0 0.0
0002f0 f4 01 00 00 f2 bb c3 0f 0e f9 8e 0e c5 91 cb 0b
       7e-43 1.9300878e-29 3.5245534e-30 7.8412085e-32
000300 e3 36 e5 11 e3 36 e5 11 e3 36 e5 11 e3 36 e5 11
       3.6163656e-28 3.6163656e-28 3.6163656e-28 3.6163656e-28
000310 e3 36 e5 11 e3 36 e5 11 f4 01 00 00 f4 01 00 00
       3.6163656e-28 3.6163656e-28 7e-43 7e-43
000320 f4 01 00 00 eb 4e 7b 0f eb 4e 7b 0f eb 4e 7b 0f
       7e-43 1.23904545e-29 1.23904545e-29 1.23904545e-29
000330 eb 4e 7b 0f eb 4e 7b 0f eb 4e 7b 0f c9 ab 52 0b
       1.23904545e-29 1.23904545e-29 1.23904545e-29 4.0573766e-32
000340 f4 01 00 00 f4 01 00 00 13 3d 1f 13 13 3d 1f 13
       7e-43 7e-43 2.0098733e-27 2.0098733e-27
000350 13 3d 1f 13 13 3d 1f 13 13 3d 1f 13 13 3d 1f 13
       2.0098733e-27 2.0098733e-27 2.0098733e-27 2.0098733e-27
000360 f4 01 00 00 f4 01 00 00 f4 01 00 00 f4 01 00 00
       7e-43 7e-43 7e-43 7e-43
000370 f4 01 00 00 f4 01 00 00 00 00 00 00 f4 01 00 00
       7e-43 7e-43 0.0 7e-43
000380 f4 01 00 00 f4 01 00 00 f4 01 00 00 f4 01 00 00
       7e-43 7e-43 7e-43 7e-43
000390 f4 01 00 00 f4 01 00 00 f4 01 00 00 f4 01 00 00
       7e-43 7e-43 7e-43 7e-43
0003a0 f4 01 00 00 f4 01 00 00 00 00 00 00 00 00 00 00
       7e-43 7e-43 0.0 0.0
0003b0 00 00 00 00 00 00 00 00 00 00 00 00 00 00 00 00
       0.0 0.0 0.0 0.0
0003c0 00 00 00 00 00 00 00 00 00 00 00 00 f4 01 00 00
       0.0 0.0 0.0 7e-43
0003d0 f4 01 00 00 f4 01 00 00 f4 01 00 00 f4 01 00 00
       7e-43 7e-43 7e-43 7e-43
0003e0 f4 01 00 00 f4 01 00 00 f4 01 00 00 f4 01 00 00
       7e-43 7e-43 7e-43 7e-43
0003f0 f4 01 00 00 f4 01 00 00 f4 01 00 00 f4 01 00 00
       7e-43 7e-43 7e-43 7e-43

exp_avg f4 [12]
000000 54 69 bf b9 db c9 d4 b7 4c 87 cc b9 04 00 00 00
       -0.00036508834 -2.5366366e-05 -0.00039010716 6e-45
000010 04 00 00 00 ca 30 c6 b7 04 00 00 00 31 4c 8a 3a
       6e-45 -2.3626159e-05 6e-45 0.0010551271
000020 04 00 00 00 04 00 00 00 18 e9 58 ba 21 f9 07 bb
       6e-45 6e-45 -0.000827448 -0.0020747858

exp_avg_sq f4 [12]
000000 02 c0 86 35 8e 49 8e 36 b8 83 a5 38 25 86 2a 14
       1.003966e-06 4.2404927e-06 7.892348e-05 8.609262e-27
000010 f4 01 00 00 16 56 16 36 08 1c f3 26 3b 25 c6 37
       7e-43 2.240185e-06 1.686911e-15 2.3620776e-05
000020 cd 84 47 01 af 6b bd 1a 50 95 9d 36 ae 3c 8e 39
       3.6645807e-38 7.834254e-23 4.696347e-06 0.0002712956

exp_avg f4 [24, 12, 4, 4]
000000 c8 ae 62 8a 04 00 00 00 04 00 00 00 04 00 00 00
       -1.0914377e-32 6e-45 6e-45 6e-45
000010 04 00 00 00 04 00 00 00 04 00 00 00 97 26 10 88
       6e-45 6e-45 6e-45 -4.3378786e-34
000020 00 00 00 00 00 00 00 00 00 00 00 00 04 00 00 00
       0.0 0.0 0.0 6e-45
000030 00 00 00 00 00 00 00 00 00 00 00 00 11 21 5b 0c
       0.0 0.0 0.0 1.6881097e-31
000040 41 bb 38 0e 64 ff 39 0e b9 c7 36 0e 49 7f 36 0e
       2.276991e-30 2.2925977e-30 2.2529395e-30 2.2494518e-30
000050 d6 53 3c 0e 58 8e 3b 0e 7d a9 37 0e ec 25 36 0e
       2.3213155e-30 2.3118066e-30 2.2638097e-30 2.245149e-30
000060 7f 41 a9 0d 01 f3 3d 0e 0e 29 3f 0e c4 31 36 0e
       1.0431197e-30 2.341305e-30 2.3562335e-30 2.2457193e-30
000070 04 00 00 00 ee 25 81 0c 1a 90 aa 0d ec 13 26 0e
       6e-45 1.9898425e-31 1.051175e-30 2.0470672e-30
000080 19 d4 61 0c 19 d4 61 0c 19 d4 61 0c 88 38 61 0c
       1.7397195e-31 1.7397195e-31 1.7397195e-31 1.7350381e-31
000090 4d 0c 6e 0c 19 d4 61 0c 19 d4 61 0c 7a ba 61 0c
       1.8338555e-31 1.7397195e-31 1.7397195e-31 1.7389485e-31
0000a0 04 00 00 00 04 00 00 80 3a 2f 40 0c 19 d4 61 0c
       6e-45 -6e-45 1.4805354e-31 1.7397195e-31
0000b0 7a b7 21 0d 04 00 00 00 04 00 00 80 04 00 00 80
       4.9832807e-31 6e-45 -6e-45 -6e-45
0000c0 00 00 00 00 00 00 00 00 00 00 00 00 00 00 00 00
       0.0 0.0 0.0 0.0
0000d0 00 00 00 00 00 00 00 00 00 00 00 00 00 00 00 00
       0.0 0.0 0.0 0.0
0000e0 00 00 00 00 00 00 00 00 00 00 00 00 00 00 00 00
       0.0 0.0 0.0 0.0
0000f0 00 00 00 00 00 00 00 00 00 00 00 00 00 00 00 00
       0.0 0.0 0.0 0.0
000100 00 00 00 00 00 00 00 00 00 00 00 00 00 00 00 00
       0.0 0.0 0.0 0.0
000110 00 00 00 00 00 00 00 00 00 00 00 00 00 00 00 00
       0.0 0.0 0.0 0.0
000120 00 00 00 00 00 00 00 00 00 00 00 00 00 00 00 00
       0.0 0.0 0.0 0.0
000130 00 00 00 00 00 00 00 00 00 00 00 00 00 00 00 00
       0.0 0.0 0.0 0.0
000140 4c 0a 0d 0e 09 ff 0c 0e f6 83 0c 0e 0e 64 0c 0e
       1.738455e-30 1.7379127e-30 1.731987e-30 1.7304507e-30
000150 3f c4 0e 0e 28 ba 0d 0e 82 6d 0b 0e be 2a 0c 0e
       1.759734e-30 1.7469223e-30 1.7185799e-30 1.7276912e-30
000160 ae f0 73 0e 16 90 4f 0e e0 ee 0f 0e ca 63 0b 0e
       3.0067946e-30 2.5584095e-30 1.7741125e-30 1.718112e-30
000170 be 2f 77 0c 07 20 2a 0e ed 52 73 0e eb 9e 3e 0e
       1.9042555e-31 2.0969538e-30 2.999199e-30 2.3495824e-30
000180 04 00 00 00 04 00 00 00 04 00 00 00 04 00 00 00
       6e-45 6e-45 6e-45 6e-45
000190 04 00 00 00 04 00 00 00 04 00 00 00 04 00 00 00
       6e-45 6e-45 6e-45 6e-45
0001a0 04 00 00 80 04 00 00 00 04 00 00 80 04 00 00 80
       -6e-45 6e-45 -6e-45 -6e-45
0001b0 04 00 00 00 04 00 00 00 04 00 00 00 04 00 00 00
       6e-45 6e-45 6e-45 6e-45
0001c0 04 00 00 00 07 ac dc 8a 04 00 00 00 04 00 00 00
       6e-45 -2.1249939e-32 6e-45 6e-45
0001d0 0a 08 98 8a f7 b6 4a 8b 3e bd ba 8a 04 00 00 00
       -1.4640092e-32 -3.9041432e-32 -1.7982333e-32 6e-45
0001e0 02 69 44 0e 2d 18 bd 0d 64 5a 54 8b 79 70 b2 8a
       2.4209425e-30 1.1653844e-30 -4.0897717e-32 -1.7183084e-32
0001f0 4d 43 56 0e 12 6a 8c 0e 94 4c 50 0e d4 2e a7 0d
       2.640994e-30 3.4614807e-30 2.567485e-30 1.0303443e-30
000200 00 00 00 00 00 00 00 00 00 00 00 00 00 00 00 00
       0.0 0.0 0.0 0.0
000210 00 00 00 00 00 00 00 00 00 00 00 00 00 00 00 00
       0.0 0.0 0.0 0.0
000220 00 00 00 00 00 00 00 00 00 00 00 00 00 00 00 00
       0.0 0.0 0.0 0.0
000230 00 00 00 00 00 00 00 00 00 00 00 00 00 00 00 00
       0.0 0.0 0.0 0.0
000240 00 00 00 00 00 00 00 00 00 00 00 00 00 00 00 00
       0.0 0.0 0.0 0.0
000250 00 00 00 00 00 00 00 00 00 00 00 00 00 00 00 00
       0.0 0.0 0.0 0.0
000260 00 00 00 00 00 00 00 00 00 00 00 00 00 00 00 00
       0.0 0.0 0.0 0.0
000270 00 00 00 00 00 00 00 00 00 00 00 00 00 00 00 00
       0.0 0.0 0.0 0.0
000280 b3 09 43 0d 98 8f 4c 0d 45 20 46 0d 90 f0 45 0d
       6.010069e-31 6.30352e-31 6.1052304e-31 6.099488e-31
000290 05 d5 44 0d 2a 1e 47 0d 60 f5 48 0d 45 c8 46 0d
       6.0653576e-31 6.135792e-31 6.1925118e-31 6.1254526e-31
0002a0 58 39 a4 8a 20 15 f0 8a 75 72 2c 0d a3 eb 48 0d
       -1.5814196e-32 -2.3119106e-32 5.3139365e-31 6.1913396e-31
0002b0 be 8d 07 8b 0d cf d2 8a 69 ed 0a 8b 02 3b 0b 8b
       -2.610669e-32 -2.0300148e-32 -2.675644e-32 -2.681482e-32
0002c0 e7 9c c3 0d 0c 77 c6 0d d1 01 c4 0d 6c 17 c4 0d
       1.2055576e-30 1.2231352e-30 1.207987e-30 1.2085071e-30
0002d0 c4 6c ca 0d 23 8f c8 0d f9 e6 c5 0d 69 f7 c3 0d
       1.2475396e-30 1.2360411e-30 1.2196667e-30 1.2077365e-30
0002e0 c7 c5 76 0d 03 13 be 0d ab 90 d5 0d c6 fd c5 0d
       7.604267e-31 1.1714231e-30 1.3161966e-30 1.2202156e-30
0002f0 cc 65 54 0d 2a f5 53 0d bf 3e 7e 0d d4 7f b8 0d
       6.5450077e-31 6.53145e-31 7.834532e-31 1.1370649e-30
000300 1c 66 74 38 9c d5 78 38 99 1b 66 38 b9 10 63 38
       5.826923e-05 5.9326747e-05 5.4861976e-05 5.413659e-05
000310 9b fe 73 38 ab ae 77 38 f2 90 68 38 ff f1 67 38
       5.8172835e-05 5.905206e-05 5.54481e-05 5.530007e-05
000320 da 56 69 38 13 fe 73 38 c6 ed 60 38 40 e1 62 38
       5.5632416e-05 5.817234e-05 5.3627205e-05 5.409238e-05
000330 71 3d 61 38 01 87 6f 38 38 f7 5a 38 53 7c 59 38
       5.3701402e-05 5.7107773e-05 5.220549e-05 5.1852618e-05
000340 9b ff c4 b6 b0 2f 8e 35 21 e7 89 b6 19 16 1f 37
       -5.8710116e-06 1.0593703e-06 -4.109825e-06 9.4822835e-06
000350 82 03 72 b6 f9 9c 47 35 9b 56 59 b6 5f 88 11 37
       -3.6062852e-06 7.43617e-07 -3.238593e-06 8.674425e-06
000360 ed ca 0f b7 5a 42 98 b6 27 12 a0 b6 cc 6a 35 37
       -8.5707115e-06 -4.5376773e-06 -4.770485e-06 1.0813306e-05
000370 e1 84 b4 b6 5b 30 5b b6 07 f0 de b6 ff e2 44 37
       -5.379887e-06 -3.266169e-06 -6.6440584e-06 1.1735362e-05
000380 5f 9f df 38 ac df d9 38 10 e7 de 38 9f 98 cc 38
       0.00010663154 0.000103890285 0.00010628824 9.755906e-05
000390 b6 2e d9 38 a6 f7 d3 38 62 fb d5 38 10 67 cc 38
       0.00010356067 0.00010107392 0.00010203455 9.746675e-05
0003a0 b0 bd cc 38 63 92 c8 38 88 8d cb 38 9d 6d c3 38
       9.76281e-05 9.56401e-05 9.7061566e-05 9.318742e-05
0003b0 0f 83 cb 38 9a 10 c6 38 f3 0d c9 38 99 c4 c1 38
       9.704206e-05 9.444468e-05 9.587025e-05 9.239576e-05
0003c0 04 00 00 00 04 00 00 00 04 00 00 00 04 00 00 00
       6e-45 6e-45 6e-45 6e-45
0003d0 04 00 00 00 04 00 00 00 04 00 00 80 04 00 00 00
       6e-45 6e-45 -6e-45 6e-45
0003e0 04 00 00 00 04 00 00 80 04 00 00 80 04 00 00 80
       6e-45 -6e-45 -6e-45 -6e-45
0003f0 04 00 00 80 04 00 00 00 04 00 00 80 04 00 00 00
       -6e-45 6e-45 -6e-45 6e-45

exp_avg_sq f4 [24, 12, 4, 4]
000000 26 3a 75 1f f4 01 00 00 f4 01 00 00 f4 01 00 00
       5.1928867e-20 7e-43 7e-43 7e-43
000010 f4 01 00 00 f4 01 00 00 f4 01 00 00 a7 f1 ca 1a
       7e-43 7e-43 7e-43 8.393565e-23
000020 00 00 00 00 00 00 00 00 00 00 00 00 f4 01 00 00
       0.0 0.0 0.0 7e-43
000030 00 00 00 00 00 00 00 00 00 00 00 00 e4 32 8c 1e
       0.0 0.0 0.0 1.4844124e-20
000040 4c 5c 74 22 1a 41 59 22 dd 75 9e 22 bb 41 a5 22
       3.3117028e-18 2.9443448e-18 4.295078e-18 4.4792934e-18
000050 41 c8 53 22 a7 6a 4d 22 14 b7 8b 22 b5 2f ae 22
       2.8701846e-18 2.7839142e-18 3.7869867e-18 4.7213306e-18
000060 61 49 27 21 27 be 52 22 56 65 55 22 79 ed ac 22
       5.6678917e-19 2.8560973e-18 2.892053e-18 4.6872127e-18
000070 f4 01 00 00 d8 cb c2 1e 88 16 2d 21 fa 11 6b 22
       7e-43 2.0624857e-20 5.86445e-19 3.1857956e-18
000080 05 e7 94 1e 05 e7 94 1e 05 e7 94 1e 9e cd 95 1e
       1.5765657e-20 1.5765657e-20 1.5765657e-20 1.586103e-20
000090 be 73 a5 1e 05 e7 94 1e 05 e7 94 1e 83 ec 94 1e
       1.7517924e-20 1.5765657e-20 1.5765657e-20 1.5767928e-20
0000a0 f4 01 00 00 f4 01 00 00 35 ae 57 1e 05 e7 94 1e
       7e-43 7e-43 1.141803e-20 1.5765657e-20
0000b0 3c b7 18 20 f4 01 00 00 f4 01 00 00 f4 01 00 00
       1.2935528e-19 7e-43 7e-43 7e-43
0000c0 00 00 00 00 00 00 00 00 00 00 00 00 00 00 00 00
       0.0 0.0 0.0 0.0
0000d0 00 00 00 00 00 00 00 00 00 00 00 00 00 00 00 00
       0.0 0.0 0.0 0.0
0000e0 00 00 00 00 00 00 00 00 00 00 00 00 00 00 00 00
       0.0 0.0 0.0 0.0
0000f0 00 00 00 00 00 00 00 00 00 00 00 00 00 00 00 00
       0.0 0.0 0.0 0.0
000100 00 00 00 00 00 00 00 00 00 00 00 00 00 00 00 00
       0.0 0.0 0.0 0.0
000110 00 00 00 00 00 00 00 00 00 00 00 00 00 00 00 00
       0.0 0.0 0.0 0.0
000120 00 00 00 00 00 00 00 00 00 00 00 00 00 00 00 00
       0.0 0.0 0.0 0.0
000130 00 00 00 00 00 00 00 00 00 00 00 00 00 00 00 00
       0.0 0.0 0.0 0.0
000140 4c 7e 2a 22 2b e5 2b 22 50 21 3c 22 ca af 40 22
       2.3106157e-18 2.3296142e-18 2.5496387e-18 2.6113914e-18
000150 66 c0 30 22 5f 9a 17 22 b1 4a 69 22 58 4e 49 22
       2.3954303e-18 2.054604e-18 3.161693e-18 2.7282054e-18
000160 8c a0 bc 22 df bb 8d 22 ec fe 38 22 3b 22 6b 22
       5.1127488e-18 3.8417043e-18 2.5071604e-18 3.186656e-18
000170 63 01 39 1f 8d d4 43 22 4f 2d b4 22 78 3a 7f 22
       3.917642e-20 2.6539951e-18 4.883707e-18 3.4589897e-18
000180 f4 01 00 00 f4 01 00 00 f4 01 00 00 f4 01 00 00
       7e-43 7e-43 7e-43 7e-43
000190 f4 01 00 00 f4 01 00 00 f4 01 00 00 f4 01 00 00
       7e-43 7e-43 7e-43 7e-43
0001a0 f4 01 00 00 f4 01 00 00 f4 01 00 00 f4 01 00 00
       7e-43 7e-43 7e-43 7e-43
0001b0 f4 01 00 00 f4 01 00 00 f4 01 00 00 f4 01 00 00
       7e-43 7e-43 7e-43 7e-43
0001c0 f4 01 00 00 8a 6c 69 20 f4 01 00 00 f4 01 00 00
       7e-43 1.977178e-19 7e-43 7e-43
0001d0 a5 a9 dd 1f da ed 44 21 86 05 27 20 f4 01 00 00
       9.3877794e-20 6.6722177e-19 1.4147278e-19 7e-43
0001e0 fd b7 87 22 b0 a5 fb 21 5f 14 58 21 49 c2 18 20
       3.678663e-18 1.7052279e-18 7.321061e-19 1.2939184e-19
0001f0 55 d3 8b 22 d3 03 09 23 13 27 92 22 cb dc 23 21
       3.789978e-18 7.427595e-18 3.961475e-18 5.5518765e-19
000200 00 00 00 00 00 00 00 00 00 00 00 00 00 00 00 00
       0.0 0.0 0.0 0.0
000210 00 00 00 00 00 00 00 00 00 00 00 00 00 00 00 00
       0.0 0.0 0.0 0.0
000220 00 00 00 00 00 00 00 00 00 00 00 00 00 00 00 00
       0.0 0.0 0.0 0.0
000230 00 00 00 00 00 00 00 00 00 00 00 00 00 00 00 00
       0.0 0.0 0.0 0.0
000240 00 00 00 00 00 00 00 00 00 00 00 00 00 00 00 00
       0.0 0.0 0.0 0.0
000250 00 00 00 00 00 00 00 00 00 00 00 00 00 00 00 00
       0.0 0.0 0.0 0.0
000260 00 00 00 00 00 00 00 00 00 00 00 00 00 00 00 00
       0.0 0.0 0.0 0.0
000270 00 00 00 00 00 00 00 00 00 00 00 00 00 00 00 00
       0.0 0.0 0.0 0.0
000280 23 bb 2b 21 ba 5a 74 20 1a 35 df 20 d6 1c e5 20
       5.8184727e-19 2.0697623e-19 3.781281e-19 3.881319e-19
000290 c4 9c 9c 20 f7 45 c1 20 7c 74 99 20 af a4 cb 20
       2.6531167e-19 3.274177e-19 2.599629e-19 3.4498516e-19
0002a0 72 91 fd 1f 55 df 87 20 32 97 c2 20 71 36 9a 20
       1.0739029e-19 2.3017678e-19 3.296493e-19 2.612464e-19
0002b0 a8 fe ad 20 61 59 51 20 66 ea b6 20 7d c1 b8 20
       2.9475857e-19 1.7732562e-19 3.098711e-19 3.1298852e-19
0002c0 03 a2 dd 21 09 3b 97 21 e8 8f d1 21 2a 0c cf 21
       1.5018427e-18 1.0247784e-18 1.4200483e-18 1.4030085e-18
0002d0 4a 8a ae 21 6e d2 79 21 5b 03 a2 21 e4 c5 d2 21
       1.1827303e-18 8.4642983e-19 1.0978435e-18 1.4282535e-18
0002e0 45 52 d5 20 f5 37 5f 21 9b 31 8e 21 39 3e a0 21
       3.6138045e-19 7.5629397e-19 9.635425e-19 1.0858492e-18
0002f0 de 35 e9 20 e7 04 88 20 16 04 df 20 63 ed 9f 21
       3.9507382e-19 2.304254e-19 3.7780373e-19 1.0837095e-18
000300 cd 1b 3f 32 b8 34 43 32 2e 35 40 32 6f 8d 39 32
       1.1123984e-08 1.1362481e-08 1.1187963e-08 1.08005755e-08
000310 f7 59 40 32 11 c1 43 32 4b 8c 41 32 b8 01 3a 32
       1.11963265e-08 1.1394392e-08 1.12659775e-08 1.0827016e-08
000320 26 0d 40 32 33 5b 43 32 b6 e9 41 32 49 a5 39 32
       1.11788605e-08 1.137123e-08 1.1287218e-08 1.0805999e-08
000330 40 13 41 32 60 b8 44 32 8a 7a 43 32 36 2e 3b 32
       1.12384555e-08 1.1450624e-08 1.1378356e-08 1.089534e-08
000340 52 3a 2a 35 e1 11 31 35 4f 15 31 35 c4 81 2a 35
       6.34148e-07 6.5963656e-07 6.5968646e-07 6.351877e-07
000350 a6 e9 29 35 e6 1a 31 35 85 20 31 35 f6 88 2a 35
       6.329741e-07 6.597678e-07 6.598496e-07 6.352924e-07
000360 dc ca 29 35 96 f3 30 35 83 44 31 35 7e 84 2a 35
       6.3252605e-07 6.5919573e-07 6.6037336e-07 6.3522737e-07
000370 6a 17 29 35 34 bf 30 35 06 6c 31 35 63 8b 2a 35
       6.299148e-07 6.5843346e-07 6.6094833e-07 6.353277e-07
000380 bf fc 5b 33 a5 fe 64 33 e4 ce 65 33 26 11 5e 33
       5.1219782e-08 5.3316985e-08 5.3506383e-08 5.1704e-08
000390 a5 3f 5d 33 03 2c 66 33 f5 09 66 33 48 30 5e 33
       5.1513457e-08 5.3591076e-08 5.3560104e-08 5.1732314e-08
0003a0 59 6b 5d 33 64 ca 65 33 af fc 65 33 4d 66 5d 33
       5.1553204e-08 5.350229e-08 5.3548032e-08 5.1548614e-08
0003b0 de c2 5c 33 9a 94 65 33 95 17 65 33 09 72 5c 33
       5.1399972e-08 5.345337e-08 5.3339665e-08 5.1326456e-08
0003c0 f4 01 00 00 e7 8c 3f 0b f4 01 00 00 e2 83 ac 0b
       7e-43 3.6891265e-32 7e-43 6.6450425e-32
0003d0 f4 01 00 00 f4 01 00 00 f4 01 00 00 f4 01 00 00
       7e-43 7e-43 7e-43 7e-43
0003e0 f4 01 00 00 f4 01 00 00 f4 01 00 00 f4 01 00 00
       7e-43 7e-43 7e-43 7e-43
0003f0 f4 01 00 00 f4 01 00 00 f4 01 00 00 f4 01 00 00
       7e-43 7e-43 7e-43 7e-43

exp_avg f4 [24]
000000 1f 71 6e 0d 45 b1 59 38 2d 1a f9 38 04 00 00 00
       7.3475577e-31 5.1901927e-05 0.00011878121 6e-45
000010 04 00 00 00 7f 99 c6 b7 04 00 00 00 04 00 00 00
       6e-45 -2.3674917e-05 6e-45 6e-45
000020 2d 7c ef b8 04 00 00 00 75 64 f4 af 04 00 00 00
       -0.000114195376 6e-45 -4.445472e-10 6e-45
000030 fb fc 87 33 04 00 00 00 04 00 00 00 b8 e5 b7 37
       6.332444e-08 6e-45 6e-45 2.1922271e-05
000040 04 00 00 00 41 67 a1 b4 21 03 dd b3 e1 67 a8 b8
       6e-45 -3.0063714e-07 -1.02916836e-07 -8.030213e-05
000050 04 00 00 00 04 00 00 00 a9 68 84 36 04 00 00 00
       6e-45 6e-45 3.9460906e-06 6e-45

exp_avg_sq f4 [24]
000000 dc d6 1a 21 90 ea 9b 34 d4 94 c3 33 f4 01 00 00
       5.2461594e-19 2.9041666e-07 9.107467e-08 7e-43
000010 f4 01 00 00 f2 3c ad 30 f4 01 00 00 f4 01 00 00
       7e-43 1.2604728e-09 7e-43 7e-43
000020 37 67 dc 34 f4 01 00 00 2f b0 0b 2e f5 30 e4 18
       4.1053292e-07 7e-43 3.1761423e-11 5.8986053e-24
000030 5c d8 08 2b f4 01 00 00 f4 01 00 00 9a 7b 5f 35
       4.8617165e-13 7e-43 7e-43 8.325384e-07
000040 f4 01 00 00 02 b7 3c 2c e1 06 f6 2d 14 0b fe 33
       7e-43 2.6817997e-12 2.7970017e-11 1.1829812e-07
000050 91 0e 00 00 f4 01 00 00 05 a3 df 2f f4 01 00 00
       5.225e-42 7e-43 4.0679296e-10 7e-43

exp_avg f4 [48, 24, 3, 3]
000000 04 00 00 00 85 bd ec 07 04 00 00 00 04 00 00 80
       6e-45 3.5620723e-34 6e-45 -6e-45
000010 bf d5 96 89 04 00 00 00 04 00 00 00 37 b6 ee 06
       -3.6312192e-33 6e-45 6e-45 8.979339e-35
000020 04 00 00 00 ef a2 a6 b7 39 94 97 b7 27 97 a3 b7
       6e-45 -1.9864614e-05 -1.8069624e-05 -1.95015e-05
000030 5d b2 a9 b7 08 b0 a8 b7 e3 17 b9 b7 02 e8 b4 b7
       -2.0229427e-05 -2.0109132e-05 -2.2064842e-05 -2.156571e-05
000040 e9 31 a3 b7 e7 10 b7 b7 80 1c 23 b7 59 d3 2a b7
       -1.9454355e-05 -2.182317e-05 -9.722193e-06 -1.0181998e-05
000050 3a e3 59 b7 7e a6 38 b7 2a 76 35 b7 f3 5e 5a b7
       -1.2987113e-05 -1.1006019e-05 -1.0815953e-05 -1.301592e-05
000060 62 34 36 b7 37 8f 24 b7 4b 4a 3f b7 04 00 00 00
       -1.0860242e-05 -9.808507e-06 -1.1401785e-05 6e-45
000070 04 00 00 00 04 00 00 00 04 00 00 80 04 00 00 80
       6e-45 6e-45 -6e-45 -6e-45
000080 04 00 00 80 04 00 00 00 04 00 00 00 04 00 00 00
       -6e-45 6e-45 6e-45 6e-45
000090 04 00 00 80 04 00 00 80 04 00 00 80 04 00 00 80
       -6e-45 -6e-45 -6e-45 -6e-45
0000a0 04 00 00 80 04 00 00 80 04 00 00 80 04 00 00 80
       -6e-45 -6e-45 -6e-45 -6e-45
0000b0 04 00 00 80 91 1a c4 36 e3 9f ac 36 34 ae 08 37
       -6e-45 5.844348e-06 5.1446127e-06 8.1467915e-06
0000c0 fe 26 ce 36 54 5c 9c 36 6d 76 20 37 5a 05 f0 36
       6.1438177e-06 4.6599107e-06 9.564316e-06 7.1531804e-06
0000d0 c2 fb d3 36 c4 48 41 37 04 00 00 80 04 00 00 00
       6.3175985e-06 1.15206385e-05 -6e-45 6e-45
0000e0 04 00 00 80 04 00 00 80 04 00 00 00 04 00 00 80
       -6e-45 -6e-45 6e-45 -6e-45
0000f0 04 00 00 80 04 00 00 00 04 00 00 80 04 00 00 00
       -6e-45 6e-45 -6e-45 6e-45
000100 04 00 00 00 04 00 00 80 04 00 00 00 04 00 00 80
       6e-45 -6e-45 6e-45 -6e-45
000110 04 00 00 80 04 00 00 80 04 00 00 00 04 00 00 00
       -6e-45 -6e-45 6e-45 6e-45
000120 80 6e ad 37 36 13 bf 37 93 17 c4 37 7f 02 ba 37
       2.0674663e-05 2.277792e-05 2.3375998e-05 2.217409e-05
000130 fb fc b6 37 69 b0 b9 37 39 90 cd 37 6c f5 c5 37
       2.1813894e-05 2.2135866e-05 2.4505063e-05 2.3598514e-05
000140 3a 5e c2 37 00 00 00 00 00 00 00 00 00 00 00 00
       2.317048e-05 0.0 0.0 0.0
000150 00 00 00 00 04 00 00 00 00 00 00 00 00 00 00 00
       0.0 6e-45 0.0 0.0
000160 00 00 00 00 00 00 00 00 52 da ef b6 fb 14 ef b4
       0.0 0.0 -7.148171e-06 -4.4532484e-07
000170 24 12 66 35 4f 58 d0 b6 e1 fe 67 b5 dc d7 64 35
       8.5708075e-07 -6.2091635e-06 -8.6425104e-07 8.5250736e-07
000180 cd b8 f5 b6 02 65 41 b6 0d 0f 47 b5 04 00 00 00
       -7.3230826e-06 -2.8818035e-06 -7.415518e-07 6e-45
000190 04 00 00 00 04 00 00 00 04 00 00 00 04 00 00 00
       6e-45 6e-45 6e-45 6e-45
0001a0 04 00 00 00 04 00 00 00 04 00 00 00 04 00 00 00
       6e-45 6e-45 6e-45 6e-45
0001b0 3e 54 d1 35 8d 76 4d 35 13 68 8a 35 05 87 b6 36
       1.5596231e-06 7.6540965e-07 1.0312091e-06 5.439741e-06
0001c0 bf 2e 3a 36 56 a9 89 36 05 8f 63 36 59 45 94 35
       2.774337e-06 4.1026315e-06 3.3908884e-06 1.1047042e-06
0001d0 34 39 50 35 04 00 00 00 04 00 00 80 04 00 00 00
       7.756928e-07 6e-45 -6e-45 6e-45
0001e0 04 00 00 00 04 00 00 80 04 00 00 00 04 00 00 00
       6e-45 -6e-45 6e-45 6e-45
0001f0 04 00 00 80 04 00 00 00 04 00 00 80 04 00 00 80
       -6e-45 6e-45 -6e-45 -6e-45
000200 04 00 00 00 04 00 00 80 04 00 00 80 04 00 00 00
       6e-45 -6e-45 -6e-45 6e-45
000210 04 00 00 00 04 00 00 80 04 00 00 00 e0 23 ae b6
       6e-45 -6e-45 6e-45 -5.1897805e-06
000220 e5 26 aa b6 5a c3 80 b6 f8 da d1 b6 16 be ad b6
       -5.0709227e-06 -3.837439e-06 -6.2541767e-06 -5.1779307e-06
000230 ef 67 96 b6 f9 3a e4 b6 93 01 af b6 51 92 83 b6
       -4.482448e-06 -6.801795e-06 -5.2155897e-06 -3.9211377e-06
000240 04 00 00 80 04 00 00 80 04 00 00 80 04 00 00 80
       -6e-45 -6e-45 -6e-45 -6e-45
000250 04 00 00 80 04 00 00 80 04 00 00 80 04 00 00 80
       -6e-45 -6e-45 -6e-45 -6e-45
000260 04 00 00 80 a5 53 82 b5 e2 ef 0a b6 78 00 73 b6
       -6e-45 -9.710099e-07 -2.0703233e-06 -3.6210095e-06
000270 48 da cb b5 54 f7 f2 34 a5 6c 9f b5 74 b1 87 b5
       -1.5188207e-06 4.5255968e-07 -1.1878043e-06 -1.010993e-06
000280 c6 a2 09 b6 a7 46 9c 35 2b 6f 36 b6 93 62 da b5
       -2.0509337e-06 1.1643468e-06 -2.7184822e-06 -1.6270955e-06
000290 7c ed 80 36 a2 6c 4e b6 55 a0 13 b6 0d c7 92 35
       3.842344e-06 -3.0759625e-06 -2.1998032e-06 1.0935779e-06
0002a0 56 33 ee b5 b0 bc 84 b5 10 3a c7 35 bd f1 21 37
       -1.7747323e-06 -9.889682e-07 1.4843554e-06 9.652632e-06
0002b0 1d 7f 53 37 ad bc 30 37 75 ec 37 37 de 26 4c 37
       1.2606176e-05 1.0534347e-05 1.0962704e-05 1.2168397e-05
0002c0 cc 16 3d 37 a0 09 4d 37 37 8a 53 37 cf fe 37 37
       1.1270586e-05 1.2221193e-05 1.2608761e-05 1.0966977e-05
0002d0 04 00 00 80 04 00 00 00 04 00 00 80 04 00 00 00
       -6e-45 6e-45 -6e-45 6e-45
0002e0 04 00 00 80 04 00 00 00 04 00 00 80 04 00 00 80
       -6e-45 6e-45 -6e-45 -6e-45
0002f0 04 00 00 80 00 00 00 00 00 00 00 00 00 00 00 00
       -6e-45 0.0 0.0 0.0
000300 04 00 00 00 00 00 00 00 04 00 00 80 00 00 00 00
       6e-45 0.0 -6e-45 0.0
000310 00 00 00 00 00 00 00 00 8d 15 00 b7 f7 d1 6a b7
       0.0 0.0 -7.634412e-06 -1.3996373e-05
000320 72 e8 5b b7 58 da 03 b7 44 b0 82 b7 e2 5a 7e b7
       -1.3107538e-05 -7.859046e-06 -1.5579288e-05 -1.516074e-05
000330 7e e0 fc b6 6e 61 68 b7 5f 05 61 b7 04 00 00 00
       -7.5363196e-06 -1.3850962e-05 -1.3412296e-05 6e-45
000340 04 00 00 80 04 00 00 00 04 00 00 80 04 00 00 80
       -6e-45 6e-45 -6e-45 -6e-45
000350 04 00 00 80 04 00 00 80 04 00 00 80 04 00 00 80
       -6e-45 -6e-45 -6e-45 -6e-45
000360 04 00 00 00 27 5a 1c 07 04 00 00 00 04 00 00 80
       6e-45 1.1762629e-34 6e-45 -6e-45
000370 ad a9 a6 06 04 00 00 80 04 00 00 80 bd 3a bc 06
       6.2691576e-35 -6e-45 -6e-45 7.080405e-35
000380 04 00 00 80 4f 44 41 b6 7c 4a 8c b6 8f bc 84 b6
       -6e-45 -2.8799002e-06 -4.1809963e-06 -3.9558577e-06
000390 4f f4 bd b6 c2 e3 54 b6 0d 6e f9 b5 a5 98 89 b6
       -5.66108e-06 -3.1723034e-06 -1.8583975e-06 -4.1006883e-06
0003a0 2c f4 86 b6 5d c4 77 b6 3a 53 f8 37 a2 ce f9 37
       -4.0219365e-06 -3.6920167e-06 2.960266e-05 2.9779334e-05
0003b0 c0 ce c6 37 19 89 f0 37 a5 e8 06 38 13 94 ed 37
       2.3699715e-05 2.867407e-05 3.2164757e-05 2.8321554e-05
0003c0 5f bf f4 37 fb 65 00 38 16 5a f0 37 04 00 00 00
       2.917618e-05 3.0612555e-05 2.8652179e-05 6e-45
0003d0 04 00 00 00 04 00 00 00 04 00 00 80 04 00 00 80
       6e-45 6e-45 -6e-45 -6e-45
0003e0 04 00 00 80 04 00 00 00 04 00 00 00 04 00 00 00
       -6e-45 6e-45 6e-45 6e-45
0003f0 04 00 00 80 04 00 00 80 04 00 00 80 04 00 00 80
       -6e-45 -6e-45 -6e-45 -6e-45
