vae/relu-mse.pth (torch_old, 519379 bytes, 70 tensors)

exp_avg f4 [6, 3, 3, 3]
0	0xb855b54c	-5.0952003e-05
1	0xb849c906	-4.8109352e-05
2	0xb83da1b8	-4.5211724e-05
3	0xb849bb9b	-4.8096856e-05
4	0xb83bf597	-4.4812998e-05
5	0xb82d98bb	-4.1388656e-05
6	0xb8453f11	-4.7027195e-05
7	0xb8393da7	-4.4164855e-05
8	0xb825b26d	-3.9505238e-05
9	0xb8476499	-4.7538986e-05
10	0xb85c6b41	-5.2551975e-05
11	0xb8635b86	-5.4206255e-05
12	0xb8479d66	-4.7591886e-05
13	0xb85d7fe0	-5.28096e-05
14	0xb8647421	-5.446759e-05
15	0xb83e3588	-4.5349385e-05
16	0xb8583ef9	-5.155706e-05
17	0xb85f8b66	-5.3297168e-05
18	0xb8414169	-4.6075704e-05
19	0xb8612bc1	-5.368493e-05
20	0xb86e2c2e	-5.6784767e-05
21	0xb848cf24	-4.787663e-05
22	0xb865882b	-5.472467e-05
23	0xb8709c51	-5.736604e-05
24	0xb84054d9	-4.5855388e-05
25	0xb861d974	-5.38467e-05
26	0xb86da324	-5.665714e-05
27	0x371ba99c	9.27821e-06
28	0x36f5ee88	7.3293377e-06
29	0x36bfa475	5.711389e-06
30	0x369d256d	4.6833215e-06
31	0x361c8069	2.3320556e-06
32	0xb5a057a7	-1.1946439e-06
33	0xb528e1da	-6.2913534e-07
34	0xb600d177	-1.919541e-06
35	0xb6dcc6ab	-6.579639e-06
36	0x35497a29	7.50561e-07
37	0x36b74065	5.4613215e-06
38	0x3752fddc	1.2576082e-05
39	0xb6924824	-4.3595373e-06
40	0xb558ec4a	-8.0810116e-07
41	0x36966c58	4.4829612e-06
42	0xb70eff8c	-8.523359e-06
43	0xb6892724	-4.0874747e-06
44	0xb2a54947	-1.924185e-08
45	0xb626d74e	-2.4861251e-06
46	0x3676a538	3.6753027e-06
47	0x375959c5	1.2955109e-05
48	0xb70e201a	-8.471334e-06
49	0xb672bb9b	-3.617001e-06
50	0x367240d2	3.609854e-06
51	0xb75c74a8	-1.3140183e-05
52	0xb6f5ac04	-7.3215942e-06
53	0xb5b743f6	-1.3654342e-06
54	0x38479f6e	4.7593778e-05
55	0x3848a695	4.7838857e-05
56	0x385740c2	5.1320305e-05
57	0x384d6063	4.8965576e-05
58	0x3843e105	4.670119e-05
59	0x3855607c	5.0873015e-05
60	0x3851668f	4.9924998e-05
61	0x384542bb	4.7030608e-05
62	0x38549f8a	5.069332e-05
63	0x3795894e	1.7826122e-05
64	0x378b754b	1.662471e-05
65	0x37727fe2	1.4454099e-05
66	0x3795d7a3	1.7862598e-05
67	0x3770be74	1.4349458e-05
68	0x375db2a2	1.3214218e-05
69	0x378b4a98	1.6604827e-05
70	0x375ca6d0	1.3151861e-05
71	0x375e6b48	1.32572095e-05
72	0x37c273a5	2.3180453e-05
73	0x37bbbf13	2.2381113e-05
74	0x379e4fd1	1.8872235e-05
75	0x37c62015	2.3618379e-05
76	0x37a86ca4	2.007775e-05
77	0x3792389d	1.7430919e-05
78	0x37b5d8bd	2.1677808e-05
79	0x379e2d76	1.8856237e-05
80	0x3790ff76	1.7285096e-05
81	0x37681a57	1.383441e-05
82	0x3753dec7	1.2628449e-05
83	0x37257962	9.863028e-06
84	0x3781bd3d	1.546612e-05
85	0x3776416e	1.4677977e-05
86	0x375cf67b	1.317041e-05
87	0x378518eb	1.5866439e-05
88	0x3787bcd4	1.6181184e-05
89	0x3760b99b	1.3394655e-05
90	0x3899f8ce	7.341952e-05
91	0x389e23bf	7.540685e-05
92	0x389baf85	7.423669e-05
93	0x389917ab	7.300017e-05
94	0x389b94b8	7.418677e-05
95	0x389b1a80	7.395912e-05
96	0x38905f9c	6.884264e-05
97	0x389721d1	7.20654e-05
98	0x38962f7f	7.161404e-05
99	0x38c8e03d	9.578511e-05
100	0x38cca04d	9.7573364e-05
101	0x38c8c85f	9.574065e-05
102	0x38c7af2a	9.521686e-05
103	0x38c925ff	9.591504e-05
104	0x38c667b9	9.4606956e-05
105	0x38bcd952	9.005018e-05
106	0x38c2e042	9.292412e-05
107	0x38bf6121	9.1256814e-05
108	0xb5123b04	-5.447512e-07
109	0xb63bdcbb	-2.7993653e-06
110	0xb6762ed1	-3.6684107e-06
111	0x3482379b	2.4254845e-07
112	0xb528d5df	-6.28961e-07
113	0xb6002f68	-1.910108e-06
114	0xb266d273	-1.3435613e-08
115	0xb5bb2981	-1.3944665e-06
116	0xb6400ebf	-2.8618813e-06
117	0xb5e550ee	-1.7085383e-06
118	0xb62c0c6e	-2.5637232e-06
119	0xb5e7092c	-1.721351e-06
120	0xb5d155a6	-1.559664e-06
121	0xb60a8e22	-2.0646335e-06
122	0xb5a965c9	-1.2621105e-06
123	0xb60c8fd8	-2.0945354e-06
124	0xb63b2452	-2.7886313e-06
125	0xb620d8b4	-2.3967996e-06
126	0xb6082d2a	-2.0291868e-06
127	0xb6594d79	-3.2380615e-06
128	0xb60e7b05	-2.1231256e-06
129	0xb5f490d6	-1.822157e-06
130	0xb6431cd5	-2.9074047e-06
131	0xb5f21aed	-1.8038241e-06
132	0xb620b818	-2.3949015e-06
133	0xb66ccbe5	-3.5285423e-06
134	0xb63734ad	-2.7299786e-06
135	0x382cfdb0	4.124426e-05
136	0x380f62d2	3.418589e-05
137	0x37c6d058	2.3700457e-05
138	0x382f2f65	4.176739e-05
139	0x3818f9a3	3.6472116e-05
140	0x37cbbb20	2.4286623e-05
141	0x382df954	4.147862e-05
142	0x381187cf	3.4697176e-05
143	0x37c5a110	2.355923e-05
144	0xb6b98b2d	-5.529632e-06
145	0xb68fcd0d	-4.285603e-06
146	0x366ed059	3.5586038e-06
147	0xb6ea0527	-6.9743433e-06
148	0xb6692141	-3.4739062e-06
149	0x3655e66c	3.1873597e-06
150	0xb6b96877	-5.525591e-06
151	0xb6967dda	-4.4849994e-06
152	0x36903b16	4.298413e-06
153	0xb7dd809c	-2.6405141e-05
154	0xb7cae34e	-2.4186123e-05
155	0xb74b2a10	-1.2109536e-05
156	0xb7f216e4	-2.8859307e-05
157	0xb7c5db2f	-2.3586295e-05
158	0xb7588f23	-1.290793e-05
159	0xb7e11690	-2.6832597e-05
160	0xb7cbea56	-2.4308607e-05
161	0xb74891c8	-1.1954871e-05

exp_avg_sq f4 [6, 3, 3, 3]
0	0x35b27e48	1.3298786e-06
1	0x35b1fff3	1.3262019e-06
2	0x35b1e6ed	1.3254736e-06
3	0x35b24924	1.328332e-06
4	0x35b1aadf	1.3237258e-06
5	0x35b19140	1.3229801e-06
6	0x35b232c9	1.3276814e-06
7	0x35b193ec	1.3230579e-06
8	0x35b16141	1.3215832e-06
9	0x3500463c	4.778592e-07
10	0x350044e8	4.778399e-07
11	0x350132c9	4.8130147e-07
12	0x34ffa16a	4.7614895e-07
13	0x34ff660c	4.75717e-07
14	0x3500d073	4.798705e-07
15	0x34ff4470	4.7547246e-07
16	0x34ff243f	4.7523824e-07
17	0x3500c204	4.7966046e-07
18	0x350e5580	5.302354e-07
19	0x350ebc88	5.317347e-07
20	0x350fdd38	5.3593567e-07
21	0x350df209	5.28788e-07
22	0x350e2d2f	5.2964873e-07
23	0x350f914c	5.3483086e-07
24	0x350dce2f	5.282663e-07
25	0x350e2124	5.294735e-07
26	0x350f9485	5.3487776e-07
27	0x348c043a	2.6080107e-07
28	0x34898972	2.5618243e-07
29	0x348a80f2	2.5798323e-07
30	0x348b9a54	2.6003056e-07
31	0x3488e559	2.5498846e-07
32	0x348a63f2	2.5777223e-07
33	0x348b12a8	2.5904342e-07
34	0x3488818d	2.5426235e-07
35	0x348a1318	2.5718396e-07
36	0x34de5ddd	4.1419017e-07
37	0x34e13933	4.1951134e-07
38	0x34e253c0	4.2156717e-07
39	0x34de082d	4.135667e-07
40	0x34e0804e	4.1816605e-07
41	0x34e21695	4.211221e-07
42	0x34dcbded	4.1116382e-07
43	0x34df4315	4.1585795e-07
44	0x34e0a810	4.1845533e-07
45	0x353dcfa8	7.0710166e-07
46	0x35402e3a	7.159284e-07
47	0x354042b2	7.162263e-07
48	0x353da4d0	7.064782e-07
49	0x353fbee0	7.1430804e-07
50	0x354010ce	7.155003e-07
51	0x353cad8e	7.0288013e-07
52	0x353eea9f	7.1121934e-07
53	0x353f06e3	7.1163066e-07
54	0x34702894	2.2366504e-07
55	0x346d7996	2.2116578e-07
56	0x346ad686	2.1870991e-07
57	0x34705112	2.2381235e-07
58	0x346d9449	2.2126291e-07
59	0x346ac47c	2.1864429e-07
60	0x347056ae	2.2383276e-07
61	0x346dfc6a	2.2164173e-07
62	0x346b67a2	2.1923782e-07
63	0x32e1ef9e	2.6302413e-08
64	0x32d5c39d	2.4885418e-08
65	0x32ca7ca2	2.3572571e-08
66	0x32e28cc9	2.6373884e-08
67	0x32d68f94	2.497817e-08
68	0x32ca674c	2.3562869e-08
69	0x32e4fe0a	2.6658217e-08
70	0x32d9531b	2.5299917e-08
71	0x32cc8ec0	2.381364e-08
72	0x3328269a	3.9150656e-08
73	0x331fdc21	3.722028e-08
74	0x3318a75c	3.554247e-08
75	0x33281c7d	3.9141458e-08
76	0x332012ba	3.7269935e-08
77	0x331800c1	3.5390944e-08
78	0x332a0fed	3.9595694e-08
79	0x33226c94	3.7817316e-08
80	0x3319af1c	3.578235e-08
81	0x352cbb43	6.4347495e-07
82	0x352bc73a	6.3992377e-07
83	0x352a970c	6.354974e-07
84	0x352c7691	6.424753e-07
85	0x352b8839	6.3900694e-07
86	0x352a3723	6.341017e-07
87	0x352c89b4	6.427538e-07
88	0x352b952d	6.3919543e-07
89	0x352a418c	6.342532e-07
90	0x34e552ec	4.2714908e-07
91	0x34e44f04	4.25258e-07
92	0x34e22684	4.2123804e-07
93	0x34e543b0	4.2703823e-07
94	0x34e434a5	4.2506613e-07
95	0x34e21390	4.2110014e-07
96	0x34e564e2	4.2727976e-07
97	0x34e4463e	4.2519417e-07
98	0x34e210f4	4.2108115e-07
99	0x34fd4aa7	4.717924e-07
100	0x34fc1a7e	4.6957933e-07
101	0x34f9d5fd	4.653556e-07
102	0x34fd62cf	4.7196815e-07
103	0x34fc18af	4.6956617e-07
104	0x34f9ea46	4.655032e-07
105	0x34fd8f9f	4.722942e-07
106	0x34fc43a5	4.6987876e-07
107	0x34f9fbed	4.6563164e-07
108	0x2ff8e53b	4.5273815e-10
109	0x3024065e	5.96719e-10
110	0x3064e031	8.326451e-10
111	0x2fd1d1af	3.8165868e-10
112	0x300b5b88	5.069798e-10
113	0x304af7b8	7.38392e-10
114	0x2fc40fcb	3.5663414e-10
115	0x30075cb8	4.9244475e-10
116	0x304c76d2	7.438362e-10
117	0x2f208219	1.4598135e-10
118	0x2f3f74ef	1.7412892e-10
119	0x2fd4f435	3.8736095e-10
120	0x2efc9958	1.14868726e-10
121	0x2f1dfb08	1.4368251e-10
122	0x2fbf1385	3.4756567e-10
123	0x2f04381c	1.2025264e-10
124	0x2f3e0ca5	1.7284892e-10
125	0x2fcc5827	3.717002e-10
126	0x2fb1a125	3.2310613e-10
127	0x2fbdc945	3.452191e-10
128	0x3031a2e0	6.4623684e-10
129	0x2f9775aa	2.7550345e-10
130	0x2faa38dd	3.0963224e-10
131	0x30280ce6	6.1136374e-10
132	0x2f9ef085	2.8910932e-10
133	0x2fcf3ef2	3.7697806e-10
134	0x3037af34	6.682399e-10
135	0x354d52bf	7.648886e-07
136	0x354d3796	7.644934e-07
137	0x354cc30d	7.627976e-07
138	0x354da8df	7.661419e-07
139	0x354d65f1	7.6516795e-07
140	0x354cd94b	7.6312125e-07
141	0x354d9ccd	7.6596626e-07
142	0x354d9b37	7.659432e-07
143	0x354cc7e8	7.6286824e-07
144	0x34c189fb	3.6049445e-07
145	0x34c51ef1	3.6716622e-07
146	0x34c82a08	3.7283485e-07
147	0x34c1b71c	3.608228e-07
148	0x34c50c64	3.6703125e-07
149	0x34c806d2	3.7257865e-07
150	0x34c1a79d	3.6071006e-07
151	0x34c5114e	3.67067e-07
152	0x34c7d402	3.7220894e-07
153	0x34ea1ff1	4.3609137e-07
154	0x34ee72ba	4.441443e-07
155	0x34f27a9d	4.5165226e-07
156	0x34ea2110	4.3609953e-07
157	0x34ee47b9	4.438314e-07
158	0x34f20f48	4.508713e-07
159	0x34e9e4d3	4.3566124e-07
160	0x34ee0615	4.433538e-07
161	0x34f1a691	4.501094e-07

exp_avg f4 [6]
0	0xb82ad651	-4.0730756e-05
1	0xb68e078a	-4.2328074e-06
2	0x38d48b5a	0.00010134904
3	0x3850a8dd	4.974833e-05
4	0xb81968ce	-3.657565e-05
5	0xb81e3572	-3.771991e-05

exp_avg_sq f4 [6]
0	0x361477ab	2.2123374e-06
1	0x361337d6	2.1937208e-06
2	0x355b5b1a	8.171643e-07
3	0x35889fe2	1.0179322e-06
4	0x32f17dbf	2.8113275e-08
5	0x3591809d	1.0840773e-06

exp_avg f4 [12, 6, 3, 3]
0	0x38673b3b	5.5129854e-05
1	0x3870461d	5.7285757e-05
2	0x38824afa	6.2128485e-05
3	0x3869fa31	5.5784538e-05
4	0x3867273b	5.5111228e-05
5	0x3878e573	5.93415e-05
6	0x3863d151	5.431596e-05
7	0x386486c3	5.4484943e-05
8	0x3850defb	4.979873e-05
9	0x37274325	9.969609e-06
10	0x36bee97a	5.6896215e-06
11	0x372baff9	1.0233366e-05
12	0x371932a9	9.131306e-06
13	0x36e89712	6.9317257e-06
14	0x374a0acc	1.2042652e-05
15	0x3730de61	1.0542194e-05
16	0x36bad733	5.5682845e-06
17	0x3741b7c2	1.1546481e-05
18	0x37f26ce2	2.889935e-05
19	0x37f42c42	2.9107676e-05
20	0x37feca96	3.0373496e-05
21	0x37f2c468	2.8940107e-05
22	0x37f8d26d	2.9661891e-05
23	0x38010d29	3.0768253e-05
24	0x37eecf03	2.8468208e-05
25	0x37f4c77a	2.9179955e-05
26	0x37f29548	2.8918163e-05
27	0x37945a49	1.7685017e-05
28	0x37a09e73	1.914727e-05
29	0x37a08966	1.9137467e-05
30	0x379cc8ea	1.8690207e-05
31	0x378c4ee8	1.6726044e-05
32	0x37aa6293	2.0311481e-05
33	0x379d48cd	1.8749759e-05
34	0x378b5f50	1.6614475e-05
35	0x37b05f9d	2.1025358e-05
36	0xb525f5df	-6.182508e-07
37	0xb4ccb25c	-3.8127735e-07
38	0xb574b13a	-9.115498e-07
39	0xb4ac344f	-3.2075556e-07
40	0xb411962c	-1.355881e-07
41	0x3434e81a	1.6848244e-07
42	0xb3af7c1a	-8.1716465e-08
43	0xb4891735	-2.5535124e-07
44	0xb584ee5f	-9.904142e-07
45	0x385dc6f3	5.2875792e-05
46	0x386ae735	5.6005276e-05
47	0x3852ca65	5.0256396e-05
48	0x385c36d4	5.250315e-05
49	0x38645778	5.4440898e-05
50	0x384a6257	4.825214e-05
51	0x38570581	5.126512e-05
52	0x38646872	5.445671e-05
53	0x38443d00	4.6786852e-05
54	0x00000004	6e-45
55	0x00000004	6e-45
56	0x00000004	6e-45
57	0x00000004	6e-45
58	0x00000004	6e-45
59	0x00000004	6e-45
60	0x00000004	6e-45
61	0x00000004	6e-45
62	0x00000004	6e-45
63	0x00000004	6e-45
64	0x00000004	6e-45
65	0x00000004	6e-45
66	0x80000004	-6e-45
67	0x00000004	6e-45
68	0x00000004	6e-45
69	0x00000004	6e-45
70	0x00000004	6e-45
71	0x00000004	6e-45
72	0x00000004	6e-45
73	0x00000004	6e-45
74	0x00000004	6e-45
75	0x00000004	6e-45
76	0x00000004	6e-45
77	0x00000004	6e-45
78	0x00000004	6e-45
79	0x00000004	6e-45
80	0x00000004	6e-45
81	0x00000004	6e-45
82	0x00000004	6e-45
83	0x00000004	6e-45
84	0x00000004	6e-45
85	0x00000004	6e-45
86	0x00000004	6e-45
87	0x00000004	6e-45
88	0x00000004	6e-45
89	0x00000004	6e-45
90	0x00000004	6e-45
91	0x80000004	-6e-45
92	0x00000004	6e-45
93	0x00000004	6e-45
94	0x80000004	-6e-45
95	0x80000004	-6e-45
96	0x00000004	6e-45
97	0x00000004	6e-45
98	0x00000004	6e-45
99	0x00000004	6e-45
100	0x00000004	6e-45
101	0x00000004	6e-45
102	0x00000004	6e-45
103	0x00000004	6e-45
104	0x00000004	6e-45
105	0x00000004	6e-45
106	0x00000004	6e-45
107	0x00000004	6e-45
108	0xb4e532c0	-4.26915e-07
109	0xb594e86b	-1.1094502e-06
110	0xb66818e3	-3.458518e-06
111	0xb5306ffa	-6.5728057e-07
112	0xb5b565c0	-1.3515164e-06
113	0xb699dce2	-4.5854695e-06
114	0x35116146	5.415826e-07
115	0xb525f5e7	-6.1825125e-07
116	0xb6c96fe8	-6.0032944e-06
117	0xb6942627	-4.4151852e-06
118	0xb6902e83	-4.296949e-06
119	0xb68b09dc	-4.1436706e-06
120	0xb69b2049	-4.6231185e-06
121	0xb67fb560	-3.8103535e-06
122	0xb69108c6	-4.322358e-06
123	0xb684c230	-3.956513e-06
124	0xb6a305ee	-4.858469e-06
125	0xb6624452	-3.3716392e-06
126	0xb59990f5	-1.1441576e-06
127	0xb58b654b	-1.0385787e-06
128	0xb54edc45	-7.7061515e-07
129	0xb5f68637	-1.836749e-06
130	0xb60e0fb4	-2.116879e-06
131	0xb60afef4	-2.0712005e-06
132	0xb54c7002	-7.6158915e-07
133	0xb5aa1275	-1.2671359e-06
134	0xb60e6f3e	-2.12244e-06
135	0xb620534a	-2.3890339e-06
136	0xb5f669f2	-1.8359262e-06
137	0xb63e11a8	-2.8322484e-06
138	0xb60d04e9	-2.1013495e-06
139	0xb63eeea1	-2.8451107e-06
140	0xb62f5e66	-2.613198e-06
141	0xb5970029	-1.1250423e-06
142	0xb6078c7b	-2.0198338e-06
143	0xb6546284	-3.1647805e-06
144	0x357eb8c1	9.4891226e-07
145	0x34287203	1.5687696e-07
146	0x3322998d	3.7858218e-08
147	0x351fddd6	5.955493e-07
148	0x348bcd97	2.6040354e-07
149	0xb3d3783f	-9.847326e-08
150	0x349f9a37	2.9728264e-07
151	0xb479c25b	-2.3260638e-07
152	0xb45aed15	-2.0389082e-07
153	0x36646fe1	3.403977e-06
154	0x362fca3b	2.6194746e-06
155	0x362b8048	2.5555655e-06
156	0x36265bc7	2.478935e-06
157	0x3615bdfc	2.2313316e-06
158	0x3606b3cf	2.0072218e-06
159	0x36180bd4	2.265665e-06
160	0x36304141	2.6264026e-06
161	0x35cb06cb	1.5126656e-06
162	0x37aea46c	2.0818981e-05
163	0x37e2b447	2.7025248e-05
164	0x37a30047	1.9431243e-05
165	0x37cd0576	2.4440447e-05
166	0x37eaac63	2.7975248e-05
167	0x3797772f	1.8056102e-05
168	0x377276fd	1.4452028e-05
169	0x37bee108	2.2754553e-05
170	0x37562227	1.2763346e-05
171	0x375568da	1.2720202e-05
172	0x37417967	1.1531963e-05
173	0x370535c7	7.939939e-06
174	0x37643419	1.3601989e-05
175	0x3730f818	1.0548181e-05
176	0x37121f03	8.709499e-06
177	0x375b682c	1.3077672e-05
178	0x374bfa34	1.2157998e-05
179	0x3719cf4d	9.167777e-06
180	0xb54f6af3	-7.726914e-07
181	0xb3bb1ce2	-8.71312e-08
182	0xb6b44f93	-5.3736817e-06
183	0xb621ce61	-2.4110998e-06
184	0xb607702a	-2.0181856e-06
185	0xb6ca729e	-6.0334123e-06
186	0xb6a660af	-4.958441e-06
187	0xb58ef2aa	-1.0650449e-06
188	0xb701fec7	-7.748319e-06
189	0x36222f08	2.4167257e-06
190	0x36199d50	2.2890345e-06
191	0xb62b9270	-2.5566223e-06
192	0xb586328e	-9.998491e-07
193	0xb4a01cdf	-2.982333e-07
194	0xb68c3e8c	-4.1796065e-06
195	0x34e98089	4.3493154e-07
196	0xb5a9b482	-1.2644016e-06
197	0xb6571699	-3.205065e-06
198	0x354b4d2d	7.57357e-07
199	0xb2e9ba36	-2.7209449e-08
200	0x359513ab	1.1107089e-06
201	0x354653b6	7.3882563e-07
202	0xb5051e3c	-4.959036e-07
203	0x35bd9dad	1.4127487e-06
204	0x351ffbc0	5.959846e-07
205	0xb4f35d28	-4.5330057e-07
206	0x3565fd7e	8.567803e-07
207	0xb86a712d	-5.589535e-05
208	0xb8558342	-5.09054e-05
209	0xb828c4a7	-4.0237468e-05
210	0xb864b938	-5.4531934e-05
211	0xb846daeb	-4.7410762e-05
212	0xb825a90a	-3.9496495e-05
213	0xb85bd13c	-5.2408534e-05
214	0xb845a37d	-4.712072e-05
215	0xb826742a	-3.968567e-05
216	0xb792fc6e	-1.7522103e-05
217	0xb7a799a3	-1.9979494e-05
218	0xb7208a08	-9.568881e-06
219	0xb7bc0663	-2.241432e-05
220	0xb7aeedfe	-2.085324e-05
221	0xb70485a4	-7.898929e-06
222	0xb7abbc4a	-2.0472467e-05
223	0xb786d791	-1.6074426e-05
224	0xb4c09eca	-3.587832e-07
225	0xb714e77d	-8.875385e-06
226	0xb702f1b0	-7.804876e-06
227	0xb6d44fc1	-6.327377e-06
228	0xb71599df	-8.916918e-06
229	0xb7140000	-8.821487e-06
230	0xb6f56ace	-7.3140027e-06
231	0xb705d5ef	-7.977228e-06
232	0xb724146f	-9.779919e-06
233	0xb7158812	-8.912773e-06
234	0xb6e08c28	-6.6920365e-06
235	0xb703eae5	-7.862899e-06
236	0xb682b197	-3.894976e-06
237	0xb7025bff	-7.770023e-06
238	0xb6fc0daf	-7.511778e-06
239	0xb6822a9d	-3.8792627e-06
240	0xb6e4f2e5	-6.823206e-06
241	0xb6df715b	-6.659114e-06
242	0xb60943de	-2.0454095e-06
243	0xb6d49670	-6.3356056e-06
244	0xb6f8224d	-7.394969e-06
245	0xb66808c8	-3.4575805e-06
246	0xb6cd1965	-6.1124324e-06
247	0xb69dd7ec	-4.7041012e-06
248	0xb5394503	-6.9018296e-07
249	0xb6a7093e	-4.9780638e-06
250	0xb683a1a7	-3.922923e-06
251	0xb5e755d6	-1.7235823e-06
252	0x32916ee5	1.693065e-08
253	0xb4ffed1b	-4.7669968e-07
254	0xb59f3270	-1.1861102e-06
255	0xb3e8ccdc	-1.08406056e-07

exp_avg_sq f4 [12, 6, 3, 3]
0	0x34a00c4d	2.9811272e-07
1	0x3496114e	2.7952268e-07
2	0x348c6a8b	2.6154552e-07
3	0x34a342eb	3.0409805e-07
4	0x34997975	2.8586842e-07
5	0x348ed769	2.6606293e-07
6	0x34a63b7a	3.0963184e-07
7	0x349cdf22	2.9219615e-07
8	0x3491fd77	2.7192775e-07
9	0x3335ac4b	4.2299046e-08
10	0x333b7381	4.364438e-08
11	0x33406513	4.479541e-08
12	0x33363c6a	4.2430123e-08
13	0x333a6c91	4.340524e-08
14	0x333f32d4	4.451688e-08
15	0x333451de	4.1983974e-08
16	0x33393ed9	4.313083e-08
17	0x333d1c6d	4.4030845e-08
18	0x340d5808	1.3163674e-07
19	0x340c0a73	1.3042317e-07
20	0x34095207	1.278896e-07
21	0x340ec8de	1.3297856e-07
22	0x340d3340	1.3150293e-07
23	0x340a4885	1.2878634e-07
24	0x340e9ae1	1.3281125e-07
25	0x340d4100	1.3155295e-07
26	0x340a4cf4	1.2880247e-07
27	0x33a816e3	7.827273e-08
28	0x33a8485a	7.83627e-08
29	0x33a8c579	7.85903e-08
30	0x33a89fe5	7.852194e-08
31	0x33a8adca	7.854722e-08
32	0x33a8d207	7.8613134e-08
33	0x33a8d8aa	7.8625206e-08
34	0x33a89a67	7.851195e-08
35	0x33a8b4c5	7.8559914e-08
36	0x2ea85a44	7.65579e-11
37	0x2eb33e3c	8.1510326e-11
38	0x2edbf2ef	1.0002121e-10
39	0x2e9c026c	7.094489e-11
40	0x2ea673c2	7.569369e-11
41	0x2ec9d291	9.177826e-11
42	0x2e9c88e7	7.1183774e-11
43	0x2ea98597	7.7089606e-11
44	0x2eba243f	8.464739e-11
45	0x34fe861b	4.740876e-07
46	0x34fbee9f	4.6926013e-07
47	0x34f9c959	4.6526364e-07
48	0x34fe6d9c	4.7390938e-07
49	0x34fb9318	4.6859418e-07
50	0x34f9c622	4.6524025e-07
51	0x34ff1f05	4.752002e-07
52	0x34fc8241	4.703343e-07
53	0x34fa7c5e	4.6656618e-07
54	0x24ac0548	7.4602056e-17
55	0x24a0e7a1	6.9781334e-17
56	0x24a3ac34	7.0981705e-17
57	0x24b1ad79	7.705539e-17
58	0x24a07c48	6.959948e-17
59	0x24a20b54	7.027549e-17
60	0x24b3e2f4	7.801335e-17
61	0x24a20fab	7.0282843e-17
62	0x24a05ccb	6.9546136e-17
63	0x1cb915f1	1.2247945e-21
64	0x1d32b6d0	2.3652616e-21
65	0x1d1ba807	2.0600947e-21
66	0x1a0e33ef	2.9406863e-23
67	0x1d958262	3.9574784e-21
68	0x1d95ec26	3.9684143e-21
69	0x199b85a7	1.6080606e-23
70	0x1d781f9d	3.283887e-21
71	0x1d982660	4.0273744e-21
72	0x2450d12c	4.5279986e-17
73	0x245268ac	4.5625152e-17
74	0x24575c1a	4.6698706e-17
75	0x2455f9bf	4.6398556e-17
76	0x2451b44a	4.547236e-17
77	0x24559644	4.6314292e-17
78	0x2456af93	4.655257e-17
79	0x2454a826	4.61126e-17
80	0x24540ea5	4.5982577e-17
81	0x230ea1d9	7.732108e-18
82	0x232249c7	8.7976606e-18
83	0x232f00aa	9.48691e-18
84	0x230aa5a5	7.5160716e-18
85	0x231cd7e6	8.502495e-18
86	0x2330592d	9.559863e-18
87	0x230a07dc	7.482659e-18
88	0x231ecf69	8.609118e-18
89	0x23335c89	9.7232045e-18
90	0x1bb7d459	3.0412037e-22
91	0x1c556b34	7.0614345e-22
92	0x1d11c485	1.9292188e-21
93	0x1bf9b086	4.130767e-22
94	0x1bd7c50c	3.5696105e-22
95	0x1d637fd3	3.0109283e-21
96	0x1d358d29	2.4028129e-21
97	0x1c0d7d5b	4.6815005e-22
98	0x1da15253	4.2701466e-21
99	0x2395fd28	1.6261828e-17
100	0x23a1d5ca	1.7546198e-17
101	0x2398d988	1.6572001e-17
102	0x23943435	1.6068303e-17
103	0x23a11f66	1.7468953e-17
104	0x239b9c77	1.6871399e-17
105	0x2392a881	1.5900716e-17
106	0x23a1f37c	1.7558775e-17
107	0x239dc75c	1.7106406e-17
108	0x315c0973	3.2019585e-09
109	0x314f09ec	3.0128104e-09
110	0x3155fd5b	3.1139595e-09
111	0x312f9653	2.55513e-09
112	0x312b9acf	2.4971774e-09
113	0x3137824a	2.6704066e-09
114	0x3127b183	2.4402602e-09
115	0x3126672c	2.4214826e-09
116	0x31313307	2.5785896e-09
117	0x31341363	2.6204467e-09
118	0x31322f47	2.5929283e-09
119	0x312ef8d6	2.546178e-09
120	0x31345646	2.6242488e-09
121	0x31325f97	2.5956746e-09
122	0x312e5cd9	2.537311e-09
123	0x31307020	2.5675106e-09
124	0x3130e6fc	2.574267e-09
125	0x312d356d	2.5205182e-09
126	0x30baea3d	1.3599856e-09
127	0x30b5d4a8	1.3229924e-09
128	0x30b9e517	1.3525633e-09
129	0x30ba8a6b	1.3572622e-09
130	0x30b90ce1	1.3464182e-09
131	0x30bd6f8f	1.3783267e-09
132	0x30bb3c7a	1.3623229e-09
133	0x30bac534	1.358933e-09
134	0x30bb3396	1.3620702e-09
135	0x30c0833e	1.400714e-09
136	0x30c2365d	1.4130809e-09
137	0x30c8810d	1.4588594e-09
138	0x30c51367	1.4339151e-09
139	0x30cc100d	1.4847515e-09
140	0x30cbfb10	1.484155e-09
141	0x30c8cebf	1.4610676e-09
142	0x30ccd737	1.4904121e-09
143	0x30cca7b9	1.4890623e-09
144	0x2db8426a	2.0947872e-11
145	0x2dfef540	2.898537e-11
146	0x2dfb406f	2.856401e-11
147	0x2da1c4ba	1.8390945e-11
148	0x2e0263fd	2.9647385e-11
149	0x2df2776b	2.7565247e-11
150	0x2d90c800	1.6459722e-11
151	0x2ddccba8	2.5101546e-11
152	0x2de35ca5	2.5848055e-11
153	0x2fc77e4f	3.6287637e-10
154	0x2fea276a	4.2592357e-10
155	0x301dd348	5.7416516e-10
156	0x2fb0babb	3.2146893e-10
157	0x2fd32353	3.8405776e-10
158	0x3014639c	5.398364e-10
159	0x2fcc5459	3.7167316e-10
160	0x2ff3bf61	4.4337425e-10
161	0x301db0d3	5.736755e-10
162	0x350abc2e	5.1682844e-07
163	0x350aa28b	5.164554e-07
164	0x350a7372	5.1577e-07
165	0x350ad7c4	5.1722986e-07
166	0x350ac918	5.1701636e-07
167	0x350a92b2	5.1622476e-07
168	0x350afe99	5.1779494e-07
169	0x350b0e56	5.1802397e-07
170	0x350a9162	5.1620566e-07
171	0x31fae831	7.3023547e-09
172	0x31faecbf	7.3028725e-09
173	0x31f8897c	7.23338e-09
174	0x31fc74f7	7.3474626e-09
175	0x31fd51e2	7.372578e-09
176	0x31fb9028	7.32145e-09
177	0x31fbc070	7.326939e-09
178	0x31fde7ec	7.3896356e-09
179	0x31faa770	7.294993e-09
180	0x324bc9a1	1.1862e-08
181	0x324e74a1	1.20172965e-08
182	0x324f2033	1.2056307e-08
183	0x324af435	1.1813474e-08
184	0x324e8093	1.20200125e-08
185	0x324fafc5	1.2088951e-08
186	0x324bc587	1.1861068e-08
187	0x324e524f	1.2009493e-08
188	0x324f7f2d	1.2077902e-08
189	0x316ab696	3.415527e-09
190	0x3175edbf	3.5787335e-09
191	0x31726260	3.5271555e-09
192	0x316b6aaf	3.4257643e-09
193	0x3177d717	3.6065495e-09
194	0x31736400	3.5417997e-09
195	0x316ad704	3.4173704e-09
196	0x31762ce3	3.5823227e-09
197	0x3171cf5b	3.5187984e-09
198	0x2e19f844	3.5008677e-11
199	0x2e2b0698	3.8886755e-11
200	0x2e1726e2	3.436796e-11
201	0x2e204c85	3.644775e-11
202	0x2e339184	4.0829132e-11
203	0x2e16de0a	3.430326e-11
204	0x2e273094	3.801455e-11
205	0x2e388b29	4.1960355e-11
206	0x2e2bbef6	3.9050506e-11
207	0x33886792	6.351833e-08
208	0x338801b0	6.3333005e-08
209	0x3385f275	6.237398e-08
210	0x3388992b	6.3608546e-08
211	0x33883fd9	6.344607e-08
212	0x3385fd46	6.239365e-08
213	0x33886ffb	6.3533626e-08
214	0x3387dc01	6.326446e-08
215	0x338581d3	6.21691e-08
216	0x33eb7a53	1.0965291e-07
217	0x33dde460	1.03326556e-07
218	0x33ca9b8e	9.434653e-08
219	0x33f398ac	1.134334e-07
220	0x33e73627	1.0766626e-07
221	0x33d1e747	9.77439e-08
222	0x33fb63b5	1.1706235e-07
223	0x33ee1ab3	1.1087595e-07
224	0x33d5d0ee	9.9565895e-08
225	0x300bae8c	5.081595e-10
226	0x2fcaed2e	3.6912112e-10
227	0x2f8791dc	2.4659996e-10
228	0x2fe8cb22	4.234489e-10
229	0x2fab4867	3.1156164e-10
230	0x2f56a607	1.9522171e-10
231	0x2fd3f997	3.855802e-10
232	0x2f98020d	2.7650096e-10
233	0x2f28063c	1.5281726e-10
234	0x322780e3	9.749985e-09
235	0x3224094d	9.548171e-09
236	0x3225c7d3	9.649699e-09
237	0x322be4f7	1.0005571e-08
238	0x32293a46	9.8503445e-09
239	0x3229e9ce	9.890256e-09
240	0x322e6569	1.0151191e-08
241	0x32296657	9.860364e-09
242	0x3229aadb	9.875943e-09
243	0x3187d233	3.952914e-09
244	0x3185e589	3.8969046e-09
245	0x318721fc	3.9328807e-09
246	0x318c96b9	4.0916714e-09
247	0x31863327	3.9057286e-09
248	0x31879e31	3.9470014e-09
249	0x318a22e0	4.0202934e-09
250	0x3183b8c8	3.833609e-09
251	0x31847601	3.855121e-09
252	0x2dab420a	1.9469776e-11
253	0x2ddc52df	2.5047906e-11
254	0x2dc9fa9c	2.2962347e-11
255	0x2d90ab16	1.6446882e-11

exp_avg f4 [12]
0	0x38e2c0b2	0.00010812412
1	0x00000004	6e-45
2	0xb71f7a40	-9.505602e-06
3	0xb5d66aea	-1.5975359e-06
4	0xb80e40cd	-3.391579e-05
5	0x37acb593	2.058855e-05
6	0xb6e0cf33	-6.6998414e-06
7	0x00000004	6e-45
8	0x36858ec3	3.9803285e-06
9	0x35c0d5ab	1.43673e-06
10	0x36f1ab0e	7.202273e-06
11	0x386d9877	5.6647197e-05

exp_avg_sq f4 [12]
0	0x36233e93	2.4325316e-06
1	0x24d94f59	9.424317e-17
2	0x332a4d97	3.9651777e-08
3	0x338c9f6c	6.548257e-08
4	0x33f6ff70	1.15017315e-07
5	0x35fabfbb	1.8682252e-06
6	0x34c36ead	3.6402108e-07
7	0x2c695b30	3.316191e-12
8	0x34a0b1c8	2.9931675e-07
9	0x335d5d12	5.154022e-08
10	0x32d34272	2.4593849e-08
11	0x3593f60b	1.1023961e-06

exp_avg f4 [24, 12, 4, 4]
0	0x00000000	0.0
1	0x00000000	0.0
2	0x00000000	0.0
3	0x00000004	6e-45
4	0x00000000	0.0
5	0x00000000	0.0
6	0x00000000	0.0
7	0x00000004	6e-45
8	0x00000004	6e-45
9	0x00000000	0.0
10	0x00000000	0.0
11	0x00000004	6e-45
12	0x00000000	0.0
13	0x00000000	0.0
14	0x00000000	0.0
15	0x00000004	6e-45
16	0x00000000	0.0
17	0x00000000	0.0
18	0x00000000	0.0
19	0x00000000	0.0
20	0x00000000	0.0
21	0x00000000	0.0
22	0x00000000	0.0
23	0x00000000	0.0
24	0x00000000	0.0
25	0x00000000	0.0
26	0x00000000	0.0
27	0x00000000	0.0
28	0x00000000	0.0
29	0x00000000	0.0
30	0x00000000	0.0
31	0x00000000	0.0
32	0x00000000	0.0
33	0x00000000	0.0
34	0x00000000	0.0
35	0x00000000	0.0
36	0x00000000	0.0
37	0x00000000	0.0
38	0x00000000	0.0
39	0x00000000	0.0
40	0x00000000	0.0
41	0x00000000	0.0
42	0x00000000	0.0
43	0x00000000	0.0
44	0x00000000	0.0
45	0x00000000	0.0
46	0x00000000	0.0
47	0x00000000	0.0
48	0x00000004	6e-45
49	0x00000004	6e-45
50	0x00000004	6e-45
51	0x00000004	6e-45
52	0x00000004	6e-45
53	0x00000004	6e-45
54	0x00000004	6e-45
55	0x00000004	6e-45
56	0x00000004	6e-45
57	0x00000004	6e-45
58	0x00000004	6e-45
59	0x00000004	6e-45
60	0x00000004	6e-45
61	0x00000004	6e-45
62	0x00000004	6e-45
63	0x00000004	6e-45
64	0x00000004	6e-45
65	0x00000000	0.0
66	0x00000000	0.0
67	0x00000004	6e-45
68	0x00000004	6e-45
69	0x00000000	0.0
70	0x00000000	0.0
71	0x00000004	6e-45
72	0x00000004	6e-45
73	0x00000000	0.0
74	0x00000000	0.0
75	0x00000004	6e-45
76	0x00000004	6e-45
77	0x00000000	0.0
78	0x00000000	0.0
79	0x00000004	6e-45
80	0x00000004	6e-45
81	0x00000004	6e-45
82	0x00000004	6e-45
83	0x00000004	6e-45
84	0x00000004	6e-45
85	0x00000004	6e-45
86	0x00000004	6e-45
87	0x00000004	6e-45
88	0x00000004	6e-45
89	0x00000004	6e-45
90	0x00000004	6e-45
91	0x00000004	6e-45
92	0x00000004	6e-45
93	0x00000004	6e-45
94	0x00000004	6e-45
95	0x00000004	6e-45
96	0x00000004	6e-45
97	0x00000004	6e-45
98	0x00000004	6e-45
99	0x00000004	6e-45
100	0x00000004	6e-45
101	0x00000004	6e-45
102	0x00000004	6e-45
103	0x00000004	6e-45
104	0x00000004	6e-45
105	0x00000004	6e-45
106	0x00000004	6e-45
107	0x00000004	6e-45
108	0x00000004	6e-45
109	0x00000004	6e-45
110	0x00000004	6e-45
111	0x00000004	6e-45
112	0x00000000	0.0
113	0x00000000	0.0
114	0x00000000	0.0
115	0x00000000	0.0
116	0x00000000	0.0
117	0x00000000	0.0
118	0x00000000	0.0
119	0x00000000	0.0
120	0x00000000	0.0
121	0x00000000	0.0
122	0x00000000	0.0
123	0x00000000	0.0
124	0x00000000	0.0
125	0x00000000	0.0
126	0x00000000	0.0
127	0x00000000	0.0
128	0x00000004	6e-45
129	0x00000004	6e-45
130	0x00000004	6e-45
131	0x00000004	6e-45
132	0x00000004	6e-45
133	0x00000004	6e-45
134	0x00000004	6e-45
135	0x00000004	6e-45
136	0x00000004	6e-45
137	0x00000004	6e-45
138	0x00000004	6e-45
139	0x00000004	6e-45
140	0x00000004	6e-45
141	0x00000004	6e-45
142	0x00000004	6e-45
143	0x00000004	6e-45
144	0x00000004	6e-45
145	0x00000004	6e-45
146	0x00000004	6e-45
147	0x00000004	6e-45
148	0x00000004	6e-45
149	0x00000004	6e-45
150	0x00000004	6e-45
151	0x00000004	6e-45
152	0x00000004	6e-45
153	0x00000004	6e-45
154	0x00000004	6e-45
155	0x00000004	6e-45
156	0x00000004	6e-45
157	0x00000004	6e-45
158	0x00000004	6e-45
159	0x00000004	6e-45
160	0x00000004	6e-45
161	0x00000004	6e-45
162	0x00000004	6e-45
163	0x00000004	6e-45
164	0x00000004	6e-45
165	0x00000004	6e-45
166	0x00000004	6e-45
167	0x00000004	6e-45
168	0x00000004	6e-45
169	0x00000004	6e-45
170	0x00000004	6e-45
171	0x00000004	6e-45
172	0x00000004	6e-45
173	0x00000004	6e-45
174	0x00000004	6e-45
175	0x00000004	6e-45
176	0x00000000	0.0
177	0x00000000	0.0
178	0x00000000	0.0
179	0x00000000	0.0
180	0x00000000	0.0
181	0x00000000	0.0
182	0x00000000	0.0
183	0x00000000	0.0
184	0x00000000	0.0
185	0x00000000	0.0
186	0x00000000	0.0
187	0x00000000	0.0
188	0x00000000	0.0
189	0x00000000	0.0
190	0x00000000	0.0
191	0x00000000	0.0
192	0x00000000	0.0
193	0x00000000	0.0
194	0x00000000	0.0
195	0x00000000	0.0
196	0x00000004	6e-45
197	0x00000000	0.0
198	0x00000000	0.0
199	0x00000000	0.0
200	0x00000004	6e-45
201	0x00000000	0.0
202	0x00000000	0.0
203	0x00000000	0.0
204	0x00000004	6e-45
205	0x00000004	6e-45
206	0x00000004	6e-45
207	0x00000004	6e-45
208	0x00000000	0.0
209	0x00000000	0.0
210	0x00000000	0.0
211	0x00000000	0.0
212	0x00000000	0.0
213	0x00000000	0.0
214	0x00000000	0.0
215	0x00000000	0.0
216	0x00000000	0.0
217	0x00000000	0.0
218	0x00000000	0.0
219	0x00000000	0.0
220	0x00000000	0.0
221	0x00000000	0.0
222	0x00000000	0.0
223	0x00000000	0.0
224	0x00000000	0.0
225	0x00000000	0.0
226	0x00000000	0.0
227	0x00000000	0.0
228	0x00000000	0.0
229	0x00000000	0.0
230	0x00000000	0.0
231	0x00000000	0.0
232	0x00000000	0.0
233	0x00000000	0.0
234	0x00000004	6e-45
235	0x00000004	6e-45
236	0x00000000	0.0
237	0x00000000	0.0
238	0x00000000	0.0
239	0x00000000	0.0
240	0x00000004	6e-45
241	0x00000004	6e-45
242	0x00000004	6e-45
243	0x00000004	6e-45
244	0x00000004	6e-45
245	0x00000004	6e-45
246	0x00000004	6e-45
247	0x00000004	6e-45
248	0x00000004	6e-45
249	0x00000004	6e-45
250	0x00000004	6e-45
251	0x00000004	6e-45
252	0x00000004	6e-45
253	0x00000004	6e-45
254	0x00000004	6e-45
255	0x00000004	6e-45

exp_avg_sq f4 [24, 12, 4, 4]
0	0x00000000	0.0
1	0x00000000	0.0
2	0x00000000	0.0
3	0x1e4a9d69	1.0726343e-20
4	0x00000000	0.0
5	0x00000000	0.0
6	0x00000000	0.0
7	0x1ee20511	2.3930776e-20
8	0x1b416cb3	1.5999708e-22
9	0x00000000	0.0
10	0x00000000	0.0
11	0x1e88ab82	1.4470494e-20
12	0x00000000	0.0
13	0x00000000	0.0
14	0x00000000	0.0
15	0x1cb23135	1.1791772e-21
16	0x00000000	0.0
17	0x00000000	0.0
18	0x00000000	0.0
19	0x00000000	0.0
20	0x00000000	0.0
21	0x00000000	0.0
22	0x00000000	0.0
23	0x00000000	0.0
24	0x00000000	0.0
25	0x00000000	0.0
26	0x00000000	0.0
27	0x00000000	0.0
28	0x00000000	0.0
29	0x00000000	0.0
30	0x00000000	0.0
31	0x00000000	0.0
32	0x00000000	0.0
33	0x00000000	0.0
34	0x00000000	0.0
35	0x00000000	0.0
36	0x00000000	0.0
37	0x00000000	0.0
38	0x00000000	0.0
39	0x00000000	0.0
40	0x00000000	0.0
41	0x00000000	0.0
42	0x00000000	0.0
43	0x00000000	0.0
44	0x00000000	0.0
45	0x00000000	0.0
46	0x00000000	0.0
47	0x00000000	0.0
48	0x1fccfa0b	8.681102e-20
49	0x202544c4	1.3998796e-19
50	0x20532060	1.7883107e-19
51	0x1ef38078	2.578176e-20
52	0x1f5b0a37	4.6383503e-20
53	0x20006af4	1.087741e-19
54	0x204c02c3	1.7280386e-19
55	0x1f4c1457	4.3215505e-20
56	0x1f42e11d	4.1267307e-20
57	0x1ffc8cc6	1.0695904e-19
58	0x20506702	1.7652368e-19
59	0x1f409b76	4.0786176e-20
60	0x1f2d8e54	3.6751906e-20
61	0x202a8369	1.444304e-19
62	0x2053c4c2	1.7937497e-19
63	0x1f95c615	6.3431654e-20
64	0x1d745e0a	3.2341748e-21
65	0x00000000	0.0
66	0x00000000	0.0
67	0x1ed092d5	2.2083585e-20
68	0x1f2f9d0f	3.7187607e-20
69	0x00000000	0.0
70	0x00000000	0.0
71	0x1de57a4a	6.074224e-21
72	0x1f6fc060	5.0769347e-20
73	0x00000000	0.0
74	0x00000000	0.0
75	0x1defb632	6.345116e-21
76	0x1ee806fc	2.4566844e-20
77	0x00000000	0.0
78	0x00000000	0.0
79	0x1c9cf1bf	1.0385704e-21
80	0x206b6604	1.9939028e-19
81	0x20e1b395	3.823532e-19
82	0x20f4aa89	4.1448059e-19
83	0x1eff3c53	2.7024125e-20
84	0x1ff01c97	1.0169125e-19
85	0x20a46ebb	2.7855956e-19
86	0x21025c42	4.4167815e-19
87	0x1f61118d	4.766012e-20
88	0x1f771478	5.2321216e-20
89	0x20436006	1.6548914e-19
90	0x2101f81d	4.4035275e-19
91	0x1fc59436	8.367794e-20
92	0x1ff8eb54	1.054214e-19
93	0x2046d3a9	1.6841285e-19
94	0x20fc24a2	4.2714702e-19
95	0x201fabac	1.3524625e-19
96	0x21013466	4.377625e-19
97	0x210bedb0	4.740961e-19
98	0x2169af1c	7.9175226e-19
99	0x215c3b4b	7.4617373e-19
100	0x20b678fd	3.0912063e-19
101	0x20ea1b91	3.9659384e-19
102	0x216a76f6	7.9439727e-19
103	0x2197163a	1.0238041e-18
104	0x211cbc33	5.3103936e-19
105	0x203d18c2	1.6017114e-19
106	0x216873b6	7.87578e-19
107	0x21b9ddb2	1.259477e-18
108	0x21410b76	6.540611e-19
109	0x200fc790	1.2178601e-19
110	0x215d8f5f	7.5067463e-19
111	0x21d808cd	1.4639059e-18
112	0x00000000	0.0
113	0x00000000	0.0
114	0x00000000	0.0
115	0x00000000	0.0
116	0x00000000	0.0
117	0x00000000	0.0
118	0x00000000	0.0
119	0x00000000	0.0
120	0x00000000	0.0
121	0x00000000	0.0
122	0x00000000	0.0
123	0x00000000	0.0
124	0x00000000	0.0
125	0x00000000	0.0
126	0x00000000	0.0
127	0x00000000	0.0
128	0x21825eee	8.83427e-19
129	0x219376e2	9.992575e-19
130	0x21cb1e14	1.3763777e-18
131	0x21d25ce7	1.4254745e-18
132	0x218ca4f8	9.530436e-19
133	0x2198265b	1.0310073e-18
134	0x21cdbc7b	1.3941231e-18
135	0x21d8dba8	1.4694872e-18
136	0x219aa2c4	1.047853e-18
137	0x219e00f0	1.0706745e-18
138	0x21cda65a	1.3935373e-18
139	0x21e52299	1.5526802e-18
140	0x21b08b90	1.1963166e-18
141	0x219f5042	1.0795503e-18
142	0x21ca9ca2	1.3729513e-18
143	0x21e95069	1.5809979e-18
144	0x2082040b	2.2025532e-19
145	0x1ffa614f	1.060401e-19
146	0x2016c3b5	1.2770248e-19
147	0x1fb82df6	7.800307e-20
148	0x206e289d	2.0172822e-19
149	0x202bcf2c	1.4552811e-19
150	0x20022f14	1.1027005e-19
151	0x1f1d8cfa	3.3362656e-20
152	0x200332b5	1.1112909e-19
153	0x20084f18	1.1545818e-19
154	0x20008b0f	1.0888032e-19
155	0x1ed97a23	2.3026283e-20
156	0x1f85a97f	5.66081e-20
157	0x1fc19dac	8.1999526e-20
158	0x20035ed9	1.1127514e-19
159	0x1ef46c88	2.5879392e-20
160	0x20a89b32	2.8563007e-19
161	0x2165a346	7.780431e-19
162	0x21755261	8.3118256e-19
163	0x200bf106	1.1853506e-19
164	0x2055f44d	1.8122634e-19
165	0x218bc384	9.470759e-19
166	0x217ddf0f	8.601495e-19
167	0x203bbb36	1.5901459e-19
168	0x20069d24	1.1402235e-19
169	0x21925e87	9.918366e-19
170	0x21816953	8.769259e-19
171	0x20867a18	2.2781278e-19
172	0x20607b4f	1.9014337e-19
173	0x218afb00	9.417683e-19
174	0x21809414	8.712813e-19
175	0x20b3c477	3.045379e-19
176	0x00000000	0.0
177	0x00000000	0.0
178	0x00000000	0.0
179	0x00000000	0.0
180	0x00000000	0.0
181	0x00000000	0.0
182	0x00000000	0.0
183	0x00000000	0.0
184	0x00000000	0.0
185	0x00000000	0.0
186	0x00000000	0.0
187	0x00000000	0.0
188	0x00000000	0.0
189	0x00000000	0.0
190	0x00000000	0.0
191	0x00000000	0.0
192	0x00000000	0.0
193	0x00000000	0.0
194	0x00000000	0.0
195	0x00000000	0.0
196	0x1b908b74	2.391292e-22
197	0x00000000	0.0
198	0x00000000	0.0
199	0x00000000	0.0
200	0x1c1de216	5.223915e-22
201	0x00000000	0.0
202	0x00000000	0.0
203	0x00000000	0.0
204	0x1b2e11a8	1.4398648e-22
205	0x197cd7f2	1.30717045e-23
206	0x193c63a5	9.739495e-24
207	0x16a703de	2.6982746e-25
208	0x00000000	0.0
209	0x00000000	0.0
210	0x00000000	0.0
211	0x00000000	0.0
212	0x00000000	0.0
213	0x00000000	0.0
214	0x00000000	0.0
215	0x00000000	0.0
216	0x00000000	0.0
217	0x00000000	0.0
218	0x00000000	0.0
219	0x00000000	0.0
220	0x00000000	0.0
221	0x00000000	0.0
222	0x00000000	0.0
223	0x00000000	0.0
224	0x00000000	0.0
225	0x00000000	0.0
226	0x00000000	0.0
227	0x00000000	0.0
228	0x00000000	0.0
229	0x00000000	0.0
230	0x00000000	0.0
231	0x00000000	0.0
232	0x00000000	0.0
233	0x00000000	0.0
234	0x17c6b95c	1.2842241e-24
235	0x1c0d2055	4.6694775e-22
236	0x00000000	0.0
237	0x00000000	0.0
238	0x00000000	0.0
239	0x00000000	0.0
240	0x1ae0615c	9.280152e-23
241	0x1cabb2b5	1.1362025e-21
242	0x1d79845f	3.302331e-21
243	0x1d7f39c5	3.3778835e-21
244	0x1b949b1f	2.458479e-22
245	0x1d1c7725	2.0708024e-21
246	0x1cb4ae46	1.1956449e-21
247	0x1d2dbc96	2.2993856e-21
248	0x1c14be44	4.9215005e-22
249	0x1bc9e55b	3.3400878e-22
250	0x1c94cd38	9.846866e-22
251	0x1d456edb	2.6130044e-21
252	0x1bec135a	3.905543e-22
253	0x1c7f27c0	8.44238e-22
254	0x1c25664a	5.4726126e-22
255	0x1c10b16a	4.7874906e-22

exp_avg f4 [24]
0	0x00000004	6e-45
1	0x00000004	6e-45
2	0x3834a42b	4.3068238e-05
3	0x33442eb5	4.5677286e-08
4	0x2ea8cea4	7.676462e-11
5	0xb7b7260b	-2.1833015e-05
6	0x37be3110	2.2672612e-05
7	0xb67dccd9	-3.7819175e-06
8	0x364fc776	3.0961505e-06
9	0x00000004	6e-45
10	0x3725c81e	9.88136e-06
11	0x00000004	6e-45
12	0xb608bf64	-2.0376983e-06
13	0x00000004	6e-45
14	0xae8d2a63	-6.419467e-11
15	0x361118c6	2.1621104e-06
16	0xb5f9d181	-1.8612919e-06
17	0x00000004	6e-45
18	0x00000004	6e-45
19	0x00000004	6e-45
20	0x381e68c9	3.7767724e-05
21	0x00000000	0.0
22	0x00000004	6e-45
23	0x00000004	6e-45

exp_avg_sq f4 [24]
0	0x2233e1e6	2.4378613e-18
1	0x1f89882a	5.824702e-20
2	0x34cac3b1	3.7767816e-07
3	0x2bd363c6	1.5020144e-12
4	0x23a8db33	1.8307431e-17
5	0x33883b60	6.343794e-08
6	0x348b7087	2.5972642e-07
7	0x301b6187	5.6527266e-10
8	0x33074595	3.149542e-08
9	0x250956d1	1.191227e-16
10	0x3077665f	9.0003555e-10
11	0x27d9fe3a	6.050523e-15
12	0x2ff5b15a	4.4691256e-10
13	0x23d457e8	2.3022316e-17
14	0x2b71453d	8.5716487e-13
15	0x31d497de	6.1872774e-09
16	0x31b4616f	5.2497664e-09
17	0x251619cf	1.301917e-16
18	0x215866b2	7.3319563e-19
19	0x22ae4a7e	4.7241666e-18
20	0x34a8e82e	3.1461371e-07
21	0x00000000	0.0
22	0x240a5895	2.9999012e-17
23	0x22a94b51	4.5887286e-18

exp_avg f4 [48, 24, 3, 3]
0	0x80000004	-6e-45
1	0x00000000	0.0
2	0x80000004	-6e-45
3	0x00000000	0.0
4	0x00000000	0.0
5	0x00000000	0.0
6	0x80000004	-6e-45
7	0x00000000	0.0
8	0x80000004	-6e-45
9	0x00000000	0.0
10	0x80000004	-6e-45
11	0x00000000	0.0
12	0x00000000	0.0
13	0x00000000	0.0
14	0x00000000	0.0
15	0x00000000	0.0
16	0x80000004	-6e-45
17	0x00000000	0.0
18	0xb625c3d7	-2.470091e-06
19	0xb6ba71c5	-5.5564765e-06
20	0xb6d15a6f	-6.2392132e-06
21	0xb695a5bb	-4.4598396e-06
22	0xb7086798	-8.1303515e-06
23	0xb70902c9	-8.166485e-06
24	0xb6ba04a6	-5.543773e-06
25	0xb7186f2f	-9.085793e-06
26	0xb6b7a08e	-5.472516e-06
27	0x3613f397	2.2046495e-06
28	0xb508d7f9	-5.097823e-07
29	0xb39adfaa	-7.211868e-08
30	0x357fc8ab	9.5286913e-07
31	0x351544e8	5.56071e-07
32	0xb5203ab9	-5.96901e-07
33	0x35124357	5.448723e-07
34	0x3425dc69	1.5447007e-07
35	0xb5e2598a	-1.6864371e-06
36	0x359c1762	1.1629711e-06
37	0x358139bd	9.628053e-07
38	0x36a3cca4	4.881602e-06
39	0x3644e3ed	2.9338946e-06
40	0x369aa923	4.6092478e-06
41	0x369d2579	4.683327e-06
42	0xb5977e5c	-1.1287152e-06
43	0x3654638a	3.16484e-06
44	0x36c126cd	5.756365e-06
45	0xb5e6c40d	-1.7193394e-06
46	0xb6acbbbf	-5.147856e-06
47	0xb54758dc	-7.4262584e-07
48	0xb60c86b1	-2.0940026e-06
49	0xb66dec43	-3.5453274e-06
50	0x360c4af2	2.090525e-06
51	0xb6364735	-2.7161561e-06
52	0xb6c780bd	-5.9456493e-06
53	0x35eedbfe	1.7796408e-06
54	0x36952de9	4.4458907e-06
55	0x3667e1b0	3.455305e-06
56	0xb55c5e68	-8.2093766e-07
57	0x36ad1166	5.157827e-06
58	0x36de932f	6.63325e-06
59	0x360fb22a	2.1412366e-06
60	0x36b63624	5.4303255e-06
61	0x36ebe8d9	7.030653e-06
62	0x3377237c	5.7541442e-08
63	0xb5bbc171	-1.3988885e-06
64	0xb4fc5fe2	-4.7008422e-07
65	0xb5d3c192	-1.5777061e-06
66	0xb64c7c14	-3.0470592e-06
67	0x3422fa81	1.5178558e-07
68	0x3551214e	7.790703e-07
69	0xb615de4b	-2.2332122e-06
70	0xb6106e31	-2.1521812e-06
71	0x35364dd8	6.791356e-07
72	0xb513a3ab	-5.4999936e-07
73	0xb4d0da46	-3.8901834e-07
74	0x36d65301	6.38736e-06
75	0xb60e755a	-2.1227956e-06
76	0xb0d1546a	-1.5230743e-09
77	0x370ef14e	8.520043e-06
78	0x34da0ced	4.061507e-07
79	0x368b3ded	4.149732e-06
80	0x37239822	9.750978e-06
81	0x80000004	-6e-45
82	0x80000004	-6e-45
83	0x80000004	-6e-45
84	0x80000004	-6e-45
85	0x80000004	-6e-45
86	0x80000004	-6e-45
87	0x80000004	-6e-45
88	0x80000004	-6e-45
89	0x80000004	-6e-45
90	0x36648d05	3.4056732e-06
91	0x35c1e878	1.4447278e-06
92	0xb624c560	-2.4552792e-06
93	0x36342ee4	2.6849384e-06
94	0xb4e43914	-4.250984e-07
95	0xb6cbbe53	-6.072028e-06
96	0x36112d2d	2.163298e-06
97	0xb66069da	-3.3440215e-06
98	0xb68bcdaf	-4.1664675e-06
99	0x80000004	-6e-45
100	0x80000004	-6e-45
101	0x80000004	-6e-45
102	0x80000004	-6e-45
103	0x00000004	6e-45
104	0x80000004	-6e-45
105	0x80000004	-6e-45
106	0x00000004	6e-45
107	0x80000004	-6e-45
108	0xb59e003a	-1.1771983e-06
109	0x357497fe	9.111826e-07
110	0xb53c0b5c	-7.005199e-07
111	0xb611ee59	-2.174542e-06
112	0x35958621	1.1140402e-06
113	0x35c57125	1.4710573e-06
114	0xb632e3a4	-2.6656571e-06
115	0x33c3e66d	9.122309e-08
116	0x36359568	2.7058068e-06
117	0x80000004	-6e-45
118	0x80000004	-6e-45
119	0x80000004	-6e-45
120	0x80000004	-6e-45
121	0x80000004	-6e-45
122	0x80000004	-6e-45
123	0x80000004	-6e-45
124	0x80000004	-6e-45
125	0x80000004	-6e-45
126	0xb595f7a8	-1.1173443e-06
127	0x3626268d	2.4758367e-06
128	0x3663675e	3.3885804e-06
129	0xb4a4643b	-3.0620308e-07
130	0x36026fd7	1.943661e-06
131	0x360a3fba	2.0600696e-06
132	0xb5b6106c	-1.3564836e-06
133	0x35fd8a95	1.8890302e-06
134	0x3674e5d7	3.6492618e-06
135	0x351d3539	5.8564507e-07
136	0x3641a418	2.8854756e-06
137	0x360040f7	1.91113e-06
138	0x366c0923	3.5172059e-06
139	0x36e80a0f	6.9153098e-06
140	0x36d9df2b	6.493084e-06
141	0x36709e54	3.5854946e-06
142	0x3634fcb2	2.6969178e-06
143	0x354ce8bc	7.6334595e-07
144	0xb6095fe1	-2.04704e-06
145	0x36f76183	7.3725255e-06
146	0x371e81d4	9.447762e-06
147	0xb6861086	-3.995435e-06
148	0x35ebbb2d	1.756334e-06
149	0x3660dae7	3.350602e-06
150	0x355e36c9	8.278117e-07
151	0x370314c9	7.813048e-06
152	0x367e5df2	3.7903633e-06
153	0x00000004	6e-45
154	0x00000004	6e-45
155	0x00000004	6e-45
156	0x00000004	6e-45
157	0x00000004	6e-45
158	0x00000004	6e-45
159	0x00000004	6e-45
160	0x00000004	6e-45
161	0x00000004	6e-45
162	0x00000004	6e-45
163	0x00000000	0.0
164	0x00000004	6e-45
165	0x00000000	0.0
166	0x00000000	0.0
167	0x00000000	0.0
168	0x00000004	6e-45
169	0x00000000	0.0
170	0x00000004	6e-45
171	0x00000004	6e-45
172	0x80000004	-6e-45
173	0x80000004	-6e-45
174	0x00000004	6e-45
175	0x00000004	6e-45
176	0x80000004	-6e-45
177	0x00000004	6e-45
178	0x00000004	6e-45
179	0x80000004	-6e-45
180	0xb63db181	-2.8266516e-06
181	0xb66cb36e	-3.5271182e-06
182	0xb6bdd052	-5.6568906e-06
183	0xb68ff4ac	-4.2902157e-06
184	0xb68ad268	-4.137215e-06
185	0xb6579860	-3.212619e-06
186	0xb6bead1d	-5.6825943e-06
187	0xb6e6aae0	-6.8744266e-06
188	0xb673ed00	-3.6347774e-06
189	0x00000000	0.0
190	0x00000000	0.0
191	0x00000000	0.0
192	0x00000000	0.0
193	0x00000000	0.0
194	0x00000000	0.0
195	0x00000000	0.0
196	0x00000000	0.0
197	0x00000000	0.0
198	0x00000004	6e-45
199	0x00000004	6e-45
200	0x00000004	6e-45
201	0x00000004	6e-45
202	0x00000000	0.0
203	0x00000004	6e-45
204	0x00000004	6e-45
205	0x80000004	-6e-45
206	0x00000004	6e-45
207	0x80000004	-6e-45
208	0x00000004	6e-45
209	0x00000004	6e-45
210	0x80000004	-6e-45
211	0x80000004	-6e-45
212	0x80000004	-6e-45
213	0x80000004	-6e-45
214	0x80000004	-6e-45
215	0x80000004	-6e-45
216	0x80000004	-6e-45
217	0x00000000	0.0
218	0x80000004	-6e-45
219	0x00000000	0.0
220	0x00000000	0.0
221	0x00000000	0.0
222	0x80000004	-6e-45
223	0x00000000	0.0
224	0x80000004	-6e-45
225	0x00000000	0.0
226	0x80000004	-6e-45
227	0x00000000	0.0
228	0x00000000	0.0
229	0x00000000	0.0
230	0x00000000	0.0
231	0x00000000	0.0
232	0x80000004	-6e-45
233	0x00000000	0.0
234	0xb6cfa3f0	-6.1881656e-06
235	0xb6a856a0	-5.0168746e-06
236	0xb7042db6	-7.878456e-06
237	0xb73dd46b	-1.1314735e-05
238	0xb6bc7eb7	-5.617588e-06
239	0xb6fe0825	-7.570738e-06
240	0xb760223d	-1.3359412e-05
241	0xb6fc55c9	-7.520172e-06
242	0xb6d7d9ee	-6.4328697e-06
243	0xb5c8a675	-1.4949607e-06
244	0x363dc614	2.8278491e-06
245	0x35755019	9.138617e-07
246	0x3627430c	2.4923966e-06
247	0x36691eac	3.473756e-06
248	0x34ae816f	3.25042e-07
249	0x349b0d79	2.8880802e-07
250	0x3619902c	2.2882696e-06
251	0xb5cba107	-1.5171544e-06
252	0xb6091cd2	-2.0431366e-06
253	0x35b2b96d	1.3316e-06
254	0xb4c012f1	-3.5776569e-07
255	0x35a71dc9	1.2451138e-06

exp_avg_sq f4 [48, 24, 3, 3]
0	0x14e2d2bb	2.2903287e-26
1	0x00000000	0.0
2	0x18b2ded3	4.6236917e-24
3	0x00000000	0.0
4	0x00000000	0.0
5	0x00000000	0.0
6	0x16acfbbb	2.7946963e-25
7	0x00000000	0.0
8	0x18b8a524	4.7729635e-24
9	0x00000000	0.0
10	0x12130437	4.6390216e-28
11	0x00000000	0.0
12	0x00000000	0.0
13	0x00000000	0.0
14	0x00000000	0.0
15	0x00000000	0.0
16	0x0fc7b923	1.9694227e-29
17	0x00000000	0.0
18	0x309928cf	1.1143814e-09
19	0x30b2ea8f	1.301787e-09
20	0x30a2cb96	1.1844914e-09
21	0x309f8b29	1.1608324e-09
22	0x30b958a6	1.3485717e-09
23	0x30abefed	1.2510079e-09
24	0x30aa1257	1.237434e-09
25	0x30c23dc4	1.4132913e-09
26	0x30aa886f	1.2407905e-09
27	0x2f04cac4	1.2077367e-10
28	0x2f00d7fa	1.1718262e-10
29	0x2f46cd2c	1.8080887e-10
30	0x2f153eff	1.3573852e-10
31	0x2f0cac9b	1.2794248e-10
32	0x2f4fa1f2	1.8884075e-10
33	0x2efeb968	1.15835175e-10
34	0x2f15e527	1.3632882e-10
35	0x2f0ea221	1.2972425e-10
36	0x2f46402c	1.8030794e-10
37	0x2f3cfaac	1.7187557e-10
38	0x2f77ce0d	2.2537723e-10
39	0x2f5bdfe5	1.9997477e-10
40	0x2f6d6d18	2.1593782e-10
41	0x2fa19178	2.938909e-10
42	0x2f581c9b	1.9655248e-10
43	0x2f40ad93	1.7523964e-10
44	0x2f655750	2.0858448e-10
45	0x2fafa64c	3.1950476e-10
46	0x2f802492	2.330905e-10
47	0x2fae9a59	3.1760086e-10
48	0x2f9d12c2	2.8571462e-10
49	0x2f48aa0b	1.8250305e-10
50	0x2fa22202	2.9491792e-10
51	0x2f8def19	2.581764e-10
52	0x2f50f49b	1.9004391e-10
53	0x2f8f4b75	2.6065164e-10
54	0x304145b9	7.0312073e-10
55	0x305eac52	8.100801e-10
56	0x304d980c	7.4794637e-10
57	0x30493ffc	7.32143e-10
58	0x306b4268	8.558687e-10
59	0x30618dc2	8.2055973e-10
60	0x3054d910	7.7433615e-10
61	0x30771086	8.988156e-10
62	0x3062da6a	8.2528706e-10
63	0x2eb396a7	8.166739e-11
64	0x2edf200f	1.0146561e-10
65	0x2f0c20c0	1.2744561e-10
66	0x2ecf471e	9.425903e-11
67	0x2eea8cc1	1.0666091e-10
68	0x2ed9c571	9.90309e-11
69	0x2eb3eaef	8.18171e-11
70	0x2eededc8	1.08197507e-10
71	0x2ef00f3e	1.0916644e-10
72	0x2fa2df56	2.9626318e-10
73	0x2fc9921e	3.666551e-10
74	0x2fefc91a	4.3616738e-10
75	0x2fa33d79	2.9693206e-10
76	0x2fb9ecd1	3.3819572e-10
77	0x30020858	4.730558e-10
78	0x2fa4d479	2.9982397e-10
79	0x2fe2145c	4.1123627e-10
80	0x30167700	5.473879e-10
81	0x1e9f756a	1.6883341e-20
82	0x1ecb7cd2	2.1545086e-20
83	0x1ed3623b	2.2381121e-20
84	0x1ec826dd	2.1191897e-20
85	0x1f079b1f	2.8715675e-20
86	0x1f006b2a	2.7193698e-20
87	0x1ef28600	2.5678168e-20
88	0x1f11f6ad	3.090899e-20
89	0x1f15e357	3.174003e-20
90	0x2ec05674	8.746506e-11
91	0x2ed11041	9.507107e-11
92	0x2eff6501	1.1613999e-10
93	0x2ef73d66	1.1243166e-10
94	0x2f2a03f7	1.5462819e-10
95	0x2f6468c5	2.0773701e-10
96	0x2ef56a9d	1.11602484e-10
97	0x2f3f7f90	1.7416668e-10
98	0x2f24ced9	1.49892e-10
99	0x200aa1ed	1.1742631e-19
100	0x1d1027df	1.9078854e-21
101	0x1aeee4d2	9.880417e-23
102	0x20500fb6	1.7623484e-19
103	0x1ca422d8	1.0861617e-21
104	0x1e5856dc	1.1452907e-20
105	0x1c7f26a1	8.442235e-22
106	0x1c749b47	8.093352e-22
107	0x1f790bd1	5.2737575e-20
108	0x2f69ce95	2.1264619e-10
109	0x2f433ae1	1.7756065e-10
110	0x2f091cd4	1.2470319e-10
111	0x2f757ed0	2.2327673e-10
112	0x2f4319a6	1.7744259e-10
113	0x2f46dbf8	1.8086144e-10
114	0x2f4d75c7	1.8686484e-10
115	0x2f3df62d	1.7276909e-10
116	0x2f20db72	1.4629878e-10
117	0x1c859b30	8.841317e-22
118	0x1a14fcd7	3.0809925e-23
119	0x1c26b53c	5.5159033e-22
120	0x1b479ea3	1.6512152e-22
121	0x1c48be4f	6.6420417e-22
122	0x1ad6c652	8.882873e-23
123	0x1c6aebdd	7.772895e-22
124	0x1b28adcf	1.3952795e-22
125	0x1c3440d5	5.96408e-22
126	0x2feb2cc3	4.2778056e-10
127	0x2ffbbd4a	4.5791132e-10
128	0x2fe71d51	4.2039486e-10
129	0x2ff4a94d	4.4503637e-10
130	0x300dbd43	5.156446e-10
131	0x2fddacc8	4.0322434e-10
132	0x2fd76581	3.9180395e-10
133	0x3004dd4e	4.8335813e-10
134	0x2fedca3f	4.3253753e-10
135	0x2fc982cc	3.6654624e-10
136	0x2ff64ef8	4.480325e-10
137	0x2ff3898a	4.429917e-10
138	0x2fc8d4c9	3.653098e-10
139	0x300d3a5d	5.137844e-10
140	0x3005d911	4.869359e-10
141	0x2fd79524	3.9214243e-10
142	0x30002788	4.6622306e-10
143	0x30008501	4.675514e-10
144	0x2f248d8c	1.4966e-10
145	0x2fbef080	3.4731684e-10
146	0x2fb6128e	3.311879e-10
147	0x2f52362a	1.9118632e-10
148	0x2f99463c	2.7880442e-10
149	0x2f682e59	2.1116743e-10
150	0x2f395ec1	1.6859315e-10
151	0x2f8308e6	2.3835084e-10
152	0x2f77b3ad	2.2528353e-10
153	0x21049875	4.4925115e-19
154	0x2129b37b	5.749697e-19
155	0x2113889c	4.998634e-19
156	0x21278f08	5.67711e-19
157	0x2145f80b	6.707448e-19
158	0x212f8e2b	5.9480464e-19
159	0x213fe723	6.5019224e-19
160	0x21660bd3	7.794268e-19
161	0x21552285	7.2212893e-19
162	0x150d7c7b	2.857292e-26
163	0x00000000	0.0
164	0x14b04066	1.7796859e-26
165	0x00000000	0.0
166	0x00000000	0.0
167	0x00000000	0.0
168	0x15b442ef	7.2807024e-26
169	0x00000000	0.0
170	0x13964c6c	3.794068e-27
171	0x1ede3bf2	2.3529957e-20
172	0x1e4d7fca	1.0879036e-20
173	0x1f3d875f	4.0134283e-20
174	0x1f47e788	4.2331407e-20
175	0x1ebf1aaa	2.023394e-20
176	0x1f4076ec	4.075595e-20
177	0x1ff36d0c	1.03094906e-19
178	0x1fc0de00	8.168243e-20
179	0x1f3dae70	4.0166598e-20
180	0x30136350	5.361942e-10
181	0x302e7bb6	6.3476635e-10
182	0x3025b129	6.027841e-10
183	0x3019ed1e	5.599804e-10
184	0x303f1b84	6.95245e-10
185	0x302ba0db	6.2438027e-10
186	0x301dac67	5.7361266e-10
187	0x3036d48b	6.6513256e-10
188	0x302ef7fb	6.365323e-10
189	0x00000000	0.0
190	0x00000000	0.0
191	0x00000000	0.0
192	0x00000000	0.0
193	0x00000000	0.0
194	0x00000000	0.0
195	0x00000000	0.0
196	0x00000000	0.0
197	0x00000000	0.0
198	0x18a65629	4.2996994e-24
199	0x118d5ebe	2.2304267e-28
200	0x1c1e0dba	5.2295556e-22
201	0x1ce7f657	1.5349975e-21
202	0x00000000	0.0
203	0x1c008b48	4.2531664e-22
204	0x1f51bd69	4.4414148e-20
205	0x1ea0a491	1.7008722e-20
206	0x1c57d964	7.1418503e-22
207	0x190d87f9	7.316989e-24
208	0x1970e214	1.2453365e-23
209	0x1ab807e8	7.611339e-23
210	0x1692eb1f	2.3735954e-25
211	0x1750f23b	6.7514163e-25
212	0x1492d7a3	1.4827286e-26
213	0x192df3e8	8.993147e-24
214	0x1731f76f	5.750409e-25
215	0x1ab98183	7.6723444e-23
216	0x178bddf3	9.038692e-25
217	0x00000000	0.0
218	0x19ab7320	1.7727484e-23
219	0x00000000	0.0
220	0x00000000	0.0
221	0x00000000	0.0
222	0x1732769b	5.7664603e-25
223	0x00000000	0.0
224	0x1869627c	3.0164266e-24
225	0x00000000	0.0
226	0x1209852e	4.3393734e-28
227	0x00000000	0.0
228	0x00000000	0.0
229	0x00000000	0.0
230	0x00000000	0.0
231	0x00000000	0.0
232	0x11bd639a	2.9880326e-28
233	0x00000000	0.0
234	0x30f027d4	1.7473618e-09
235	0x30fb8e33	1.8303069e-09
236	0x30ee2193	1.7326321e-09
237	0x30ef040a	1.7390687e-09
238	0x30f6a2a2	1.7945079e-09
239	0x30ddee56	1.6147605e-09
240	0x30e741c9	1.6826159e-09
241	0x30f796c9	1.8014471e-09
242	0x30de31b4	1.6166752e-09
243	0x2ffdff0f	4.6201662e-10
244	0x300cebf4	5.1267013e-10
245	0x2ff85f3c	4.5178605e-10
246	0x3014acd9	5.408772e-10
247	0x300acc5f	5.0494536e-10
248	0x2ffe5efb	4.6269819e-10
249	0x2fec4119	4.2974405e-10
250	0x2ff10fd7	4.38489e-10
251	0x2fcf89e7	3.7751066e-10
252	0x30736ce2	8.8557617e-10
253	0x3083f1b7	9.600204e-10
254	0x307220a0	8.808545e-10
255	0x305e741f	8.092815e-10
