vae/relu-mse-aug.pth (torch_old, 519423 bytes, 70 tensors)

exp_avg f4 [6, 3, 3, 3]
00000000: 6f0b 0cb9 969b 0fb9 5988 0eb9 fc1b 0cb9
00000010: a3cb 0eb9 2e19 0eb9 1dd2 0cb9 94ea 0db9
00000020: c6a8 0db9 d5bd c8b8 372e deb8 407a eeb8
00000030: f356 ceb8 4442 e1b8 c2d9 f2b8 befa d2b8
00000040: 989d e5b8 edf2 f6b8 37e2 8fb8 f054 9db8
00000050: f10a a5b8 14b8 91b8 88c4 9bb8 b478 a4b8
00000060: 4f25 94b8 696e 9bb8 7f99 a4b8 edb7 1938
00000070: 35ac 1c38 d9bf 2038 d6c7 1938 ad46 1a38
00000080: 4c8f 1f38 095a 2138 2c3b 2138 7a98 2738
00000090: 98ea c937 361e cd37 6527 df37 9c27 ca37
000000a0: c64d c937 5470 dc37 a894 d137 a0a7 cf37
000000b0: 6248 e637 a7c7 4238 d548 4338 b6eb 4138
000000c0: 5fa4 4138 3220 4038 7275 4038 67de 4638
000000d0: e653 4438 23b2 4938 c029 86b9 61fc 83b9
000000e0: 1926 83b9 2bab 84b9 e017 83b9 457d 81b9
000000f0: 6adb 82b9 941e 81b9 1647 7fb9 f552 24b9
00000100: 6285 1cb9 7f94 13b9 bef3 20b9 07e3 1bb9
00000110: 84d6 11b9 8cf2 1eb9 168a 18b9 f390 0fb9
00000120: e11a 6bb8 0516 62b8 2e1e 6cb8 466e 64b8
00000130: cfb6 61b8 2664 66b8 b6c9 5ab8 2112 59b8
00000140: 75d3 5eb8 5987 abb8 533b afb8 4c9c b1b8
00000150: 43e7 acb8 6f7f b0b8 1b39 b4b8 e762 acb8
00000160: d993 b1b8 f319 b5b8 9f81 9638 d33b 8938
00000170: 236c 7638 01b4 9438 a355 8638 e541 6f38
00000180: 52fc 9238 44ac 8238 ec0b 6a38 c1af 14b9
00000190: ceeb 13b9 60ba 15b9 5b84 14b9 2846 14b9
000001a0: 17cb 16b9 f542 14b9 c52a 15b9 44a2 17b9
000001b0: fa92 a9b4 5454 22b5 3c46 a4b5 0929 33b5
000001c0: 0986 e9b5 b893 ffb5 ef85 bcb4 0db6 12b5
000001d0: e710 57b5 7d90 df35 4474 ea35 02b2 7435
000001e0: 70d6 ac35 d362 cc34 8e4d a2b4 a97e 0836
000001f0: ab59 c535 3e52 0f35 a88e 3237 197b 2a37
00000200: 4964 2937 927a 3837 3f89 1f37 b062 2337
00000210: 67f8 4937 e419 3f37 b523 3f37 f0f4 1137
00000220: 2b95 0437 87c3 f436 bb3d 0837 3f68 0137
00000230: ccf7 e636 a511 0b37 bf31 0737 02eb f236
00000240: d2a6 3db8 2cc0 33b8 bcc8 2db8 26c0 3eb8
00000250: 79aa 34b8 6e31 2fb8 dd78 41b8 7d4b 36b8
00000260: 0f89 31b8 4d34 d4b8 0cf2 d5b8 e183 d2b8
00000270: 264a d4b8 91ce d5b8 284c d2b8 c238 d4b8
00000280: 5568 d4b8 7023 d1b8
-0.000133557 -0.00013695503 -0.00013592969 -0.00013361865 -0.00013618036 -0.00013551555 -0.00013429714 -0.00013534195
-0.00013509681 -9.572102e-05 -0.00010594393 -0.00011371495 -9.839041e-05 -0.00010741179 -0.0001158002 -0.00010060285
-0.00010948925 -0.000117754425 -6.860907e-05 -7.502164e-05 -7.869851e-05 -6.948426e-05 -7.427583e-05 -7.842612e-05
-7.064139e-05 -7.4115414e-05 -7.84872e-05 3.6649337e-05 3.735368e-05 3.8325645e-05 3.6664154e-05 3.6782283e-05
3.804201e-05 3.8469243e-05 3.84405e-05 3.9957908e-05 2.4070308e-05 2.4451972e-05 2.6602016e-05 2.4098721e-05
2.3997283e-05 2.627835e-05 2.4983965e-05 2.475438e-05 2.7451842e-05 4.6439145e-05 4.6559453e-05 4.623431e-05
4.616787e-05 4.580635e-05 4.5885747e-05 4.7414007e-05 4.6808178e-05 4.8088037e-05 -0.00025589578 -0.00025174304
-0.00025014652 -0.00025304532 -0.00025004055 -0.0002469813 -0.00024959008 -0.0002462758 -0.00024345177 -0.00015671163
-0.00014927008 -0.00014074332 -0.0001534959 -0.00014866526 -0.00013908191 -0.0001515841 -0.0001454729 -0.0001369154
-5.60534e-05 -5.3903106e-05 -5.629489e-05 -5.4462136e-05 -5.3814434e-05 -5.4929544e-05 -5.216311e-05 -5.1753716e-05
-5.312586e-05 -8.179126e-05 -8.3557e-05 -8.46913e-05 -8.244675e-05 -8.41607e-05 -8.5937056e-05 -8.220021e-05
-8.4675565e-05 -8.635586e-05 7.176701e-05 6.543812e-05 5.875168e-05 7.090718e-05 6.405569e-05 5.704341e-05
7.008821e-05 6.23097e-05 5.580105e-05 -0.00014179853 -0.00014106857 -0.00014279177 -0.00014163686 -0.00014140515
-0.00014380772 -0.00014139323 -0.0001422568 -0.00014460931 -3.1585643e-07 -6.0472416e-07 -1.2239393e-06 -6.674241e-07
-1.7398862e-06 -1.9041972e-06 -3.5115178e-07 -5.4654157e-07 -8.011834e-07 1.6656846e-06 1.7468196e-06 9.115612e-07
1.2877408e-06 3.8069865e-07 -3.023128e-07 2.0339305e-06 1.4703741e-06 5.339133e-07 1.06428415e-05 1.01614505e-05
1.0096534e-05 1.0995793e-05 9.509094e-06 9.738535e-06 1.2038369e-05 1.1390515e-05 1.1392801e-05 8.699702e-06
7.902544e-06 7.294529e-06 8.120604e-06 7.713271e-06 6.8833815e-06 8.289154e-06 8.0582095e-06 7.2395205e-06
-4.5216475e-05 -4.28559e-05 -4.1433363e-05 -4.5478482e-05 -4.307411e-05 -4.1769286e-05 -4.612735e-05 -4.3462485e-05
-4.2327734e-05 -0.000101186895 -0.00010201716 -0.00010038145 -0.00010122759 -0.000101951075 -0.000100277655 -0.0001011952
-0.00010128381 -9.972497e-05

exp_avg_sq f4 [6, 3, 3, 3]
00000000: 12e7 1c36 a20c 1d36 5018 1d36 a5ea 1c36
00000010: 7a14 1d36 c828 1d36 9bae 1c36 bee1 1c36
00000020: 61f6 1c36 14f3 dd35 a031 de35 b326 de35
00000030: 0310 de35 8c51 de35 554d de35 25d8 dd35
00000040: fe0e de35 2c06 de35 484c de35 2f50 de35
00000050: ad20 de35 4d79 de35 1b7b de35 eb58 de35
00000060: 651f de35 2c2c de35 a104 de35 45ba da33
00000070: aeb2 da33 9fd0 dc33 333b da33 074c da33
00000080: 0394 dc33 4ded d933 f91e da33 025c dc33
00000090: 2780 c733 767e c733 8611 c733 3c32 c733
000000a0: 2a1f c733 eeb6 c633 7285 c633 74a0 c633
000000b0: 7a39 c633 a90c 4234 1b74 4234 bb86 4234
000000c0: 33fd 4134 a95d 4234 d780 4234 56a8 4134
000000d0: cc29 4234 283e 4234 2ca9 6136 270c 6136
000000e0: c104 6136 3a7f 6136 0fd9 6036 e9d7 6036
000000f0: 346a 6136 29cb 6036 7ac1 6036 a3bb ef35
00000100: a765 ee35 40aa ee35 60a8 ef35 8f4e ee35
00000110: 84c1 ee35 02e9 ef35 d9a8 ee35 93ff ee35
00000120: 30b0 1b36 f24e 1b36 e26c 1b36 85a0 1b36
00000130: 253a 1b36 765f 1b36 149a 1b36 f13d 1b36
00000140: 4752 1b36 60f3 7935 4ab0 7935 d5a7 7935
00000150: 98cd 7935 0a7e 7935 aa71 7935 ce9e 7935
00000160: 1d5c 7935 d242 7935 dffc 0535 f34d 0635
00000170: 1001 0735 9212 0635 cf5c 0635 ae06 0735
00000180: 411c 0635 176a 0635 b615 0735 7a7b 3b35
00000190: f7c9 3b35 d398 3c35 c477 3b35 e7be 3b35
000001a0: da90 3c35 8162 3b35 8ac2 3b35 247a 3c35
000001b0: 6143 7831 f60c 7631 075e 7b31 206b 7731
000001c0: 7eab 7331 6693 7831 5343 7b31 2d55 7831
000001d0: a970 7d31 77e3 e031 df8b de31 2235 e031
000001e0: e7cb de31 6d91 da31 f98d dc31 5ce3 df31
000001f0: 975f dd31 3fe9 df31 427f 2e31 b625 2731
00000200: fd4c 2d31 4c44 2d31 70e0 2431 acfb 2931
00000210: 6e0d 3231 3217 2c31 82f8 3231 068e 1e35
00000220: 1be2 1e35 6b85 1e35 249a 1e35 c1f7 1e35
00000230: e983 1e35 7078 1e35 80d0 1e35 e659 1e35
00000240: b6fd cf34 1341 d034 7a06 d034 6226 d034
00000250: 3068 d034 6614 d034 2226 d034 7d61 d034
00000260: 3dff cf34 bd85 8a34 2c53 8a34 881e 8a34
00000270: 00a0 8a34 2a6f 8a34 bd28 8a34 c595 8a34
00000280: 2567 8a34 ae1f 8a34
2.3380312e-06 2.3402176e-06 2.3408975e-06 2.3382393e-06 2.3406742e-06 2.341856e-06 2.3347445e-06 2.337721e-06
2.3389223e-06 1.6536528e-06 1.6554732e-06 1.6551552e-06 1.6544949e-06 1.6564022e-06 1.6562796e-06 1.652869e-06
1.6544652e-06 1.6542085e-06 1.656249e-06 1.6563625e-06 1.6549799e-06 1.6575592e-06 1.6576117e-06 1.6566167e-06
1.6549426e-06 1.6553145e-06 1.6541636e-06 1.0185298e-07 1.0183918e-07 1.0282496e-07 1.0162184e-07 1.01652454e-07
1.02714715e-07 1.0148015e-07 1.015705e-07 1.02612844e-07 9.2899704e-08 9.289663e-08 9.269847e-08 9.275797e-08
9.272328e-08 9.253368e-08 9.244367e-08 9.24928e-08 9.2305484e-08 1.8072264e-07 1.8109897e-07 1.8116673e-07
1.8066639e-07 1.8101731e-07 1.811453e-07 1.8035766e-07 1.8082864e-07 1.809027e-07 3.3626084e-06 3.3534686e-06
3.353038e-06 3.3601668e-06 3.3504946e-06 3.3504277e-06 3.358943e-06 3.3496856e-06 3.349122e-06 1.7861497e-06
1.7761967e-06 1.7781931e-06 1.7855891e-06 1.7755245e-06 1.7788702e-06 1.7874702e-06 1.7781523e-06 1.7806764e-06
2.3199354e-06 2.3142752e-06 2.3160178e-06 2.3190235e-06 2.3130644e-06 2.3152365e-06 2.3186485e-06 2.3132854e-06
2.3144692e-06 9.3113886e-07 9.301626e-07 9.3003956e-07 9.3058907e-07 9.294314e-07 9.292513e-07 9.299082e-07
9.289377e-07 9.2856965e-07 4.9914337e-07 5.003232e-07 5.0292965e-07 4.9945913e-07 5.0053944e-07 5.030114e-07
4.9960005e-07 5.007327e-07 5.032301e-07 6.984261e-07 6.9956826e-07 7.0257846e-07 6.983721e-07 6.994073e-07
7.0246244e-07 6.980627e-07 6.994602e-07 7.0213196e-07 3.612705e-09 3.580508e-09 3.6578756e-09 3.6004124e-09
3.5458636e-09 3.6172536e-09 3.6563577e-09 3.6137167e-09 3.6880385e-09 6.545118e-09 6.476952e-09 6.5252985e-09
6.4842314e-09 6.361168e-09 6.418983e-09 6.516002e-09 6.442814e-09 6.516671e-09 2.539267e-09 2.4323135e-09
2.5218576e-09 2.5213636e-09 2.399272e-09 2.4735796e-09 2.5910043e-09 2.504248e-09 2.604367e-09 5.906626e-07
5.9188613e-07 5.9053735e-07 5.908389e-07 5.9220116e-07 5.905154e-07 5.9034846e-07 5.9162994e-07 5.8990406e-07
3.8741354e-07 3.8790367e-07 3.8747731e-07 3.8770946e-07 3.8818825e-07 3.875786e-07 3.8770764e-07 3.881395e-07
3.8742465e-07 2.580181e-07 2.5765019e-07 2.5726717e-07 2.5820918e-07 2.5785386e-07 2.5734144e-07 2.5813475e-07
2.577955e-07 2.5727553e-07

exp_avg f4 [6]
00000000: e216 81b9 061b 4a39 d161 61b9 23c2 67b9
00000010: e1bd 37b7 d361 9038
-0.00024621846 0.00019274288 -0.00021494112 -0.00022102198 -1.095186e-05 6.884676e-05

exp_avg_sq f4 [6]
00000000: f470 aa36 881c fd34 eda3 1937 76a5 2336
00000010: 288f 0134 3334 9435
5.0795443e-06 4.7145681e-07 9.157678e-06 2.4385204e-06 1.2066141e-07 1.1042051e-06

exp_avg f4 [12, 6, 3, 3]
00000000: 221b 5db8 e31b 80b8 3a5f 91b8 93ad 55b8
00000010: 2640 72b8 58e6 8db8 46ba 53b8 3904 6fb8
00000020: 4722 8eb8 83f6 9eb8 23ab a0b8 dca4 9fb8
00000030: 0fe5 a1b8 7df4 a2b8 4da5 a1b8 ff9c a1b8
00000040: a772 a2b8 ea6b a2b8 497d 2b38 3470 3838
00000050: 1a60 4438 6244 2938 3476 3538 827e 4238
00000060: 963b 2938 fdaa 3538 335c 4338 5ab7 aab7
00000070: 1a6d beb7 7afe bdb7 b0f5 aab7 116a beb7
00000080: 72cc c0b7 a7eb b1b7 fbea c1b7 ea88 cbb7
00000090: 71db 82b7 759b 7bb7 ddac 79b7 961b 88b7
000000a0: 757a 83b7 cb53 80b7 4ab2 8bb7 d274 87b7
000000b0: 9691 86b7 be53 a338 ef26 a738 7201 ac38
000000c0: b01e a338 9080 a738 d565 ab38 9df3 a238
000000d0: b39d a638 12c7 a938 0400 0000 0400 0000
000000e0: 0400 0000 0400 0000 0400 0000 0400 0000
000000f0: 0400 0000 0400 0000 0400 0000 0400 0000
00000100: 0400 0000 0400 0000 0400 0000 0400 0000
00000110: 0400 0000 0400 0000 0400 0000 0400 0000
00000120: 0400 0000 0400 0000 0400 0000 0400 0000
00000130: 0400 0080 0400 0080 0400 0000 0400 0000
00000140: 0400 0000 0400 0000 0400 0000 0400 0000
00000150: 0400 0000 0400 0000 0400 0000 0400 0000
00000160: 0400 0000 0400 0000 0400 0000 0400 0080
00000170: 0400 0000 0400 0000 0400 0000 0400 0000
00000180: 0400 0000 0400 0000 0400 0000 0400 0000
00000190: 0400 0000 0400 0000 0400 0000 0400 0000
000001a0: 0400 0000 0400 0000 0400 0000 0400 0000
000001b0: a993 4fb6 de87 29b6 1172 cdb5 5aa9 89b6
000001c0: 2e8c 5eb6 d4c4 2eb6 abc6 95b6 3b0c 8eb6
000001d0: f067 86b6 0d7a 56b7 bca0 6ab7 dad6 5fb7
000001e0: 363e 55b7 3610 65b7 fc4b 5eb7 ada1 47b7
000001f0: 76b7 53b7 0b63 50b7 301a d836 4a0f c036
00000200: 4304 ae36 c6c1 dc36 0461 c036 788d a236
00000210: 0225 ed36 6a36 d036 35f7 af36 1e45 2938
00000220: 9342 2d38 ff1b 2f38 ebd9 2938 20cc 2d38
00000230: 4e4b 3138 4db5 2738 4e4a 2c38 1733 2f38
00000240: 37ef d0b6 4c8b c9b6 30f0 c8b6 ab00 c1b6
00000250: b8d6 c1b6 d804 c6b6 fff1 98b6 be0f a4b6
00000260: 1bcf aeb6 577e dab6 206c cab6 eafd dfb6
00000270: c73f e1b6 a819 d3b6 1392 e9b6 1bfb eab6
00000280: b162 dcb6 7177 f0b6 602c cd36 0615 ae36
00000290: 195e 3535 e291 d236 9ea7 9836 802e 8735
000002a0: 2bfd e936 de76 a336 59d6 1b35 dbd6 b536
000002b0: 4639 dc36 30c7 ea36 baac a536 15e3 dc36
000002c0: 404b eb36 fedd 8536 9ee7 af36 1517 dc36
000002d0: a057 e2b8 f1b5 deb8 ddaa d5b8 2a67 e2b8
000002e0: 6c24 ddb8 6394 d4b8 c3a1 e1b8 00fd dbb8
000002f0: ad1b d4b8 8163 e6b7 f71c 06b8 5df9 18b8
00000300: 21a9 ecb7 9064 09b8 f3c2 1ab8 6de6 efb7
00000310: 4a10 0bb8 2817 1cb8 ab5d 8236 41b6 8836
00000320: c25b 5d36 055c 6c36 193d 7736 708f 6636
00000330: 1b29 8136 7249 8636 1714 6436 b57f 3db8
00000340: 2316 3cb8 14fe 32b8 a232 3ab8 5309 3ab8
00000350: 5fb9 32b8 6cdc 3ab8 986e 3ab8 07e3 33b8
00000360: dc8f dfb8 2b72 ddb8 8e7b deb8 98a6 dfb8
00000370: 7ee9 deb8 73a9 e1b8 ba93 e0b8 6cbb dfb8
00000380: 35ac e0b8 711c e334 5a13 79b5 569e a234
00000390: 0c89 2f35 2310 f4b4 a575 8a33 c803 9c35
000003a0: a209 3035 75ff 4035 6f6d bd37 10c1 c037
000003b0: ea52 c337 eee2 c037 dcd4 c537 9847 cb37
000003c0: eef8 ca37 4da0 d037 0027 d437 69f5 1fb8
000003d0: ffb1 24b8 79cc 22b8 f08f 24b8 6605 28b8
000003e0: dfac 28b8 9ded 2db8 9c9f 2eb8 dd1f 32b8
000003f0: cbe5 38b7 365f 2cb7 fdb6 2db7 8242 30b7
-5.2715775e-05 -6.10871e-05 -6.931876e-05 -5.094481e-05 -5.775704e-05 -6.766309e-05 -5.04798e-05 -5.6985973e-05
-6.777472e-05 -7.5799435e-05 -7.661271e-05 -7.612418e-05 -7.719744e-05 -7.7703015e-05 -7.707868e-05 -7.706321e-05
-7.7461176e-05 -7.7448625e-05 4.0886258e-05 4.3973516e-05 4.6819543e-05 4.0356426e-05 4.3263848e-05 4.6371024e-05
4.0348234e-05 4.3313008e-05 4.657749e-05 -2.0350959e-05 -2.270057e-05 -2.2649056e-05 -2.0379986e-05 -2.2699156e-05
-2.2983386e-05 -2.1209778e-05 -2.3116814e-05 -2.4263241e-05 -1.5599393e-05 -1.4996961e-05 -1.4881804e-05 -1.6225309e-05
-1.567344e-05 -1.5297808e-05 -1.6653114e-05 -1.6147653e-05 -1.6041839e-05 7.788044e-05 7.9704325e-05 8.201868e-05
7.778162e-05 7.987127e-05 8.172883e-05 7.7701385e-05 7.9448706e-05 8.095628e-05 6e-45 6e-45
6e-45 6e-45 6e-45 6e-45 6e-45 6e-45 6e-45 6e-45
6e-45 6e-45 6e-45 6e-45 6e-45 6e-45 6e-45 6e-45
6e-45 6e-45 6e-45 6e-45 -6e-45 -6e-45 6e-45 6e-45
6e-45 6e-45 6e-45 6e-45 6e-45 6e-45 6e-45 6e-45
6e-45 6e-45 6e-45 -6e-45 6e-45 6e-45 6e-45 6e-45
6e-45 6e-45 6e-45 6e-45 6e-45 6e-45 6e-45 6e-45
6e-45 6e-45 6e-45 6e-45 -3.0931353e-06 -2.5262048e-06 -1.5306888e-06 -4.1026333e-06
-3.3162173e-06 -2.604259e-06 -4.463674e-06 -4.2333536e-06 -4.005611e-06 -1.2783811e-05 -1.3984911e-05 -1.334186e-05
-1.2710274e-05 -1.3653238e-05 -1.3249923e-05 -1.1898967e-05 -1.2619295e-05 -1.2420826e-05 6.4403503e-06 5.723826e-06
5.1861e-06 6.579069e-06 5.73334e-06 4.8444454e-06 7.0674587e-06 6.2052177e-06 5.244185e-06 4.035711e-05
4.1308416e-05 4.1749325e-05 4.049569e-05 4.143652e-05 4.227022e-05 3.9984752e-05 4.1077197e-05 4.1770832e-05
-6.2267313e-06 -6.006483e-06 -5.988426e-06 -5.751926e-06 -5.776845e-06 -5.9014237e-06 -4.558125e-06 -4.8894135e-06
-5.2097143e-06 -6.511614e-06 -6.0326565e-06 -6.6754774e-06 -6.712947e-06 -6.291277e-06 -6.9609464e-06 -7.002976e-06
-6.568e-06 -7.166462e-06 6.114642e-06 5.1880515e-06 6.7564685e-07 6.2754707e-06 4.549466e-06 1.0071817e-06
6.9734137e-06 4.8716165e-06 5.8053917e-07 5.419233e-06 6.5631784e-06 6.996932e-06 4.937491e-06 6.5829468e-06
7.012306e-06 3.989552e-06 5.24237e-06 6.559198e-06 -0.00010792841 -0.00010619674 -0.00010188457 -0.000107957356
-0.00010544885 -0.00010136587 -0.000107589665 -0.00010489859 -0.00010114103 -2.7464472e-05 -3.1975065e-05 -3.647186e-05
-2.821215e-05 -3.2757e-05 -3.689802e-05 -2.859832e-05 -3.3155353e-05 -3.7214864e-05 3.8852063e-06 4.074333e-06
3.2984976e-06 3.5220303e-06 3.6841432e-06 3.4356162e-06 3.849285e-06 4.0020614e-06 3.3986341e-06 -4.5180048e-05
-4.484331e-05 -4.2675136e-05 -4.439301e-05 -4.435454e-05 -4.2611147e-05 -4.455114e-05 -4.4448854e-05 -4.288836e-05
-0.000106602645 -0.00010559367 -0.00010608799 -0.00010664499 -0.00010629276 -0.000107603984 -0.000107086686 -0.00010668379
-0.000107132284 4.230274e-07 -9.278789e-07 3.0290056e-07 6.539201e-07 -4.5460283e-07 6.447525e-08 1.1624006e-06
6.5579127e-07 7.189731e-07 2.2581515e-05 2.2978085e-05 2.3284421e-05 2.2993856e-05 2.358335e-05 2.4232824e-05
2.4196193e-05 2.4870178e-05 2.529053e-05 -3.813711e-05 -3.926642e-05 -3.881424e-05 -3.92347e-05 -4.005935e-05
-4.021532e-05 -4.146771e-05 -4.163348e-05 -4.2468182e-05 -1.10207575e-05 -1.0274167e-05 -1.0354209e-05 -1.05059025e-05

exp_avg_sq f4 [12, 6, 3, 3]
00000000: 32b6 4f34 fc13 4d34 e32c 4c34 33de 4e34
00000010: 9a35 4c34 2464 4b34 3fec 4d34 c842 4b34
00000020: 6856 4a34 a37a 1f33 4ff5 2433 4aad 2633
00000030: 6de1 1f33 4539 2533 25d4 2633 78df 1f33
00000040: b129 2533 f69c 2633 ffa1 6633 98ef 6733
00000050: eae9 6733 b138 6733 bbb1 6833 1a98 6833
00000060: df92 6733 46c5 6833 9cc4 6833 bee7 7f34
00000070: 9444 8034 f674 8034 4c9f 7f34 fe1f 8034
00000080: 324c 8034 d96f 7f34 5606 8034 9638 8034
00000090: f6da f630 8afe fc30 2c76 0031 03f3 f530
000000a0: 8791 fc30 bedc ff30 0c77 f430 8348 fa30
000000b0: 2318 fe30 6efa 0a32 b59d 0832 93f2 0632
000000c0: 82b7 0a32 3780 0832 9ef4 0632 72e5 0a32
000000d0: 3579 0832 43d7 0632 d918 0000 4516 0000
000000e0: e10e 0000 f401 0000 f401 0000 db03 0000
000000f0: f401 0000 f401 0000 f401 0000 f401 0000
00000100: 6d05 0000 5409 0000 2518 0000 ab52 0000
00000110: ed02 0000 740a 0000 5e5a 0000 e322 0000
00000120: f401 0000 f401 0000 f401 0000 1c16 0000
00000130: f401 0000 f401 0000 e0be 0000 5f9b 0000
00000140: f030 0000 fe87 0300 7184 0300 0a8e 0300
00000150: 26e5 0000 f4a2 0100 d540 0300 a81c 0000
00000160: e152 0000 20de 0000 f401 0000 f401 0000
00000170: f401 0000 c833 0000 f401 0000 0303 0000
00000180: 3605 0000 fe68 0000 8059 0000 f401 0000
00000190: f401 0000 f401 0000 f401 0000 f401 0000
000001a0: f401 0000 f401 0000 f401 0000 f401 0000
000001b0: 3818 8131 2c47 7931 0a46 8231 98bc 7e31
000001c0: 63bd 7531 3a95 8031 dd3e 8231 8736 7c31
000001d0: 9ded 8331 9977 aa31 fe39 ae31 8820 ab31
000001e0: 2d99 a931 0284 ac31 e6c5 a931 5f75 a831
000001f0: f071 ab31 319d a831 1816 0d32 63f9 0c32
00000200: 6e23 0c32 709f 0d32 f58f 0d32 f7bd 0c32
00000210: f20a 0d32 770c 0d32 9820 0c32 a3da 0833
00000220: b4af 0933 9f23 0a33 b3c4 0833 f4ae 0933
00000230: b80d 0a33 f6e4 0833 99c0 0933 e927 0a33
00000240: 68c9 e12f 7eaa e12f d1d8 d92f b782 e42f
00000250: c325 e52f 9d6a dc2f 5080 e12f 6573 e12f
00000260: 1144 da2f b7e8 812f fd0a 802f 17df 802f
00000270: 22fc 802f fc39 7f2f 6535 802f 7f9e 802f
00000280: fa0a 7f2f a042 802f 4992 b133 0ded b233
00000290: f5a1 b533 7eba b133 f302 b333 638c b533
000002a0: 2cab b133 9fc8 b233 093f b533 6233 c731
000002b0: bf38 c831 80ff c831 46da c731 8a02 c931
000002c0: c0c4 c931 97a2 c831 d6c7 c931 8884 ca31
000002d0: 72b4 0433 9c10 0633 e95f 0533 4572 0533
000002e0: 02e5 0633 0d07 0633 e70b 0633 c57f 0733
000002f0: de94 0633 0ca9 1733 0c5b 1833 e88b 1833
00000300: 6d7e 1733 2f09 1833 ed46 1833 7c2f 1733
00000310: 42bb 1733 2cf3 1733 dc05 e32f d60a e62f
00000320: e450 e52f 089e e32f 8703 e62f 67f3 e42f
00000330: dee8 e42f 4717 e72f cb61 e62f c802 a032
00000340: d65c a032 52df 9d32 03ff 9f32 bb57 a032
00000350: 35d7 9d32 62db 9f32 ae11 a032 0e8f 9d32
00000360: 9fb6 1d33 0744 1c33 5b6d 1833 0317 1e33
00000370: 2882 1c33 dda6 1833 ef7d 1d33 fe04 1c33
00000380: b4e4 1733 7b90 9231 6116 9031 838d 8b31
00000390: 3ae3 9031 df8b 8e31 0002 8a31 dbbe 8f31
000003a0: 4a5d 8d31 d9e8 8831 4dd9 8d31 b137 8d31
000003b0: 9f3e 8b31 4881 8c31 3104 8c31 c907 8a31
000003c0: 544e 8a31 1589 8931 569b 8731 c3de 3a32
000003d0: d834 3c32 dd5a 3b32 66bd 3b32 0e03 3d32
000003e0: 5dbe 3b32 5f04 3c32 dcee 3c32 858f 3b32
000003f0: a5dc 2130 1ccc 2230 31d4 1e30 6571 1e30
1.934466e-07 1.9099383e-07 1.901531e-07 1.926608e-07 1.901848e-07 1.8942279e-07 1.9178059e-07 1.8930143e-07
1.884415e-07 3.713161e-08 3.8407332e-08 3.8807492e-08 3.7225096e-08 3.8469143e-08 3.884283e-08 3.7223316e-08
3.8454974e-08 3.8792642e-08 5.3698383e-08 5.4001788e-08 5.3996622e-08 5.383544e-08 5.4178354e-08 5.4155045e-08
5.3917457e-08 5.419613e-08 5.4195525e-08 2.3833033e-07 2.3891755e-07 2.3926958e-07 2.3806678e-07 2.3865135e-07
2.3897297e-07 2.3789416e-07 2.3846468e-07 2.388303e-07 1.7961088e-09 1.8407758e-09 1.8693624e-09 1.7895164e-09
1.8376775e-09 1.8616431e-09 1.7787172e-09 1.8210503e-09 1.8487792e-09 8.089598e-09 7.9521e-09 7.8549816e-09
8.074382e-09 7.945395e-09 7.855446e-09 8.084827e-09 7.943801e-09 7.848771e-09 8.914e-42 7.989e-42
5.338e-42 7e-43 7e-43 1.383e-42 7e-43 7e-43 7e-43 7e-43
1.946e-42 3.346e-42 8.661e-42 2.9656e-41 1.05e-42 3.75e-42 3.2418e-41 1.2515e-41
7e-43 7e-43 7e-43 7.931e-42 7e-43 7e-43 6.8473e-41 5.5737e-41
1.7555e-41 3.24291e-40 3.23018e-40 3.2646e-40 8.2203e-41 1.50292e-40 2.98764e-40 1.028e-41
2.9731e-41 7.9683e-41 7e-43 7e-43 7e-43 1.8576e-41 7e-43 1.08e-42
1.87e-42 3.7664e-41 3.2107e-41 7e-43 7e-43 7e-43 7e-43 7e-43
7e-43 7e-43 7e-43 7e-43 3.7571475e-09 3.6274725e-09 3.7914605e-09 3.7069068e-09
3.5759846e-09 3.7422554e-09 3.7906447e-09 3.6701822e-09 3.8396153e-09 4.961248e-09 5.0706594e-09 4.9804534e-09
4.9359614e-09 5.0208664e-09 4.941046e-09 4.902787e-09 4.989708e-09 4.907314e-09 8.212304e-09 8.2057765e-09
8.157128e-09 8.243532e-09 8.240012e-09 8.1922655e-09 8.209769e-09 8.210114e-09 8.1564835e-09 3.1863816e-08
3.20576e-08 3.2163026e-08 3.1843864e-08 3.2056917e-08 3.2143106e-08 3.1873206e-08 3.2072965e-08 3.2166927e-08
4.107037e-10 4.1048404e-10 3.9626127e-10 4.1565837e-10 4.168169e-10 4.009352e-10 4.1018433e-10 4.1009254e-10
3.9702333e-10 2.3630317e-10 2.3290872e-10 2.344158e-10 2.3462216e-10 2.3212715e-10 2.3321003e-10 2.3395683e-10
2.3196015e-10 2.3330404e-10 8.268814e-08 8.33189e-08 8.457929e-08 8.2761275e-08 8.3358735e-08 8.4540055e-08
8.273341e-08 8.325264e-08 8.439935e-08 5.797504e-09 5.8272174e-09 5.849813e-09 5.816477e-09 5.8501586e-09
5.872238e-09 5.8392504e-09 5.8725886e-09 5.894041e-09 3.089776e-08 3.1214412e-08 3.1053705e-08 3.1070403e-08
3.1407588e-08 3.120572e-08 3.121013e-08 3.1548343e-08 3.13347e-08 3.5311174e-08 3.5473064e-08 3.5517502e-08
3.527241e-08 3.539861e-08 3.5454764e-08 3.5200614e-08 3.5327737e-08 3.537859e-08 4.1295223e-10 4.1844456e-10
4.1712334e-10 4.1403347e-10 4.1839263e-10 4.1645906e-10 4.163842e-10 4.2035195e-10 4.1906242e-10 1.8627716e-08
1.8668668e-08 1.837876e-08 1.8626002e-08 1.8666347e-08 1.837507e-08 1.86098e-08 1.8634491e-08 1.834226e-08
3.6720504e-08 3.638345e-08 3.5489716e-08 3.680817e-08 3.6439957e-08 3.554202e-08 3.6668947e-08 3.632612e-08
3.536543e-08 4.2655848e-09 4.1934958e-09 4.0615205e-09 4.2167843e-09 4.1486454e-09 4.016556e-09 4.1835455e-09
4.114246e-09 3.9845927e-09 4.1283443e-09 4.1099715e-09 4.0525516e-09 4.089234e-09 4.0750128e-09 4.0172137e-09
4.0252335e-09 4.002809e-09 3.9466768e-09 1.0877275e-08 1.09550555e-08 1.09054925e-08 1.0927897e-08 1.10019425e-08
1.0928116e-08 1.0944034e-08 1.0997351e-08 1.0917465e-08 5.8885014e-10 5.9225314e-10 5.778161e-10 5.764121e-10

exp_avg f4 [12]
00000000: ee57 b335 0400 0000 23c4 c737 dd47 a7b8
00000010: ccd3 58b7 d8a7 27b8 954a 60b7 0400 0000
00000020: 9bb0 8837 a1e9 dd34 2434 9037 c7ca 34b8
1.336213e-06 6e-45 2.3813982e-05 -7.976566e-05 -1.2923916e-05 -3.997222e-05 -1.3368805e-05 6e-45
1.6294702e-05 4.1334445e-07 1.7190418e-05 -4.3104195e-05

exp_avg_sq f4 [12]
00000000: 3949 3134 d05b 0100 18f5 ae32 bc56 d532
00000010: 9467 a731 df60 0234 d62b 6e32 f401 0000
00000020: a7fa db31 47c1 f132 4ee9 8431 88ad dc33
1.6511048e-07 1.24772e-40 2.0367722e-08 2.4835906e-08 4.872115e-09 1.2142435e-07 1.386339e-08 7e-43
6.4022347e-09 2.8143985e-08 3.8682293e-09 1.02761135e-07

exp_avg f4 [24, 12, 4, 4]
00000000: 0000 0000 0000 0000 0000 0000 0400 0000
00000010: 0000 0000 0000 0000 0000 0000 0400 0000
00000020: 0400 0000 0000 0000 0000 0000 0400 0000
00000030: 0000 0000 0000 0000 0000 0000 0400 0000
00000040: 0000 0000 0000 0000 0000 0000 0000 0000
00000050: 0000 0000 0000 0000 0000 0000 0000 0000
00000060: 0000 0000 0000 0000 0000 0000 0000 0000
00000070: 0000 0000 0000 0000 0000 0000 0000 0000
00000080: 0000 0000 0000 0000 0000 0000 0000 0000
00000090: 0000 0000 0000 0000 0000 0000 0000 0000
000000a0: 0000 0000 0000 0000 0000 0000 0000 0000
000000b0: 0000 0000 0000 0000 0000 0000 0000 0000
000000c0: 0400 0000 0400 0000 0400 0000 0400 0000
000000d0: 0400 0000 0400 0000 0400 0000 0400 0000
000000e0: 0400 0000 0400 0000 0400 0000 0400 0000
000000f0: 0400 0000 0400 0000 0400 0000 0400 0000
00000100: 0400 0000 0000 0000 0000 0000 0400 0000
00000110: 0400 0000 0000 0000 0000 0000 0400 0000
00000120: 0400 0000 0000 0000 0000 0000 0400 0000
00000130: 0400 0000 0000 0000 0000 0000 0400 0000
00000140: 0400 0000 0400 0000 0400 0000 0400 0000
00000150: 0400 0000 0400 0000 0400 0000 0400 0000
00000160: 0400 0000 0400 0000 0400 0000 0400 0000
00000170: 0400 0000 0400 0000 0400 0000 0400 0000
00000180: 0400 0000 0400 0000 0400 0000 0400 0000
00000190: 0400 0000 0400 0000 0400 0000 0400 0000
000001a0: 0400 0000 0400 0000 0400 0000 0400 0000
000001b0: 0400 0000 0400 0000 0400 0000 0400 0000
000001c0: 0000 0000 0000 0000 0000 0000 0000 0000
000001d0: 0000 0000 0000 0000 0000 0000 0000 0000
000001e0: 0000 0000 0000 0000 0000 0000 0000 0000
000001f0: 0000 0000 0000 0000 0000 0000 0000 0000
00000200: 0400 0000 0400 0000 0400 0000 0400 0000
00000210: 0400 0000 0400 0000 0400 0000 0400 0000
00000220: 0400 0000 0400 0000 0400 0000 0400 0000
00000230: 0400 0000 0400 0000 0400 0000 0400 0000
00000240: 0400 0000 0400 0000 0400 0000 0400 0000
00000250: 0400 0000 0400 0000 0400 0000 0400 0000
00000260: 0400 0000 0400 0000 0400 0000 0400 0000
00000270: 0400 0000 0400 0000 0400 0000 0400 0000
00000280: 0400 0000 0400 0000 0400 0000 0400 0000
00000290: 0400 0000 0400 0000 0400 0000 0400 0000
000002a0: 0400 0000 0400 0000 0400 0000 0400 0000
000002b0: 0400 0000 0400 0000 0400 0000 0400 0000
000002c0: 0000 0000 0000 0000 0000 0000 0000 0000
000002d0: 0000 0000 0000 0000 0000 0000 0000 0000
000002e0: 0000 0000 0000 0000 0000 0000 0000 0000
000002f0: 0000 0000 0000 0000 0000 0000 0000 0000
00000300: 0400 0000 0000 0000 0000 0000 0000 0000
00000310: 0400 0000 0000 0000 0000 0000 0000 0000
00000320: 0400 0000 0000 0000 0000 0000 0000 0000
00000330: 0400 0000 0400 0000 0400 0000 0400 0000
00000340: 0000 0000 0000 0000 0000 0000 0000 0000
00000350: 0000 0000 0000 0000 0000 0000 0000 0000
00000360: 0000 0000 0000 0000 0000 0000 0000 0000
00000370: 0000 0000 0000 0000 0000 0000 0000 0000
00000380: 0400 0000 0400 0000 0000 0000 0000 0000
00000390: 0400 0000 0000 0000 0000 0000 0000 0000
000003a0: 0400 0000 0000 0000 0400 0000 0400 0000
000003b0: 0000 0000 0000 0000 0000 0000 0000 0000
000003c0: 0400 0000 0400 0000 0400 0000 0400 0000
000003d0: 0400 0000 0400 0000 0400 0000 0400 0000
000003e0: 0400 0000 0400 0000 0400 0000 0400 0000
000003f0: 0400 0000 0400 0000 0400 0000 0400 0000
0.0 0.0 0.0 6e-45 0.0 0.0 0.0 6e-45
6e-45 0.0 0.0 6e-45 0.0 0.0 0.0 6e-45
0.0 0.0 0.0 0.0 0.0 0.0 0.0 0.0
0.0 0.0 0.0 0.0 0.0 0.0 0.0 0.0
0.0 0.0 0.0 0.0 0.0 0.0 0.0 0.0
0.0 0.0 0.0 0.0 0.0 0.0 0.0 0.0
6e-45 6e-45 6e-45 6e-45 6e-45 6e-45 6e-45 6e-45
6e-45 6e-45 6e-45 6e-45 6e-45 6e-45 6e-45 6e-45
6e-45 0.0 0.0 6e-45 6e-45 0.0 0.0 6e-45
6e-45 0.0 0.0 6e-45 6e-45 0.0 0.0 6e-45
6e-45 6e-45 6e-45 6e-45 6e-45 6e-45 6e-45 6e-45
6e-45 6e-45 6e-45 6e-45 6e-45 6e-45 6e-45 6e-45
6e-45 6e-45 6e-45 6e-45 6e-45 6e-45 6e-45 6e-45
6e-45 6e-45 6e-45 6e-45 6e-45 6e-45 6e-45 6e-45
0.0 0.0 0.0 0.0 0.0 0.0 0.0 0.0
0.0 0.0 0.0 0.0 0.0 0.0 0.0 0.0
6e-45 6e-45 6e-45 6e-45 6e-45 6e-45 6e-45 6e-45
6e-45 6e-45 6e-45 6e-45 6e-45 6e-45 6e-45 6e-45
6e-45 6e-45 6e-45 6e-45 6e-45 6e-45 6e-45 6e-45
6e-45 6e-45 6e-45 6e-45 6e-45 6e-45 6e-45 6e-45
6e-45 6e-45 6e-45 6e-45 6e-45 6e-45 6e-45 6e-45
6e-45 6e-45 6e-45 6e-45 6e-45 6e-45 6e-45 6e-45
0.0 0.0 0.0 0.0 0.0 0.0 0.0 0.0
0.0 0.0 0.0 0.0 0.0 0.0 0.0 0.0
6e-45 0.0 0.0 0.0 6e-45 0.0 0.0 0.0
6e-45 0.0 0.0 0.0 6e-45 6e-45 6e-45 6e-45
0.0 0.0 0.0 0.0 0.0 0.0 0.0 0.0
0.0 0.0 0.0 0.0 0.0 0.0 0.0 0.0
6e-45 6e-45 0.0 0.0 6e-45 0.0 0.0 0.0
6e-45 0.0 6e-45 6e-45 0.0 0.0 0.0 0.0
6e-45 6e-45 6e-45 6e-45 6e-45 6e-45 6e-45 6e-45
6e-45 6e-45 6e-45 6e-45 6e-45 6e-45 6e-45 6e-45

exp_avg_sq f4 [24, 12, 4, 4]
00000000: 0000 0000 0000 0000 0000 0000 f401 0000
00000010: 0000 0000 0000 0000 0000 0000 f401 0000
00000020: f401 0000 0000 0000 0000 0000 f401 0000
00000030: 0000 0000 0000 0000 0000 0000 f401 0000
00000040: 0000 0000 0000 0000 0000 0000 0000 0000
00000050: 0000 0000 0000 0000 0000 0000 0000 0000
00000060: 0000 0000 0000 0000 0000 0000 0000 0000
00000070: 0000 0000 0000 0000 0000 0000 0000 0000
00000080: 0000 0000 0000 0000 0000 0000 0000 0000
00000090: 0000 0000 0000 0000 0000 0000 0000 0000
000000a0: 0000 0000 0000 0000 0000 0000 0000 0000
000000b0: 0000 0000 0000 0000 0000 0000 0000 0000
000000c0: f401 0000 f401 0000 f401 0000 f401 0000
000000d0: f401 0000 f401 0000 f401 0000 f401 0000
000000e0: f401 0000 f401 0000 f401 0000 f401 0000
000000f0: f401 0000 f401 0000 f401 0000 f401 0000
00000100: f401 0000 0000 0000 0000 0000 f401 0000
00000110: f401 0000 0000 0000 0000 0000 f401 0000
00000120: f401 0000 0000 0000 0000 0000 f401 0000
00000130: f401 0000 0000 0000 0000 0000 f401 0000
00000140: f401 0000 f401 0000 f401 0000 f401 0000
00000150: f401 0000 f401 0000 f401 0000 f401 0000
00000160: f401 0000 f401 0000 f401 0000 f401 0000
00000170: f401 0000 f401 0000 f401 0000 f401 0000
00000180: f401 0000 f401 0000 f401 0000 f401 0000
00000190: f401 0000 f401 0000 f401 0000 f401 0000
000001a0: f401 0000 f401 0000 f401 0000 f401 0000
000001b0: f401 0000 f401 0000 f401 0000 f401 0000
000001c0: 0000 0000 0000 0000 0000 0000 0000 0000
000001d0: 0000 0000 0000 0000 0000 0000 0000 0000
000001e0: 0000 0000 0000 0000 0000 0000 0000 0000
000001f0: 0000 0000 0000 0000 0000 0000 0000 0000
00000200: f401 0000 f401 0000 f401 0000 f401 0000
00000210: f401 0000 f401 0000 f401 0000 f401 0000
00000220: f401 0000 f401 0000 f401 0000 f401 0000
00000230: f401 0000 f401 0000 f401 0000 f401 0000
00000240: f401 0000 f401 0000 f401 0000 f401 0000
00000250: f401 0000 f401 0000 f401 0000 f401 0000
00000260: f401 0000 f401 0000 f401 0000 f401 0000
00000270: f401 0000 f401 0000 f401 0000 f401 0000
00000280: f401 0000 f401 0000 f401 0000 f401 0000
00000290: f401 0000 f401 0000 f401 0000 f401 0000
000002a0: f401 0000 f401 0000 f401 0000 f401 0000
000002b0: f401 0000 f401 0000 f401 0000 f401 0000
000002c0: 0000 0000 0000 0000 0000 0000 0000 0000
000002d0: 0000 0000 0000 0000 0000 0000 0000 0000
000002e0: 0000 0000 0000 0000 0000 0000 0000 0000
000002f0: 0000 0000 0000 0000 0000 0000 0000 0000
00000300: f401 0000 0000 0000 0000 0000 0000 0000
00000310: f401 0000 0000 0000 0000 0000 0000 0000
00000320: f401 0000 0000 0000 0000 0000 0000 0000
00000330: f401 0000 f401 0000 f401 0000 f401 0000
00000340: 0000 0000 0000 0000 0000 0000 0000 0000
00000350: 0000 0000 0000 0000 0000 0000 0000 0000
00000360: 0000 0000 0000 0000 0000 0000 0000 0000
00000370: 0000 0000 0000 0000 0000 0000 0000 0000
00000380: f401 0000 f401 0000 0000 0000 0000 0000
00000390: f401 0000 0000 0000 0000 0000 0000 0000
000003a0: f401 0000 0000 0000 f401 0000 f401 0000
000003b0: 0000 0000 0000 0000 0000 0000 0000 0000
000003c0: f401 0000 f401 0000 f401 0000 f401 0000
000003d0: f401 0000 f401 0000 f401 0000 f401 0000
000003e0: f401 0000 f401 0000 f401 0000 f401 0000
000003f0: f401 0000 f401 0000 f401 0000 f401 0000
0.0 0.0 0.0 7e-43 0.0 0.0 0.0 7e-43
7e-43 0.0 0.0 7e-43 0.0 0.0 0.0 7e-43
0.0 0.0 0.0 0.0 0.0 0.0 0.0 0.0
0.0 0.0 0.0 0.0 0.0 0.0 0.0 0.0
0.0 0.0 0.0 0.0 0.0 0.0 0.0 0.0
0.0 0.0 0.0 0.0 0.0 0.0 0.0 0.0
7e-43 7e-43 7e-43 7e-43 7e-43 7e-43 7e-43 7e-43
7e-43 7e-43 7e-43 7e-43 7e-43 7e-43 7e-43 7e-43
7e-43 0.0 0.0 7e-43 7e-43 0.0 0.0 7e-43
7e-43 0.0 0.0 7e-43 7e-43 0.0 0.0 7e-43
7e-43 7e-43 7e-43 7e-43 7e-43 7e-43 7e-43 7e-43
7e-43 7e-43 7e-43 7e-43 7e-43 7e-43 7e-43 7e-43
7e-43 7e-43 7e-43 7e-43 7e-43 7e-43 7e-43 7e-43
7e-43 7e-43 7e-43 7e-43 7e-43 7e-43 7e-43 7e-43
0.0 0.0 0.0 0.0 0.0 0.0 0.0 0.0
0.0 0.0 0.0 0.0 0.0 0.0 0.0 0.0
7e-43 7e-43 7e-43 7e-43 7e-43 7e-43 7e-43 7e-43
7e-43 7e-43 7e-43 7e-43 7e-43 7e-43 7e-43 7e-43
7e-43 7e-43 7e-43 7e-43 7e-43 7e-43 7e-43 7e-43
7e-43 7e-43 7e-43 7e-43 7e-43 7e-43 7e-43 7e-43
7e-43 7e-43 7e-43 7e-43 7e-43 7e-43 7e-43 7e-43
7e-43 7e-43 7e-43 7e-43 7e-43 7e-43 7e-43 7e-43
0.0 0.0 0.0 0.0 0.0 0.0 0.0 0.0
0.0 0.0 0.0 0.0 0.0 0.0 0.0 0.0
7e-43 0.0 0.0 0.0 7e-43 0.0 0.0 0.0
7e-43 0.0 0.0 0.0 7e-43 7e-43 7e-43 7e-43
0.0 0.0 0.0 0.0 0.0 0.0 0.0 0.0
0.0 0.0 0.0 0.0 0.0 0.0 0.0 0.0
7e-43 7e-43 0.0 0.0 7e-43 0.0 0.0 0.0
7e-43 0.0 7e-43 7e-43 0.0 0.0 0.0 0.0
7e-43 7e-43 7e-43 7e-43 7e-43 7e-43 7e-43 7e-43
7e-43 7e-43 7e-43 7e-43 7e-43 7e-43 7e-43 7e-43

exp_avg f4 [24]
00000000: 0400 0000 0400 0000 171f 0ab7 2c70 4d2c
00000010: dacb d332 cc53 d036 d710 a335 f55d 0d2d
00000020: b84a 9eac 0400 0000 7fbb ef31 0400 0000
00000030: eca7 6fad 0400 0000 e5be 6033 43f1 1fb6
00000040: 364d 6d32 e831 9b36 0400 0000 0400 0000
00000050: fbc9 96ac 0000 0000 0400 0000 0400 0000
6e-45 6e-45 -8.23268e-06 2.919452e-12 2.4656334e-08 6.2086383e-06 1.2149347e-06 8.035785e-12
-4.4989255e-12 6e-45 6.9771313e-09 6e-45 -1.3622863e-11 6e-45 5.232768e-08 -2.383328e-06
1.3812771e-08 4.62517e-06 6e-45 6e-45 -4.2856808e-12 0.0 6e-45 6e-45

exp_avg_sq f4 [24]
00000000: f401 0000 f401 0000 b9af 0c30 5896 9423
00000010: 489e 4629 d4a0 932f 4fd0 992f a69f c31b
00000020: d3e2 4523 f401 0000 199b 5d28 f401 0000
00000030: 7fd0 ba26 f401 0000 e24f 4228 93fb 0f2c
00000040: a5c3 b728 e7fe e32e f401 0000 f401 0000
00000050: f81f c81b 0000 0000 f401 0000 3224 0000
7e-43 7e-43 5.118142e-10 1.6109865e-17 4.410212e-14 2.685342e-10 2.797855e-10 3.2363214e-22
1.0727423e-17 7e-43 1.2301596e-14 7e-43 1.2962856e-15 7e-43 1.0786485e-14 2.0461174e-12
2.0401929e-14 1.03680446e-10 7e-43 7e-43 3.3107884e-22 0.0 7e-43 1.2984e-41

exp_avg f4 [48, 24, 3, 3]
00000000: 0400 0080 0000 0000 0400 0080 0000 0000
00000010: 0000 0000 0000 0000 0400 0080 0000 0000
00000020: 0400 0080 0000 0000 0400 0080 0000 0000
00000030: 0000 0000 0000 0000 0000 0000 0000 0000
00000040: 0400 0080 0000 0000 24b8 1236 2db2 c635
00000050: 169a 4b36 d71a 1d36 c552 2f36 6465 8336
00000060: 0789 6136 2039 8236 27bc 9636 722f cb35
00000070: 7bf5 0135 e478 1036 2bc5 2b36 8cd1 f735
00000080: b3c0 e635 4848 6f36 2d14 7536 74af 3536
00000090: 0efe 5735 4edc 7f34 4a80 dcb5 5c31 1836
000000a0: b144 fd34 fa53 c0b5 b29c 0436 9598 62b5
000000b0: d040 adb5 ab88 c135 4e17 0b36 b3f6 3c33
000000c0: d7ca ca35 d1b5 0336 f717 b3b2 7cdb ed35
000000d0: e99b 0236 c4a4 0435 878b aa34 182c 5734
000000e0: e8b3 fbb5 0290 f3b4 88cd a7b5 bd78 5bb6
000000f0: ee8d ddb5 c32e 22b6 e27a 72b6 aaab df35
00000100: dfd1 3935 93a2 fd35 e447 ee35 eb6d 8635
00000110: 84e6 fb35 dbc2 d735 49cc 66b4 e685 8935
00000120: 878b e135 0987 fc35 e98d 7d33 dde1 8135
00000130: 0e99 8135 a4b2 cdb5 23b8 f0b4 6785 3e34
00000140: 7053 0db6 0400 0080 0400 0080 0400 0080
00000150: 0400 0080 0400 0080 0400 0080 0400 0080
00000160: 0400 0080 0400 0080 b653 2535 1f56 e3b3
00000170: 1d01 7d35 6272 b335 97c5 e034 3ee8 8e35
00000180: d014 a335 700e 03b5 461b dbb2 0400 0080
00000190: 0400 0080 0400 0080 0400 0080 0400 0000
000001a0: 0400 0080 0400 0080 0400 0000 0400 0080
000001b0: 91e9 a3b5 91dd 90b5 67bb fab5 01db 52b5
000001c0: 87bf 5fb5 a57b e9b5 a0f3 b0b5 5de2 e0b4
000001d0: f710 2fb5 0400 0080 0400 0080 0400 0080
000001e0: 0400 0080 0400 0080 0400 0080 0400 0080
000001f0: 0400 0080 0400 0080 6a79 7ab5 9b9c 11b6
00000200: 5027 c8b5 9a9d a3b3 5758 24b6 933f c0b5
00000210: 30c5 75b5 7a4c 2ab6 ac1d b3b5 08b1 05b6
00000220: 9961 a0b5 ecdd 7135 6194 ddb5 aa4d b8b5
00000230: a411 2335 e45b 1eb6 006a 11b6 e5f1 7f32
00000240: 375f c1b3 4692 4bb4 aea7 81b4 fdfd 8a33
00000250: ed1e a4b5 ac9b 8f33 9597 7a35 6ad7 b135
00000260: 15c4 8e33 56b3 75b5 f131 beb5 a130 8cb5
00000270: 55fa a2b5 2b5a 40b5 a481 be33 ed8e 75b4
00000280: 130b b535 aa9d 4736 0400 0000 0400 0000
00000290: 0400 0000 0400 0000 0400 0000 0400 0000
000002a0: 0400 0000 0400 0000 0400 0000 0400 0000
000002b0: 0400 0080 0400 0080 0400 0000 0400 0000
000002c0: 0400 0080 0400 0000 0400 0000 0400 0080
000002d0: 322d 33b6 a48d be34 ef27 3eb5 b559 0cb6
000002e0: eeb6 4135 4bbc 38b5 df6d 2bb6 6147 4635
000002f0: 9b60 e4b4 0000 0000 0000 0000 0000 0000
00000300: 0000 0000 0000 0000 0000 0000 0000 0000
00000310: 0000 0000 0000 0000 0400 0000 0400 0000
00000320: 0400 0000 0400 0000 0000 0000 0400 0000
00000330: 0400 0000 0400 0080 0400 0000 0400 0080
00000340: 0400 0080 0400 0080 0400 0080 0400 0080
00000350: 0400 0080 0400 0080 0400 0080 0400 0080
00000360: 0400 0080 0000 0000 0400 0080 0000 0000
00000370: 0000 0000 0000 0000 0400 0080 0000 0000
00000380: 0400 0080 0000 0000 0400 0000 0000 0000
00000390: 0000 0000 0000 0000 0000 0000 0000 0000
000003a0: 0400 0000 0000 0000 a5de 1e36 c2e1 1536
000003b0: 6042 3636 bbe0 8435 d10f e535 8b5e 3936
000003c0: 8a72 ac35 5d2c 0f36 11a1 7536 0c08 de36
000003d0: 433a d836 4cca 2d36 1e6a d936 31ef cf36
000003e0: 6813 3036 bd9b df36 17dd c036 7b4a 3c36
000003f0: 0c6d 8336 2490 fd35 fd19 7835 c651 4736
-6e-45 0.0 -6e-45 0.0 0.0 0.0 -6e-45 0.0
-6e-45 0.0 -6e-45 0.0 0.0 0.0 0.0 0.0
-6e-45 0.0 2.186288e-06 1.4804006e-06 3.0339047e-06 2.3410446e-06 2.612521e-06 3.9159077e-06
3.3607373e-06 3.880952e-06 4.492252e-06 1.5138487e-06 4.8413466e-07 2.152804e-06 2.5595753e-06 1.846392e-06
1.7192418e-06 3.5655848e-06 3.6519589e-06 2.707323e-06 8.046344e-07 2.3828872e-07 -1.6428614e-06 2.2678496e-06
4.7174902e-07 -1.4329555e-06 1.9760741e-06 -8.4413597e-07 -1.2908367e-06 1.4419396e-06 2.072618e-06 4.3996533e-08
1.5109207e-06 1.9626352e-06 -2.084924e-08 1.7721754e-06 1.9462261e-06 4.94136e-07 3.1766487e-07 2.0039477e-07
-1.8753317e-06 -4.5367057e-07 -1.2502287e-06 -3.2703822e-06 -1.650709e-06 -2.41671e-06 -3.6132337e-06 1.6664756e-06
6.9223273e-07 1.8897284e-06 1.7753305e-06 1.0015768e-06 1.8768046e-06 1.6075459e-06 -2.1494738e-07 1.0246265e-06
1.6804414e-06 1.8814764e-06 5.903522e-08 9.676984e-07 9.655794e-07 -1.5325681e-06 -4.483746e-07 1.774366e-07
-2.1059204e-06 -6e-45 -6e-45 -6e-45 -6e-45 -6e-45 -6e-45 -6e-45
-6e-45 -6e-45 6.1589105e-07 -1.05861766e-07 9.4251465e-07 1.3369829e-06 4.1867017e-07 1.0647416e-06
1.2150504e-06 -4.882231e-07 -2.5507358e-08 -6e-45 -6e-45 -6e-45 -6e-45 6e-45
-6e-45 -6e-45 6e-45 -6e-45 -1.2212423e-06 -1.079332e-06 -1.8680993e-06 -7.854979e-07
-8.335268e-07 -1.7395838e-06 -1.3183926e-06 -4.1887952e-07 -6.521727e-07 -6e-45 -6e-45 -6e-45
-6e-45 -6e-45 -6e-45 -6e-45 -6e-45 -6e-45 -9.330894e-07 -2.169784e-06
-1.4912603e-06 -7.6189465e-08 -2.4489325e-06 -1.4323617e-06 -9.155656e-07 -2.537649e-06 -1.3345175e-06 -1.992159e-06
-1.1949334e-06 9.0102435e-07 -1.6508967e-06 -1.3731672e-06 6.07479e-07 -2.3597322e-06 -2.1668384e-06 1.4897954e-08
-9.004582e-08 -1.8959062e-07 -2.4150125e-07 6.472326e-08 -1.2227953e-06 6.687273e-08 9.335284e-07 1.3250221e-06
6.6480574e-08 -9.153058e-07 -1.4170638e-06 -1.0444966e-06 -1.2142797e-06 -7.1656785e-07 8.871146e-08 -2.2869399e-07
1.3488774e-06 2.9745083e-06 6e-45 6e-45 6e-45 6e-45 6e-45 6e-45
6e-45 6e-45 6e-45 6e-45 -6e-45 -6e-45 6e-45 6e-45
-6e-45 6e-45 6e-45 -6e-45 -2.6699386e-06 3.5493315e-07 -7.0838627e-07 -2.0913842e-06
7.21643e-07 -6.8819344e-07 -2.554494e-06 7.386462e-07 -4.25386e-07 0.0 0.0 0.0
0.0 0.0 0.0 0.0 0.0 0.0 6e-45 6e-45
6e-45 6e-45 0.0 6e-45 6e-45 -6e-45 6e-45 -6e-45
-6e-45 -6e-45 -6e-45 -6e-45 -6e-45 -6e-45 -6e-45 -6e-45
-6e-45 0.0 -6e-45 0.0 0.0 0.0 -6e-45 0.0
-6e-45 0.0 6e-45 0.0 0.0 0.0 0.0 0.0
6e-45 0.0 2.367343e-06 2.2334139e-06 2.7158749e-06 9.900172e-07 1.7066433e-06 2.762218e-06
1.2848334e-06 2.1334483e-06 3.6601598e-06 6.6170523e-06 6.444084e-06 2.5896761e-06 6.4794576e-06 6.1969263e-06
2.623734e-06 6.664048e-06 5.747784e-06 2.8057536e-06 3.916799e-06 1.8891919e-06 9.242502e-07 2.970091e-06

exp_avg_sq f4 [48, 24, 3, 3]
00000000: f401 0000 0000 0000 f401 0000 0000 0000
00000010: 0000 0000 0000 0000 f401 0000 0000 0000
00000020: f401 0000 0000 0000 f401 0000 0000 0000
00000030: 0000 0000 0000 0000 0000 0000 0000 0000
00000040: f401 0000 0000 0000 cfa4 d42f d1bb ed2f
00000050: 0b08 be2f 123f d92f 5c04 f12f 721a bd2f
00000060: 5bd6 db2f a33a f12f 400d c12f 3647 3f2f
00000070: 8ac6 3a2f 0980 192f a4c2 4b2f ea03 422f
00000080: 71b4 1a2f 8705 502f 652c 482f ffd9 1e2f
00000090: 5a42 292f 58ca 232f b277 1d2f f300 2d2f
000000a0: b41d 2a2f 740a 1e2f 859b 2c2f 262a 282f
000000b0: 1a63 162f fd68 8b2e eddb 8d2e 4469 6f2e
000000c0: a123 8d2e d1a6 892e 82e3 682e 2367 8e2e
000000d0: 283e 8a2e d057 662e 95ad 9f2f 82ab aa2f
000000e0: 142e 932f d608 a22f f4be ae2f 12a9 932f
000000f0: 4b88 a12f a78f ad2f 7fa0 942f 07b0 052f
00000100: 7f4d ff2e 959f de2e ab43 0a2f 1b6a fb2e
00000110: c579 de2e 439f 032f 3190 fb2e 7916 cf2e
00000120: 4e8e 7d2f 0712 9c2f f081 9c2f 0b07 7e2f
00000130: 19df 9e2f 005b 9b2f 460d 852f 3e09 a32f
00000140: cb44 a12f f401 0000 f401 0000 f401 0000
00000150: f401 0000 f401 0000 f401 0000 f401 0000
00000160: f401 0000 f401 0000 426f 162e a169 372e
00000170: 5e53 332e d5af 302e b2ef 492e 427f 502e
00000180: 49bf 182e 89d4 422e 0d92 322e f401 0000
00000190: f401 0000 f401 0000 f401 0000 f401 0000
000001a0: f401 0000 f401 0000 f401 0000 f401 0000
000001b0: 755d 182f 8741 1e2f eb63 042f 4591 202f
000001c0: 9926 232f f2d7 062f 07ea 272f a982 212f
000001d0: 6bc3 072f f401 0000 f401 0000 f401 0000
000001e0: f401 0000 f401 0000 f401 0000 f401 0000
000001f0: f401 0000 f401 0000 dc8b 8b2f d7d0 8b2f
00000200: 172b 7e2f 0a24 8e2f 3249 8f2f 4b20 802f
00000210: a34e 892f 5a87 8d2f 9a54 802f 8154 992e
00000220: b86c ab2e dc29 8c2e 9578 982e e643 a82e
00000230: f4d8 872e 3e95 9c2e 60e1 a12e 06a3 882e
00000240: 12ed 532e cd9d 642e a65f 1f2e 7312 812e
00000250: 92c7 532e 92dd 292e 474e 7d2e 021c 3b2e
00000260: 77b9 162e f9ca 3e2e c37f 4a2e 8c3d 3c2e
00000270: 95cc 492e fc94 562e a781 382e a3bb 3a2e
00000280: e633 702e 3e5d 4c2e f401 0000 f401 0000
00000290: f401 0000 f401 0000 f401 0000 f401 0000
000002a0: f401 0000 f401 0000 f401 0000 f401 0000
000002b0: f401 0000 f401 0000 f401 0000 f401 0000
000002c0: f401 0000 f401 0000 f401 0000 f401 0000
000002d0: 28ca 152f 0991 1d2f 6161 0b2f 152a 1d2f
000002e0: d0c3 292f 8803 0e2f 74a7 1f2f 0704 2c2f
000002f0: 3741 0c2f 0000 0000 0000 0000 0000 0000
00000300: 0000 0000 0000 0000 0000 0000 0000 0000
00000310: 0000 0000 0000 0000 f401 0000 f401 0000
00000320: f401 0000 f401 0000 0000 0000 f401 0000
00000330: f401 0000 f401 0000 f401 0000 f401 0000
00000340: f401 0000 f401 0000 f401 0000 f401 0000
00000350: f401 0000 f401 0000 f401 0000 f401 0000
00000360: f401 0000 0000 0000 f401 0000 0000 0000
00000370: 0000 0000 0000 0000 f401 0000 0000 0000
00000380: f401 0000 0000 0000 f401 0000 0000 0000
00000390: 0000 0000 0000 0000 0000 0000 0000 0000
000003a0: f401 0000 0000 0000 cb60 8a2f 6c2a 802f
000003b0: ec47 512f 12cd 8d2f ee1a 802f d3ba 512f
000003c0: 5b51 8c2f f4a5 7a2f 4dc6 4c2f c8f5 7d2f
000003d0: 8d3a 572f bbbd 2a2f c949 862f 94b6 5f2f
000003e0: 91be 2f2f 216a 882f 1e45 612f 9af7 312f
000003f0: 3da0 282f df19 212f e1e6 132f 98c5 282f
7e-43 0.0 7e-43 0.0 0.0 0.0 7e-43 0.0
7e-43 0.0 7e-43 0.0 0.0 0.0 0.0 0.0
7e-43 0.0 3.867968e-10 4.32435e-10 3.4566514e-10 3.9516884e-10 4.3840742e-10 3.439769e-10
3.9988177e-10 4.3879309e-10 3.511591e-10 1.7396648e-10 1.6987137e-10 1.3960756e-10 1.8531893e-10 1.7645588e-10
1.4070324e-10 1.8919454e-10 1.8205666e-10 1.4447464e-10 1.5394033e-10 1.489665e-10 1.4321591e-10 1.5734596e-10
1.5471963e-10 1.437373e-10 1.569856e-10 1.5294485e-10 1.3677628e-10 6.339638e-11 6.451004e-11 5.4435803e-11
6.4182666e-11 6.259671e-11 5.295276e-11 6.475733e-11 6.2865546e-11 5.237394e-11 2.904527e-10 3.1044683e-10
2.6771885e-10 2.9473907e-10 3.1786096e-10 2.6859276e-10 2.938257e-10 3.1570588e-10 2.7035083e-10 1.2158817e-10
1.16098235e-10 1.01237387e-10 1.2575067e-10 1.14330066e-10 1.0117022e-10 1.1970962e-10 1.1439772e-10 9.417262e-11
2.3060773e-10 2.8389044e-10 2.846856e-10 2.3103668e-10 2.8898553e-10 2.8258995e-10 2.420199e-10 2.9656094e-10
2.933461e-10 7e-43 7e-43 7e-43 7e-43 7e-43 7e-43 7e-43
7e-43 7e-43 3.4204868e-11 4.17032e-11 4.0773933e-11 4.0173937e-11 4.5915e-11 4.7406752e-11
3.4730694e-11 4.4299262e-11 4.0602233e-11 7e-43 7e-43 7e-43 7e-43 7e-43
7e-43 7e-43 7e-43 7e-43 1.3857522e-10 1.4393296e-10 1.2040828e-10 1.4603525e-10
1.4838476e-10 1.2263948e-10 1.5271705e-10 1.4689285e-10 1.2347605e-10 7e-43 7e-43 7e-43
7e-43 7e-43 7e-43 7e-43 7e-43 7e-43 2.538333e-10 2.5432342e-10
2.3116474e-10 2.5855257e-10 2.6063557e-10 2.330601e-10 2.497603e-10 2.5743924e-10 2.3343177e-10 6.9726454e-11
7.795492e-11 6.3738986e-11 6.9335794e-11 7.651817e-11 6.177628e-11 7.1205694e-11 7.361467e-11 6.213523e-11
4.8186406e-11 5.1981353e-11 3.6237367e-11 5.869518e-11 4.81531e-11 3.8622945e-11 5.7595064e-11 4.2543753e-11
3.4270777e-11 4.3381274e-11 4.6042958e-11 4.2800916e-11 4.5883814e-11 4.879029e-11 4.195191e-11 4.245816e-11
5.4615777e-11 4.6467045e-11 7e-43 7e-43 7e-43 7e-43 7e-43 7e-43
7e-43 7e-43 7e-43 7e-43 7e-43 7e-43 7e-43 7e-43
7e-43 7e-43 7e-43 7e-43 1.3623291e-10 1.4330594e-10 1.2676572e-10 1.4294017e-10
1.5440027e-10 1.291608e-10 1.4520457e-10 1.564474e-10 1.2756095e-10 0.0 0.0 0.0
0.0 0.0 0.0 0.0 0.0 0.0 7e-43 7e-43
7e-43 7e-43 0.0 7e-43 7e-43 7e-43 7e-43 7e-43
7e-43 7e-43 7e-43 7e-43 7e-43 7e-43 7e-43 7e-43
7e-43 0.0 7e-43 0.0 0.0 0.0 7e-43 0.0
7e-43 0.0 7e-43 0.0 0.0 0.0 0.0 0.0
7e-43 0.0 2.517083e-10 2.3313207e-10 1.9033991e-10 2.5793462e-10 2.33022e-10 1.9074813e-10
2.5523658e-10 2.2796326e-10 1.8624143e-10 2.3097535e-10 1.9574938e-10 1.5528816e-10 2.4426886e-10 2.0346597e-10
1.598386e-10 2.4813665e-10 2.0488186e-10 1.6186022e-10 1.5336439e-10 1.4652056e-10 1.3451597e-10 1.534971e-10

exp_avg f4 [48]
00000000: 1c38 0329 2a4d 0faa eae8 0baa 0af3 9aa9
00000010: 902e e028 fac3 8729 1258 b1aa 6868 9929
00000020: 78cb 4d29 c624 fea7 25f5 d3a8 081d 2e2a
00000030: 6807 112a e629 1eaa c533 ff29 bfc2 1229
00000040: fddd 2f29 7809 9aa9 0f5b 8ba9 baea c229
00000050: 432d 5a2a de95 baaa 2591 24aa bc6d daa9
00000060: 2484 3ca9 88af 902a 99fe c1a8 a9a4 79a9
00000070: 9a47 052a 7e5d 3e27 175a 9629 6c7a 3e2a
00000080: 6716 efa9 bd21 1c2a a8fb a729 41cd 5d2a
00000090: d228 4faa c46a 6429 608f 7aaa f306 50a8
000000a0: 8d9b 07a9 4836 322a 7f0a 4d29 1925 4ea9
000000b0: 9df0 cea9 0297 dd29 6b0d 5329 78f6 3da8
2.913651e-14 -1.2727723e-13 -1.2426488e-13 -6.8811344e-14 2.4889189e-14 6.029201e-14 -3.1502627e-13 6.8126765e-14
4.5695625e-14 -7.053903e-15 -2.353202e-14 1.5464377e-13 1.2881157e-13 -1.4047755e-13 1.13332554e-13 3.2587428e-14
3.905035e-14 -6.8406164e-14 -6.188636e-14 8.656049e-14 1.9377993e-13 -3.3144228e-13 -1.4616483e-13 -9.7001807e-14
-4.1859e-14 2.5701338e-13 -2.1537719e-14 -5.5431927e-14 1.1837615e-13 2.641848e-15 6.676966e-14 1.6917864e-13
-1.0617618e-13 1.3867289e-13 7.459945e-14 1.9699955e-13 -1.8399456e-13 5.0718774e-14 -2.2254204e-13 -1.1547826e-14
-3.011094e-14 1.5828408e-13 4.5528248e-14 -4.5773366e-14 -9.1899775e-14 9.840567e-14 4.686305e-14 -1.0545052e-14

exp_avg_sq f4 [48]
00000000: ed73 af16 b925 ac16 095a 1917 d5a6 d516
00000010: ab88 d516 4426 9a16 d383 1217 c69b 6817
00000020: 4e74 7f16 031e 1717 8268 a916 5903 b416
00000030: 1a0c 8816 c9b3 3f17 fecc 2717 dc33 a916
00000040: de02 6917 cad1 9c16 e81a 7016 4bb9 9316
00000050: f26d 3c17 cc63 2b17 df44 5516 86fa 0117
00000060: ace3 4816 294e f016 9578 a016 38f3 dd16
00000070: 8b3a 6517 fdae bf16 9eff 0617 0ee0 b616
00000080: 7596 d016 907a c216 33d5 cb16 8022 7617
00000090: 8786 da16 97fe c916 1e3a ae16 8912 8517
000000a0: e9ce 6816 a022 7b16 14e4 3516 2df8 5f16
000000b0: 2028 ba16 6b7f 8c16 63ea d616 0573 e316
2.8345934e-25 2.7811905e-25 4.9550607e-25 3.4517292e-25 3.4498256e-25 2.490419e-25 4.734153e-25 7.5159857e-25
2.0635435e-25 4.882861e-25 2.7369376e-25 2.908268e-25 2.1979622e-25 6.194235e-25 5.4219347e-25 2.733615e-25
7.528998e-25 2.5335555e-25 1.9395536e-25 2.3866067e-25 6.0884847e-25 5.537904e-25 1.7227735e-25 4.1998353e-25
1.6227712e-25 3.8823417e-25 2.5925492e-25 3.5857968e-25 7.406778e-25 3.0968147e-25 4.362037e-25 2.9545084e-25
3.3699164e-25 3.1419738e-25 3.2930966e-25 7.953043e-25 3.5304698e-25 3.263397e-25 2.8147893e-25 8.599602e-25
1.88061e-25 2.0286544e-25 1.4693032e-25 1.8092107e-25 3.0075243e-25 2.2698632e-25 3.4721483e-25 3.6746415e-25

exp_avg f4 [48]
00000000: 39c9 7d35 76c4 d635 2062 6134 24b4 8db3
00000010: c7cc 4cb5 f7ea 2535 5596 8735 8c95 27b6
00000020: 03b1 8f34 db45 5335 2ff4 9734 ca8d 6835
00000030: 8cc0 5234 d980 b5b5 07f6 cbb5 e726 f234
00000040: 095c 5f37 1c5d b0b4 92e2 8033 29d1 5eb3
00000050: c8e6 2b36 e106 2a35 fb46 2bb4 125f 8536
00000060: af3f a633 9ba3 b835 7bf5 0436 f200 a535
00000070: 3c57 1636 f356 b9b2 bfc4 aa35 d08a 0c35
00000080: 0f53 e134 a5f9 3935 16bd e434 6e92 63b5
00000090: 8242 4d36 5c7d 1eb5 35d6 ffb3 2cf4 8237
000000a0: a9d7 85b4 cf37 0534 2280 5235 d485 8935
000000b0: 0c92 5736 bb33 ae34 08e1 9c35 39f1 87b5
9.454266e-07 1.600142e-06 2.0990456e-07 -6.5985915e-08 -7.629391e-07 6.180921e-07 1.0102036e-06 -2.4971987e-06
2.676462e-07 7.870528e-07 2.830361e-07 8.6633065e-07 1.9627822e-07 -1.352305e-06 -1.5196282e-06 4.5104318e-07
1.3313264e-05 -3.28503e-07 6.0016774e-08 -5.1878633e-08 2.5615318e-06 6.3339945e-07 -1.5951439e-07 3.9747765e-06
7.741561e-08 1.3756684e-06 1.9812421e-06 1.2293733e-06 2.240252e-06 -2.1576374e-08 1.2723248e-06 5.2356063e-07
4.196995e-07 6.928115e-07 4.2605888e-07 -8.4777173e-07 3.0586093e-06 -5.904201e-07 -1.1913327e-07 1.5610909e-05
-2.4930094e-07 1.2406893e-07 7.8417554e-07 1.0246245e-06 3.2122507e-06 3.2447664e-07 1.1688398e-06 -1.0128489e-06

exp_avg_sq f4 [48]
00000000: 9e26 132d 3853 032d 15c3 862b 6578 8f2b
00000010: e7fb 842c 1e87 0a2d fbdb c72e f6d9 492c
00000020: 08cf 862c f536 a12d fc57 b02c 73f4 732c
00000030: f30f 442b 4723 202d 0202 592d b4a5 252c
00000040: 3429 1330 9e83 102d e681 212c 4d9a 132b
00000050: cab9 5a2e f9fc 9c2b 8752 6d2c 345e a52e
00000060: fe72 262c 64cf 1c2d 15d7 432d 97ec aa2c
00000070: ad6a c92d 0387 8f2b 13f4 1b2d c762 ba2b
00000080: 3ff1 a12c e048 be2b 8d67 282b 375a 562c
00000090: 280c 4c2e 7ec5 342b f849 822b e4ba 5730
000000a0: d779 292d 2b4d 812d e30b 3a2d 4797 ac2c
000000b0: ac95 d52d 38cc d92c 60f1 802d 2a4c 9c2c
8.364557e-12 7.464966e-12 9.575419e-13 1.0194177e-12 3.7796324e-12 7.874394e-12 9.088549e-11 2.868481e-12
3.831494e-12 1.8327987e-11 5.011989e-12 3.4668074e-12 6.965532e-13 9.10278e-12 1.2335468e-11 2.3539894e-12
5.353684e-10 8.214677e-12 2.2951584e-12 5.2439026e-13 4.9732475e-11 1.1154681e-12 3.3725538e-12 7.520065e-11
2.3653852e-12 8.913623e-12 1.11322245e-11 4.8579574e-12 2.2898428e-11 1.0198234e-12 8.864925e-12 1.3243511e-12
4.602679e-12 1.3520539e-12 5.9829295e-13 3.0461308e-12 4.6395027e-11 6.422292e-13 9.257586e-13 7.848213e-10
9.633592e-12 1.4699872e-11 1.0575515e-11 4.905329e-12 2.4281764e-11 6.1901838e-12 1.4659107e-11 4.4422426e-12
